actor_target1.pth (torch_old, 159228 bytes, 6 tensors)

fc1.weight f4 [256, 24]
000000 f4 b1 8b 3e d7 bb 0b bd 1c ff 06 bc 50 af dc bd
       0.27284205 -0.034114685 -0.008239534 -0.10775626
000010 8f 7a 16 be 7c c2 3f bd 97 24 72 bb 92 de fb bc
       -0.1469519 -0.046816334 -0.0036948079 -0.030745778
000020 12 06 27 3e d4 54 4c ba b9 7b c8 bb 45 f7 97 bd
       0.1631091 -0.0007794623 -0.0061182645 -0.0742021
000030 05 60 0f 3e 4b 35 af bd a5 1f 65 3d f0 10 ac bc
       0.14001472 -0.08555087 0.05593838 -0.02100417
000040 88 4d 4a 3e d9 d1 52 bd 67 44 f6 bc 52 48 a1 3d
       0.19756138 -0.051469658 -0.030061914 0.07875122
000050 f3 d2 8a 3e 70 79 76 bd db c2 10 3d ec 8c 09 3d
       0.27114066 -0.060174406 0.03534208 0.03358166
000060 7a 19 d7 3d 93 9a 9f 3c 07 af 98 bd 56 a4 03 3e
       0.10502906 0.019482886 -0.07455259 0.12855658
000070 d5 69 c4 bd 47 4c 59 be ab 3d 87 bd 50 a3 12 3d
       -0.09590498 -0.21220504 -0.06603559 0.03580028
000080 e4 13 21 3d 67 ae 19 bd 7e 4d 58 3d 38 0c 15 bc
       0.03932561 -0.03751984 0.052808277 -0.009097151
000090 1d 65 79 bd 22 67 f5 bd c7 8a b0 3b d7 b2 7c 3a
       -0.060887445 -0.11982562 0.0053876373 0.00096396863
0000a0 fa 98 18 3d 1f 22 46 be 83 45 06 3c 75 58 23 be
       0.037255265 -0.19348954 0.008195284 -0.15951712
0000b0 6c c4 a6 bb 65 98 c9 3a fd c3 5a 3d 4f 95 4a be
       -0.0050893333 0.00153805 0.053409565 -0.19783519
0000c0 bb 97 d2 bd de e3 3b 3d 3b 18 97 3d c7 ad 9c bb
       -0.102828465 0.045871608 0.073776685 -0.004781458
0000d0 cd 33 3c 3d 42 ba be 3d 32 49 13 bc 2b 98 70 bd
       0.04594784 0.093128696 -0.008989619 -0.05873887
0000e0 56 ea 17 ba 6a 5f bb 3d 81 97 24 bd 3e a6 ba bc
       -0.00057951116 0.09149058 -0.040183548 -0.022784349
0000f0 1b 28 9a 3d 22 b3 37 3d f7 06 ac bc 13 38 41 bb
       0.07527181 0.04484857 -0.020999415 -0.0029482886
000100 f8 48 5c 3d 2d 9b 1c 3e 36 04 c9 bd 0a 38 93 3d
       0.053780526 0.1529357 -0.09815256 0.07188423
000110 ae 20 16 3d 7c d9 b4 3c 9d 0f 54 bd 82 89 16 3e
       0.03665226 0.02207636 -0.051772702 0.14700893
000120 1f 50 c7 3c e5 41 07 be 36 92 c7 bb 41 68 d1 bb
       0.024330197 -0.1320873 -0.0060904277 -0.006390602
000130 ab 9c ef bd c8 d8 c0 bc dc 3d 91 3c 8b bf 5a bc
       -0.11699804 -0.02354087 0.017729692 -0.013351331
000140 d0 d6 6c 3c c0 60 c0 bd 03 45 4d bd 11 e8 2b 3d
       0.014455512 -0.093934536 -0.050114643 0.041969363
000150 f6 8c 74 bd c0 9a c4 bc 10 24 3f bc 3f 19 e9 3d
       -0.059704743 -0.023999572 -0.011666313 0.113817684
000160 cf 40 88 3d 5e b5 43 bd 30 bb 6d bd 3c b2 af 3d
       0.06652986 -0.047780387 -0.058039844 0.085789174
000170 65 2e c4 bd 9b 0c 22 3e ba 77 1d 3d 40 3b ec 3d
       -0.095791616 0.15825121 0.03844426 0.115347385
000180 f9 c1 bc 3d 03 02 ea bb e8 bb 9a 3d 37 43 10 3d
       0.09216685 -0.007141353 0.075553715 0.03522035
000190 b1 18 b6 3e ba 12 b2 bc 8f 53 f7 bc 1b 9e 17 bd
       0.35565713 -0.021737445 -0.030191211 -0.037016015
0001a0 11 3c ad 3d d6 88 93 3c 0e dc e2 3b 0e f6 b8 bc
       0.084587224 0.018009584 0.006923205 -0.022578266
0001b0 87 7a 9e 3e c6 37 3b 3c 11 ce ec 3c 65 3a 37 3d
       0.30952856 0.011426872 0.028906854 0.044733424
0001c0 ce 8e ab 3d fb 32 13 3d 79 f3 55 bc 3a 63 a4 bd
       0.08376847 0.03593729 -0.013058537 -0.080267385
0001d0 1d 36 d5 3d b9 7a 2b bd 70 98 d1 3c 4d cf 44 bc
       0.10410712 -0.041865084 0.025585383 -0.012012315
0001e0 79 5b fc 3c 88 3b 27 bd 07 49 02 bd 99 5f f5 bd
       0.030805336 -0.040828258 -0.031807926 -0.119811244
0001f0 29 15 79 3d 3c ea d9 3d e5 14 3e 3d fc 0b d0 bd
       0.060811196 0.1064038 0.046406645 -0.10158536
000200 81 68 d9 3c 1c ea fc 3c ce 14 c2 3c c6 03 0b be
       0.02653909 0.03087335 0.023691561 -0.13575658
000210 06 d7 4f bd 42 46 a0 3c a0 f4 ba 3d 76 d5 e0 bd
       -0.05074217 0.019564752 0.0912869 -0.109782144
000220 2c f5 d3 bc 96 d4 f8 bd 72 12 c2 bc b0 ab 53 bc
       -0.025873743 -0.121499225 -0.023690436 -0.012919351
000230 4c e5 ad bd 12 0b 1a 3e 35 1b 7d bc 41 39 20 bd
       -0.084910005 0.15043285 -0.015448381 -0.0391171
000240 33 95 a5 bd 12 2a 3a bc c7 f6 42 ba bb 4a 49 be
       -0.08085098 -0.011362569 -0.00074372854 -0.19657414
000250 7c 3b ee 3c 9b 5c e5 bd 11 c2 da 3c 5c 36 db bd
       0.029081099 -0.11199304 0.026703866 -0.107037276
000260 4e e7 08 bd eb d0 35 be 14 45 2c bc 8b d7 d4 bd
       -0.033423714 -0.17755477 -0.010514516 -0.10392674
000270 20 ad fe bd c6 00 dd 3d 25 15 02 bd 6e f9 c3 bd
       -0.12435365 0.10791163 -0.031758446 -0.09569059
000280 da 02 89 bd 05 c8 3b be 12 23 d9 3c 92 96 86 3c
       -0.06689997 -0.1833802 0.02650598 0.01642922
000290 9e 73 c4 bd d7 87 07 3c 3a 51 c8 3c d7 4f 41 3d
       -0.09592365 0.008272133 0.024452794 0.04719528
0002a0 85 f3 79 3d 98 48 72 3e 17 ac 39 bd 09 33 f4 bd
       0.061023254 0.23660505 -0.045330133 -0.11923797
0002b0 4f 7b 65 3e 8e 49 b2 3c 96 b2 8e bc 61 02 29 be
       0.2241032 0.02176359 -0.01741914 -0.16504814
0002c0 0e 3f ce 3c 22 b0 0d 3e 47 e0 b6 ba 7b da 50 be
       0.025176551 0.1383672 -0.0013952338 -0.20395844
0002d0 78 f5 c2 3d 8c 7a 42 3d a3 e2 44 3c 7d 2a 49 be
       0.09519476 0.04748015 0.012016925 -0.19645114
0002e0 af 39 a4 3c 15 84 b3 3c f0 b2 64 bd 07 62 45 bd
       0.020047037 0.021913568 -0.05583471 -0.04818919
0002f0 2b 94 12 3e 55 cc 2f bb c8 af a9 3c 71 9a 8a bd
       0.14314334 -0.0026824672 0.020713702 -0.067677386
000300 80 d8 17 be 6d 3d 91 bd 4e eb 89 3c 03 a3 d0 bc
       -0.14828682 -0.07091794 0.016835835 -0.025468355
000310 b9 0b af bc bc b4 a8 3d a2 05 9e 3c 06 36 50 bd
       -0.021367894 0.08237597 0.019289795 -0.05083277
000320 63 80 d7 bd 06 e5 4a be 82 40 19 3d cc 11 3a bd
       -0.10522535 -0.19813928 0.037415035 -0.04542713
000330 cd f1 25 3d 24 3d 34 3e ad 0b 6c 3d a5 72 a9 bc
       0.040513802 0.17601448 0.057628322 -0.02068455
000340 bf b8 0b bc c4 7c 17 be 41 44 17 3d 21 c2 07 3c
       -0.008527934 -0.14793688 0.036930326 0.00828603
000350 55 53 bf 3d 73 d9 3b 3d e9 eb 26 bd b6 83 6d bd
       0.09342066 0.045861673 -0.040752325 -0.057986937
000360 ef 06 c4 3d 40 30 27 3e 4a 26 e3 bc 58 56 5f bd
       0.09571635 0.16327 -0.027728219 -0.054525703
000370 f3 4e c5 bd 24 b7 e7 3d 3b 0f 13 bd 37 49 17 bd
       -0.09634199 0.11314228 -0.035903197 -0.036935057
000380 c9 6e 9c bd 03 ec 90 3a aa e2 1e 3d 29 2d 90 ba
       -0.07638318 0.0011056665 0.038790382 -0.0010999787
000390 84 b3 a9 bd 9d 0f 29 3e 16 48 d4 bb 01 39 92 bd
       -0.08286193 0.16509862 -0.00647832 -0.07139779
0003a0 1d 05 65 3b e6 92 73 3a c0 9c bd bd 3d 40 aa 3d
       0.0034945675 0.0009291604 -0.09258413 0.08313034
0003b0 a2 44 cd 3c 86 74 4e be 05 30 8f 3b 95 81 69 3d
       0.02505714 -0.20161638 0.004369738 0.057008345
0003c0 5e 12 da 3c d4 bb e9 3d 24 c7 38 3c e5 8e d9 bb
       0.026620086 0.114127785 0.011277948 -0.006639349
0003d0 e8 73 b9 bd f4 7c 74 3e cf c6 fe bc 18 3f 49 3d
       -0.090553105 0.23875791 -0.031100659 0.049132437
0003e0 c8 b3 bd 3d 8a 2a 29 3e 01 98 0e 3d e6 3d 14 3e
       0.09262806 0.16520134 0.03481293 0.14476737
0003f0 29 b2 70 3d 03 4a bd 3d 62 b3 d6 bb a2 3d 2a 3e
       0.058763657 0.09242632 -0.006552146 0.16625074

fc1.bias f4 [256]
000000 13 62 3e be a5 48 db 3c 3d b4 a8 bc d8 65 e7 3d
       -0.185921 0.026768038 -0.020593757 0.11298722
000010 9f 07 63 3c 3c 36 17 be d1 04 c1 bd e6 5a ba 3d
       0.0138567975 -0.14766783 -0.09424747 0.09099369
000020 04 27 ef bd ea 2f e6 bd 6c c8 bc 3d ea 43 0a 3d
       -0.116773635 -0.11239608 0.09217915 0.033756174
000030 68 06 0d 3e e0 ca d7 bd 37 c0 a5 bd b7 21 75 3e
       0.13771975 -0.10536742 -0.08093303 0.23938642
000040 5d 3e c0 3d 40 6b 83 3b 14 df 2f be 12 c9 1c bd
       0.09386895 0.004010588 -0.17174941 -0.038277693
000050 ba 9e 4c bd 24 4f 8a bb 7b a5 50 bd 2e d8 ce bd
       -0.04995606 -0.00422086 -0.050939064 -0.10099827
000060 63 67 78 3d ba 5f a0 be 1f 29 6a bc d5 12 82 bd
       0.060645472 -0.31323034 -0.014292031 -0.06351248
000070 1a 08 71 be 02 ec 8c bc fa 44 19 be 12 cc 45 be
       -0.23538247 -0.017202381 -0.14967719 -0.19316128
000080 e9 26 02 be 69 1c b1 3d f2 9c 75 bd 8d c4 9e 3d
       -0.12710156 0.08647997 -0.059964128 0.07752333
000090 bc be b1 bd 34 08 75 3e f3 f4 83 be 90 d8 37 3e
       -0.08678958 0.2392891 -0.2577282 0.17953706
0000a0 46 4c 62 be 6f e6 90 3b 07 18 15 be 67 07 db bd
       -0.22099409 0.004422001 -0.14559947 -0.10694771
0000b0 ea 4b 13 be de 10 3c bd b0 47 d4 3b 51 ec 62 be
       -0.14384428 -0.045914523 0.0064782724 -0.2216046
0000c0 1d 51 80 3e d3 ea 56 3e 41 6b 38 bd 6c 28 bb 3d
       0.25061885 0.20988016 -0.04502416 0.09138569
0000d0 cb b1 10 be a6 ad 79 be 2e 0c d1 3d d3 c4 25 be
       -0.14130323 -0.24382648 0.10207401 -0.16188364
0000e0 ef 68 8d 3e a6 76 0c be bb 27 10 be 32 45 21 3e
       0.2761912 -0.13717136 -0.14077656 0.15749052
0000f0 24 3f a0 bd 20 51 49 bd 81 84 fd bd 0a dc cc bd
       -0.07824543 -0.049149632 -0.12378789 -0.100029066
000100 22 3d c8 3d 81 ca 23 3d da 46 54 be 66 df ea 3d
       0.09777285 0.039988045 -0.20730153 0.11468391
000110 fd 6c f0 bd 1c 56 2a be 3a ae f5 bd d6 fe 09 be
       -0.11739538 -0.1663441 -0.11996122 -0.13476118
000120 60 38 25 be b0 30 00 bb 3b 16 8b bd a8 3b 67 3e
       -0.16134787 -0.001956027 -0.067913495 0.22581351
000130 a3 13 3b 3e 1d cb ed 3d 77 68 3c 3e 63 97 9c 3d
       0.1826921 0.116110064 0.18399225 0.07646062
000140 0b e8 84 bd 98 f1 64 be df 90 f0 bd f7 8c ad be
       -0.06489571 -0.22357786 -0.11746382 -0.3389661
000150 4b 2d 4a 3e b8 3f 11 be 92 cf d8 bb 56 a4 fd 3d
       0.1974384 -0.14184463 -0.006616541 0.1238486
000160 92 03 9a be 2e 6c b8 3d 9e 55 10 bd 25 4e 0f 3d
       -0.3008085 0.09005009 -0.0352379 0.034986634
000170 46 63 ef bd 44 15 00 3e 2d 4c 1e be 19 5d 71 be
       -0.11688857 0.12508112 -0.15458746 -0.2357067
000180 ab 92 0a 3e 9e 73 83 be 84 f3 2f 3e ca a7 11 3e
       0.13532512 -0.25674146 0.17182738 0.14224163
000190 a4 5e d9 bc a1 c4 a6 bd 17 48 1f 3e 66 8b a5 bb
       -0.026534386 -0.08142973 0.15554844 -0.005052018
0001a0 63 cb 50 bd 85 f4 2e 3e 4f 99 03 3e b1 30 b1 bd
       -0.050975215 0.17085464 0.12851451 -0.08651865
0001b0 85 77 b3 3d 13 c5 68 bd 05 bf d7 bd 54 fd 16 be
       0.08763031 -0.05682857 -0.10534481 -0.14745075
0001c0 51 be 9a bd 94 18 68 be 5a 91 21 bc 1b 8b 46 3e
       -0.07555831 -0.22665626 -0.009861315 0.19389002
0001d0 c4 39 aa 3e cf d8 0d be fa 1c 27 be 46 ac 7d 3d
       0.33247197 -0.13852237 -0.16319647 0.06193187
0001e0 52 72 b3 3c b4 fc 94 bd e6 80 71 3e d3 68 a2 3e
       0.021905098 -0.07274762 0.23584327 0.317206
0001f0 23 2d 93 3d b0 db d9 3d 25 96 40 bd fe ff b3 bd
       0.071863435 0.10637605 -0.04701819 -0.08789061
000200 ad 8d 6f 3d 09 17 12 be 26 0e 55 be 17 30 3e 3e
       0.058484722 -0.142666 -0.20806178 0.18573032
000210 63 13 3e be 8c fb 80 3d cc 9a 53 3e 1d 42 17 3e
       -0.18562083 0.06297979 0.20664519 0.14771314
000220 78 b8 a0 3d e7 5a 92 3d 73 13 06 3e 43 62 32 3d
       0.078476846 0.071462445 0.13093357 0.04355074
000230 7c 0f 18 bd e7 1f d9 bd cd 96 12 3e 28 47 00 3e
       -0.037124142 -0.10601788 0.14315338 0.12527144
000240 c1 03 50 3e 5c ac 02 be bd fd 94 bd f3 f4 0c be
       0.20313932 -0.12761062 -0.07274959 -0.13765316
000250 39 58 c0 bd ed 17 ed 3c b0 37 d5 3d 53 e0 66 3e
       -0.09391827 0.028942073 0.10411012 0.2254651
000260 03 56 66 bc d2 49 08 be 7f 08 7a 3e eb 4a e2 3c
       -0.014058593 -0.1330941 0.24417304 0.027623614
000270 27 39 3b 3e 9f 76 85 3c 8e dd 49 3d ba d3 32 3e
       0.1828352 0.016291915 0.049283557 0.1746358
000280 3f 14 79 bd 2f 12 9d 3d 9d f2 ad bd 16 c1 9e 3d
       -0.060810324 0.07669484 -0.084935404 0.07751672
000290 56 49 2d be 95 a4 57 3e 86 95 a2 3c 32 ce d1 bc
       -0.16922507 0.21058877 0.019846689 -0.025611017
0002a0 8d 3e b2 3d c1 e5 11 3e ff d8 9f 3d 27 7c 76 be
       0.08703337 0.142478 0.078050606 -0.24070798
0002b0 14 65 13 be 50 86 69 bd 19 8e b7 bd 81 fb 03 be
       -0.14394027 -0.057012856 -0.0896265 -0.1288891
0002c0 99 f8 1d bd e5 f6 93 3e fb bc 5f bd 82 20 20 3e
       -0.03856716 0.28899303 -0.054623585 0.15637401
0002d0 4d 6b 5b bd db fd 80 3e cd 31 8e 3d 81 57 69 3d
       -0.053569127 0.25193676 0.069430925 0.056968216
0002e0 55 a5 46 3d 50 a4 ac bd e3 7e 03 be e0 a8 80 bd
       0.048497517 -0.084297776 -0.12841372 -0.0628221
0002f0 d9 f8 9c 3d ce 9e 2a 3e 2a 43 70 3e 01 9f 88 3d
       0.076646514 0.16662142 0.23463121 0.066709526
000300 eb 5a 03 be 53 29 3e be 47 c4 8b 3e 7e 9e b7 bd
       -0.12827651 -0.18570451 0.27298185 -0.08965777
000310 83 be 63 be 7d 5c 0b 3e 70 f3 75 3e 19 75 54 3d
       -0.22240643 0.136095 0.24018645 0.051869486
000320 02 9c a9 3c 6c 15 4c be 4a 0b ae 3c bb d8 2a be
       0.020704273 -0.19930047 0.021245617 -0.16684239
000330 a1 02 c5 3e 74 95 52 3e 59 4b 55 bd 0c e6 68 3e
       0.38478568 0.20564824 -0.05207381 0.22744006
000340 60 47 da bc 17 b7 6e be de 2c f6 3d be 47 90 bd
       -0.026645362 -0.2331203 0.120202765 -0.07044934
000350 80 07 67 3e 7c cd 01 3e 45 d3 65 bc 59 be 27 be
       0.22561455 0.12676042 -0.014027421 -0.16381206
000360 d3 a3 25 3e a5 9a 3c 3e d1 d5 e4 3d f8 a7 91 3d
       0.16175775 0.18418367 0.11173595 0.071121156
000370 99 84 f9 bd 48 10 32 3e 01 89 67 3e 6b 29 43 bd
       -0.12183494 0.17389023 0.22610857 -0.04764692
000380 3e 53 c8 bd 78 7a 9a be 85 d6 44 bc 24 6b 4c be
       -0.09781502 -0.3017156 -0.012014036 -0.19962746
000390 d9 d1 73 3d 08 a1 7a be c7 04 76 3e 34 a3 59 3e
       0.0595263 -0.24475491 0.2402526 0.21253663
0003a0 e5 12 11 be 5a e5 90 bd 91 97 db 3d 58 74 f3 bc
       -0.14167364 -0.07074995 0.107222684 -0.029718563
0003b0 68 c3 68 3b d0 30 84 3e 89 23 fd 3d 71 d6 06 3e
       0.0035516862 0.2581849 0.123602934 0.1316774
0003c0 b0 bd b6 bc 22 39 0f be 64 2b 65 3e 28 8a 3f 3d
       -0.022307247 -0.13986638 0.22379833 0.046762615
0003d0 cd ca 90 bc ba 3b 57 3e 7e 75 16 bc 56 5c 63 be
       -0.017674828 0.21018878 -0.009183286 -0.22203192
0003e0 5b c0 fb bd 19 47 3a be 16 37 0c bd f4 8a 4e be
       -0.12292548 -0.18191184 -0.03423222 -0.20170194
0003f0 dc 22 29 3e 87 6a 99 3d d0 de bd bd 12 4d 0b 3e
       0.16517204 0.074910216 -0.09271014 0.13603619

fc2.weight f4 [128, 256]
000000 8a 9d 96 be b0 fa a3 bd 21 99 41 bb fe 18 06 3d
       -0.29417068 -0.08006799 -0.0029540735 0.03273868
000010 6f f9 eb 3d e7 38 55 3d fb 42 10 3d 9c b1 07 3e
       0.11522185 0.05205622 0.035220128 0.13251346
000020 86 d0 98 bc b4 26 4c 3d b2 54 92 bd b4 da f6 3c
       -0.01865412 0.049841598 -0.071450606 0.030133583
000030 00 2e 84 3d 3d 4c 4e 3d e4 a7 84 ba 98 e3 0a 3e
       0.06454086 0.050365675 -0.0010120836 0.13563383
000040 76 db db 39 ab be 8a bb cd 71 0f bc 54 09 ef 3c
       0.00041934446 -0.004234155 -0.00875516 0.029179253
000050 e4 d5 47 bb f6 17 fb 3d 7e 9e 59 bd 9e 58 20 bd
       -0.003049248 0.122604296 -0.053129666 -0.039147012
000060 64 3b f4 ba 3f c4 57 be fe c8 0d be 19 11 95 bd
       -0.0018633422 -0.21070956 -0.13846204 -0.07278652
000070 b4 48 90 bc 2b 65 b2 bd e0 b3 52 3c 60 64 03 be
       -0.017612793 -0.087107025 0.012860268 -0.12831259
000080 ac b1 f9 3d 09 49 c4 bc 59 83 10 3e 03 4d b9 3d
       0.12192091 -0.023960607 0.14112605 0.09047892
000090 7f 5d 0d 3d 93 5c 9d bc 65 bc df 3c 5c ea 96 3d
       0.034512993 -0.019209182 0.027311513 0.07368919
0000a0 28 99 81 3c 5a 26 00 3e 68 1d 3f bd df ef 0f bd
       0.0158201 0.1251463 -0.046658903 -0.03514087
0000b0 a2 cf 6c 3c 30 24 0e 3e a3 b6 a4 3d cc 7b 02 bd
       0.0144538 0.13880992 0.08042648 -0.031856343
0000c0 d9 68 0f 3d 4e 87 01 3d 28 c6 21 bc a1 ae 00 bd
       0.0350121 0.031623177 -0.009873904 -0.03141654
0000d0 b4 c6 43 3c cb 0f 53 bd 67 eb 14 bc 6f 6f f6 bc
       0.01194923 -0.051528733 -0.009089327 -0.030082433
0000e0 ff 84 55 3d 22 ab 33 bd 37 71 2e bd 23 5c 80 bd
       0.052128788 -0.043864377 -0.04258844 -0.06267574
0000f0 63 fe 42 3d f6 f9 3f 3d 0d be f0 bd 1a b8 ca ba
       0.047605883 0.04686924 -0.11754999 -0.0015466243
000100 c6 43 02 bd b6 84 cb 3d f0 7a ad bc 52 96 28 3d
       -0.031802915 0.09937422 -0.021176785 0.04115898
000110 08 18 4e bc 55 99 8b 3b f3 f9 8d 3d e9 45 7b bd
       -0.012578972 0.004260222 0.0693244 -0.06134597
000120 44 28 43 bd 3f 8e 42 3e a9 9f 07 3d c3 23 77 3c
       -0.047645822 0.18999575 0.03311125 0.01508421
000130 47 26 bd 3d 4f 66 47 bc 8f 36 83 3d 03 40 0a 3d
       0.092358164 -0.012170388 0.064068906 0.033752453
000140 7b 36 44 3c a5 ee 66 3b 17 48 34 3d 2c dc 1f 3d
       0.01197588 0.0035237458 0.044014063 0.03902833
000150 ba ba c1 3d ca 89 95 be ba 30 b2 bc 1a 22 27 bd
       0.094594434 -0.29206687 -0.02175175 -0.040804006
000160 08 2d 35 bd 32 0e 7d 3d a7 ee bb 3d 81 81 7e 3d
       -0.0442324 0.061781116 0.09176379 0.062135223
000170 2d e1 41 bd 89 17 e0 3d ba 37 c3 bd a1 42 ab 3c
       -0.047333885 0.10941989 -0.095321134 0.020905795
000180 0a 99 c1 3d f9 b1 10 be 11 34 04 3e 3d d6 02 bd
       0.09453018 -0.14130391 0.12910487 -0.031942595
000190 c0 b8 f5 3c eb 2c 7a 3d 5e 76 51 3d 73 40 cc 3c
       0.029995322 0.061077993 0.051138274 0.024933076
0001a0 d6 c1 d0 3d f9 16 0e 3e 62 c0 53 3d 3a 83 83 3d
       0.10193221 0.13875951 0.051697142 0.06421514
0001b0 48 8c 4a be 67 71 df 3c 6c 3d 18 bd a7 4a a3 3b
       -0.19780076 0.027275754 -0.03716795 0.0049832645
0001c0 80 c7 91 3c 0d 0e 1e 3d 30 b6 67 bd 7c 56 0b 3d
       0.017795324 0.03858762 -0.056570232 0.034018025
0001d0 10 49 04 3e ae 7c 22 3e ba 17 15 be 7c 85 1e 3d
       0.12918496 0.15867874 -0.14559832 0.03870152
0001e0 af 01 4d 3d a3 ca 2b be 8d f0 4c 3d b0 9a c2 3d
       0.050050434 -0.16776519 0.050034095 0.095021605
0001f0 af 5b 73 bd 03 97 df 3d a2 47 b2 3d d2 fc e3 bb
       -0.05941361 0.10917475 0.08705069 -0.0069576288
000200 5e d6 bc bc 21 aa 02 3e 1d 89 14 bd b6 26 a8 3d
       -0.023051437 0.12760212 -0.036263574 0.082105085
000210 42 e1 b9 3d f6 00 e4 3d ba ab 19 3e 63 ef 7c bd
       0.09076168 0.11132996 0.15006915 -0.061751734
000220 de 52 18 3d 5c 15 fd 3c 74 f1 6a bd bc b6 be bc
       0.037188403 0.030893974 -0.057359174 -0.023280494
000230 fa 52 bc bd 97 65 96 3d 31 ca d4 3d 4a 2c 35 bc
       -0.09195514 0.073435955 0.103901275 -0.011057923
000240 2d 8f 81 3d fc 3c ee 3d 43 2a e8 3c 96 16 81 3c
       0.06326137 0.116327256 0.028340464 0.01575784
000250 75 8f 9e bd 83 df 8e 3b 58 f7 4b 3d b1 c9 0a bd
       -0.07742206 0.0043601408 0.049796432 -0.033883754
000260 4b 41 93 bd 54 3e 64 bd 84 d5 68 3d b3 bf 84 3d
       -0.07190188 -0.055723503 0.05684425 0.06481876
000270 53 a0 d8 3c c5 92 ad 3d cf b6 d6 3d dc 85 5c 3d
       0.026443636 0.0847526 0.10484087 0.053838596
000280 30 d8 b6 3d 1c 4a 23 bd 6c 26 5e 3d b0 7f a0 3d
       0.08927953 -0.039865598 0.05423586 0.078368545
000290 67 23 c5 3d 0e 63 44 bd b3 1f 44 bd d9 17 94 3c
       0.09625893 -0.04794603 -0.047881793 0.018077778
0002a0 ee ee bc 3d 12 51 31 3d 10 15 59 bd 2c a5 e0 bc
       0.0922526 0.043290205 -0.052998602 -0.02742251
0002b0 4a a3 7c bd c2 88 e2 bc 84 e9 ef 3c 0f 2c 22 be
       -0.061679162 -0.027653102 0.029286154 -0.1583712
0002c0 47 68 44 3d 85 0e cf bb 61 3e ae 3d 19 45 6b 3d
       0.04795101 -0.0063188695 0.085079916 0.057438944
0002d0 c8 d8 b4 3d c9 7f 81 bd d2 bc 83 3d dd af 59 bc
       0.0883041 -0.06323201 0.06432499 -0.013286558
0002e0 7b 32 c3 3d 94 ee 10 3d d8 e9 98 3d d1 08 9e 3c
       0.09531113 0.035383776 0.07466477 0.019291313
0002f0 cd 21 39 3d 86 1f 11 3e 4d e0 cc 3c 32 cf ca 3c
       0.04519825 0.14172181 0.025009299 0.024757002
000300 fc 72 92 bd d8 4a ad bc 85 ea 85 bd 2b 31 cf bc
       -0.07150838 -0.021153852 -0.06538872 -0.025292
000310 bd 5c 7a be 4c 7f ff 3c 99 53 30 3d 12 7c c1 bd
       -0.2444944 0.03118863 0.043048475 -0.09447493
000320 f4 c0 86 3d bd ff d9 bd d7 b8 8a 3d b5 42 ab bb
       0.06579772 -0.10644481 0.06773537 -0.005226458
000330 ab 51 d5 3d 3a cb b1 3d da 95 10 be e8 ad dc 3d
       0.104159676 0.086813405 -0.14119664 0.107753575
000340 b7 ce 92 3d 36 e2 18 3e 0e 3c f5 3b 38 7b 67 3d
       0.07168334 0.14930043 0.0074839657 0.056513995
000350 a7 a3 9f 3d 94 f5 36 3d 1a 66 92 3d 26 76 b1 bc
       0.07794886 0.044667795 0.071483806 -0.021662783
000360 c0 7a 8b 3d 60 34 25 3d fa ea e9 bd 9e 7b 60 bd
       0.06810522 0.04033315 -0.11421771 -0.05480539
000370 47 46 66 bd 6b 8c ef 3d 44 6f 28 3e c9 57 d5 3d
       -0.056219365 0.116967045 0.16448694 0.10417134
000380 75 18 04 3d 76 b1 af bc c0 09 94 bd 61 4b a4 3d
       0.032249887 -0.021446925 -0.07228422 0.0802219
000390 fd b1 b8 3c 3c 53 92 bd 82 46 2a 3c ed ce 97 3d
       0.022545809 -0.07144782 0.010392787 0.07412515
0003a0 40 a8 ad bd df a5 2c 3d 0b 6c 9d bd 72 1b 38 3d
       -0.08479357 0.042150375 -0.07686623 0.04494805
0003b0 dd 0d 4d bc 06 b6 6a 3c b1 47 3d bc 0b a2 27 be
       -0.012515512 0.014325624 -0.011552737 -0.16370408
0003c0 65 89 1d bd e8 da 0f be cd a0 3e 3e 77 3a 4f bd
       -0.038461108 -0.1404835 0.18616028 -0.050592866
0003d0 0f 15 7a 3d 07 8b 33 3d 2c 41 16 3e 27 4d cc bd
       0.06105524 0.04383376 0.14673299 -0.09975653
0003e0 6f cc de 3d 4a 60 64 bd c9 55 92 3d 0e 3f 9a bd
       0.10878836 -0.05575589 0.071452685 -0.07531558
0003f0 65 f9 5f 3c 33 39 a8 bd e2 4f 25 3d 09 d0 49 3b
       0.0136703 -0.08214035 0.040359385 0.0030794165

fc2.bias f4 [128]
000000 98 80 3d 3e e3 60 6d bd b6 f9 73 3d 5a a0 0f bc
       0.18506086 -0.057953727 0.059564315 -0.008766258
000010 2f ec 81 3d 81 7c 40 3d 3d e7 0f 3e 5e 29 9a bd
       0.063438766 0.046993736 0.14053054 -0.075274214
000020 27 ec a0 bd 8c 64 d6 bc 1c 5e 41 3e 82 7f e7 3d
       -0.078575425 -0.026170991 0.18883556 0.11303617
000030 6b ae 4d bd b0 b2 01 3e ca df 68 be aa 0f 99 bd
       -0.050215166 0.1266582 -0.22741619 -0.07473691
000040 0e 46 7d bb ec 26 35 bc 6e 0a 51 bd 7f c6 a4 3d
       -0.0038646492 -0.011056643 -0.051035337 0.080456726
000050 ec d2 ca bd f7 d1 57 bd 98 b6 da 3d 3c fd df 3d
       -0.099035114 -0.052690472 0.10679358 0.109369725
000060 ca 68 d0 3d 0f 70 06 3d 6c d3 65 be 21 ca be bd
       0.10176237 0.03282171 -0.22443932 -0.09315897
000070 8a 19 6a bd d3 f1 b7 bd ed 7f 7d 3d e6 25 2d 3e
       -0.057153262 -0.08981671 0.061889578 0.16908988
000080 18 58 31 be dc d5 5f bd c7 5f 89 3d 3f fb e6 bd
       -0.17318761 -0.05464731 0.06707721 -0.1127839
000090 b3 6d c2 bd 10 93 a0 3c 88 61 76 bd 5e 42 15 be
       -0.0949358 0.019601375 -0.060151607 -0.14576098
0000a0 0d e3 bf bd 42 93 1a 3d ac d3 aa bd 21 e0 de 3b
       -0.093694784 0.037738092 -0.083411545 0.0068016206
0000b0 bf d2 d8 3c a2 c3 88 3b a9 3a 9f bd a9 ca 40 bc
       0.026467679 0.004173712 -0.077748604 -0.011767068
0000c0 f6 c8 8d bd 59 c9 5e 3d 9d d2 05 be 0b 48 84 3d
       -0.06923096 0.05439124 -0.13068624 0.064590536
0000d0 87 1d 18 be 0b 81 05 3e 2e cd 84 3d 24 ef af b9
       -0.14855014 0.13037507 0.064844474 -0.00033556775
0000e0 ff f0 19 3d ae 51 e6 3d 3f ed f6 bd 38 f3 e6 3d
       0.037583347 0.11246048 -0.1205697 0.11276859
0000f0 58 f0 a5 bd a1 0b a6 bd b0 97 ad bd 99 6f 12 3e
       -0.081024826 -0.08107687 -0.08476198 0.14300384
000100 a8 e4 ba 3d 88 53 5b 3d a2 2b 99 bd 5f 10 6d 3d
       0.09125644 0.05354646 -0.074790254 0.05787694
000110 39 10 13 bc 4a cf 57 3e 70 1c 38 bd b1 ed ed bd
       -0.008976036 0.21075168 -0.044948995 -0.11617602
000120 47 38 66 39 f3 d0 8a 3b 61 52 ca 3c 1d 5c 44 bc
       0.00021955474 0.0042363345 0.024697484 -0.011984852
000130 31 9c eb bd 8c b1 53 3e 83 2a 02 3e 90 d2 8c bd
       -0.115044005 0.20673198 0.1271153 -0.06876099
000140 09 c1 3c bd 3c 47 aa 3d 8a a2 3e 3c 42 2f 62 3c
       -0.04608253 0.08314368 0.011635432 0.013805212
000150 cf 5e c3 bc f5 0f dc bb 9f 45 cd 3d 4b 8c db 3d
       -0.02384892 -0.0067157694 0.10023045 0.10720118
000160 37 c3 8b bd 99 ec 21 bd de 31 2d 3d 4b 1d 1a 3e
       -0.06824344 -0.039532278 0.042283885 0.15050237
000170 4d 88 f2 3c d9 df a3 bc 83 02 ef bc 12 55 2d 3e
       0.029606009 -0.0200042 -0.029176002 0.16926983
000180 2a 0e 23 3d ee 45 61 3d 0f 47 d2 bc 9c a0 ed bc
       0.03980843 0.05499833 -0.025668649 -0.029007249
000190 8b cf 84 bd 2f dc 71 bd 12 65 fd 3b 98 30 c5 bd
       -0.06484898 -0.059047874 0.007732996 -0.09628409
0001a0 90 1b 30 be 91 63 5c bd 58 bf ee 3d 00 d3 f3 bc
       -0.17198014 -0.05380589 0.1165759 -0.029763699
0001b0 6c 13 80 bc 3d fa 84 bd ad 69 a9 bd 6a 9d f9 bd
       -0.015634261 -0.06493042 -0.08272109 -0.121882275
0001c0 cd 0f 1a bd e7 c2 95 3b 86 8a 4b 3d e8 6a 9c bd
       -0.037612725 0.0045703533 0.049692653 -0.07637578
0001d0 14 ef 1c be e0 6c eb bc 24 b7 4d 3d 1f c9 e9 bd
       -0.15325576 -0.02873844 0.050223485 -0.11415314
0001e0 1e 28 2b 3d 9c 05 ce bc ae 3f 80 3c e5 80 ad bd
       0.041786306 -0.02514916 0.015655365 -0.0847185
0001f0 3a a8 0a 3e de 2c e3 3d 54 fc f4 3d 3e a7 16 3e
       0.13540736 0.11092542 0.1196219 0.14712235

fc3.weight f4 [2, 128]
000000 b4 76 19 3b 64 cb bb bd 7d cc 36 3c 42 69 5b 3c
       0.00234167 -0.09169653 0.011157152 0.013391795
000010 51 0b 9e bd ac 4b 01 3d 1a 37 48 bd 2f 4c d9 bd
       -0.07717002 0.031566307 -0.048880674 -0.10610234
000020 46 19 72 3c e8 ad 3c 3e c3 44 50 3d 16 3a 43 3d
       0.0147765335 0.18425715 0.050846826 0.047662817
000030 87 c3 61 be 91 b2 43 3d db 87 23 be c3 a4 f6 bd
       -0.22047244 0.047777716 -0.15969793 -0.120431446
000040 2d 2c fe 3c a2 d7 e7 bd 1c e1 0b be 35 2c 77 3d
       0.031026924 -0.113204256 -0.13660091 0.060344893
000050 2f 3c 71 be c0 08 3b bd f5 97 8e bd 31 ec a0 3d
       -0.23558114 -0.04566264 -0.06962577 0.0785755
000060 a0 a9 00 3e 28 d3 54 bd 12 6b 84 bd a2 c7 42 3c
       0.12564707 -0.051959187 -0.064657345 0.0118884165
000070 2d 20 9e bd 92 21 0a be 91 03 66 bd 6c 62 0d 3d
       -0.07720981 -0.13489369 -0.056155745 0.03451769
000080 d3 32 48 bd 52 3d 10 be eb 90 53 3d 7d 98 8f bd
       -0.048876595 -0.14085892 0.051651876 -0.07011507
000090 8d 48 fe 3c c7 51 41 3b d6 7a 27 3d 66 93 8b bd
       0.031040454 0.0029498206 0.04088863 -0.068152234
0000a0 90 44 a1 bd 07 ce c6 bd 6d 64 4b bd 8f 9e 82 bd
       -0.078744054 -0.09707265 -0.04965632 -0.06377899
0000b0 70 55 09 3e c9 94 82 3d f0 97 33 be a2 26 21 be
       0.13411498 0.06376035 -0.17538428 -0.15737393
0000c0 a9 3c e2 bd 29 49 d1 bc 3d cd 1c be f6 19 cf bc
       -0.11046726 -0.02554758 -0.15312667 -0.025280934
0000d0 5d 23 d5 bd d9 d8 76 3d 44 9c 5a 3e e7 37 fe bd
       -0.10407136 0.060265396 0.21348673 -0.12413006
0000e0 00 b8 e9 3d 4f d4 d0 3c 0a 1f 80 3d 8f 89 0f be
       0.11412048 0.025491862 0.0625592 -0.14017318
0000f0 a1 31 d6 3e d3 f6 46 bd 3b ce ca 3b 53 b0 9e 3d
       0.4183474 -0.048575234 0.0061891354 0.07748475
000100 15 05 88 bd 79 a0 80 be 1d 46 a3 be 51 89 3d bd
       -0.06641594 -0.2512243 -0.3188943 -0.046273533
000110 b8 e2 32 be 78 a3 97 3c 96 9f 27 bd 58 fc 7c be
       -0.17469299 0.018510565 -0.040923677 -0.24705637
000120 ed 29 0d be a0 09 45 be 53 05 ca bd 9e 98 4c be
       -0.13785525 -0.19241953 -0.09864297 -0.19980094
000130 d5 b1 5f bd 6e 09 5d 3d d9 0f 13 3d c0 ac 27 be
       -0.054612953 0.05396407 0.035903785 -0.16374493
000140 4b 38 e2 bd 75 ef 8e bd 0c f5 14 bd 37 02 4a 3d
       -0.11045893 -0.069792666 -0.036366507 0.04931852
000150 a4 e4 03 bd a5 f7 38 3d d8 97 8d 3d cd e3 6b 3c
       -0.03220047 0.045158047 0.069137275 0.014397574
000160 f0 c3 10 3d 0c 39 1d be 79 28 82 3d 4d be 6d bd
       0.03534311 -0.15353793 0.06355376 -0.058042813
000170 27 db 92 be dc 8a 3b 3e 71 82 bd 3d 87 04 83 3c
       -0.28682825 0.1831469 0.09253395 0.01599337
000180 b4 dd 59 bc 41 d0 6f 3d 37 27 d9 bd 0d 3f ae bd
       -0.013297487 0.058548216 -0.10603183 -0.0850812
000190 0c eb 1f be 37 09 ba be c6 52 49 bd a3 aa b7 bc
       -0.15617007 -0.36335155 -0.049151205 -0.022420233
0001a0 f7 c3 6c bc ea d5 09 3d d3 b0 05 3d 22 c1 07 be
       -0.014451019 0.03365127 0.032639336 -0.13257268
0001b0 31 3d 4e be 1b d2 21 bd 4d 24 36 bd 1b 28 b4 be
       -0.2014053 -0.039507013 -0.044468213 -0.35186848
0001c0 60 a1 87 be f8 0f 65 3d ef a4 60 3e 29 5f 2a bd
       -0.26490307 0.055923432 0.21937917 -0.041594658
0001d0 6e 74 05 bd e5 e6 06 be 38 92 48 bd e8 d4 30 bd
       -0.03258174 -0.13174017 -0.04896757 -0.043171793
0001e0 4d 22 e4 bd 6f 4f 32 bd 40 57 a1 be b9 15 a6 bd
       -0.11139355 -0.043532785 -0.3151188 -0.08109612
0001f0 1e c2 9a 3d 18 0c fe 3c 24 e7 e2 bd 3f d2 26 3d
       0.07556556 0.031011626 -0.11079243 0.04072785
000200 a1 77 d0 bd 24 ae 5d 3e bb 98 87 be 0d 6f 2f 3d
       -0.101790674 0.2164846 -0.26483712 0.042830516
000210 64 98 bb be db e0 18 ba 3f df 58 be ba 51 1e be
       -0.36639702 -0.0005831846 -0.21178912 -0.15460864
000220 14 09 d6 3d 6b 2f 76 3e 8f 55 0b be 9c 79 cc bc
       0.1045095 0.24041526 -0.13606857 -0.024960332
000230 21 dc 80 3d f9 af f7 bd 44 a2 88 3e 1f 6a 11 3d
       0.06291986 -0.12094111 0.266863 0.035501596
000240 b4 07 b5 bb 4f 1b d8 bb 59 99 35 3e 1d ff 63 bd
       -0.0055246 -0.0065950523 0.17734279 -0.055663217
000250 87 0a 1a be 92 8e fb 3c 53 bf b7 be 34 a0 71 bd
       -0.15043078 0.030707631 -0.35888156 -0.058990672
000260 c3 5e ab 3d 41 77 5c bd cf 37 cd 3d ff a7 fc 3d
       0.08367684 -0.053824667 0.1002041 0.1233673
000270 03 bc bb 3e 4b 01 44 3e f8 3b e6 bd 3c 51 f2 bd
       0.3666688 0.19141118 -0.11241907 -0.118319005
000280 0a 80 f8 3d 9f 62 84 bd 16 11 8d bd 59 f0 6f 3e
       0.121337965 -0.06464123 -0.068880245 0.23431529
000290 0b 16 08 3e 15 0a bb 3d 12 4b 59 3e 36 d0 4c 3e
       0.13289659 0.09132782 0.21220043 0.20001301
0002a0 fe 47 a9 3e 57 7c 92 3e 51 2a a4 3e 7d 0f 20 be
       0.33062738 0.2861049 0.32063535 -0.15630908
0002b0 d6 36 fa 3d e5 56 72 3d 4e e8 35 3e 6b 0c 8c 3e
       0.122174904 0.0591649 0.17764398 0.27353224
0002c0 a7 4b 00 3e d6 0f 58 be ce b5 50 bc 20 d1 2a be
       0.12528859 -0.21099791 -0.012738658 -0.16681337
0002d0 cb 5e 70 3e 56 f4 71 bd 34 1f a9 3c 76 07 88 3e
       0.2347366 -0.059070908 0.020644762 0.26568192
0002e0 fa 62 db 3d 7d 12 91 bc 6c 68 50 3e 73 67 72 bd
       0.10712238 -0.017709011 0.20352334 -0.059180688
0002f0 90 81 68 3e 55 ec 56 3d 6d 84 25 3e 3d 60 99 be
       0.22705674 0.052471478 0.16163798 -0.29956236
000300 9f d7 c8 bd ba e0 4e be 9c 99 16 3e 34 69 00 be
       -0.098067515 -0.20202914 0.14707035 -0.12540132
000310 42 26 bd bc fc 0a d1 bd d8 85 51 3e dd c4 aa 3d
       -0.023089532 -0.10207173 0.20461214 0.0833833
000320 c6 77 3f 3e dd c2 d7 3d cb 7a c3 bd 9c 6c 09 bd
       0.18698034 0.10535214 -0.09544905 -0.033550844
000330 4e fa f0 3d e6 a1 fc bd 81 43 b7 bd 0e c1 63 3d
       0.11766492 -0.12335567 -0.08948422 0.055604033
000340 0a 25 3f 3e c8 9c dc bd 04 47 67 bd ca 77 3f bb
       0.18666473 -0.10772091 -0.05646421 -0.0029215687
000350 e1 18 48 3d f1 d6 83 3d 0e e0 0f be f5 ff d5 bd
       0.04885185 0.06437481 -0.14050314 -0.104492106
000360 44 bb 3a 3e 6a 8a 0e 3d 5e f0 b9 3c d8 5e 26 be
       0.18235499 0.03479997 0.022697624 -0.16247118
000370 b3 9d df be e9 40 ef 3d ac d1 0b 3e 8a 3c 07 be
       -0.43675002 0.116823025 0.13654202 -0.13206688
000380 51 e0 62 3e 71 c1 93 bb 19 a4 e7 3d 65 83 a5 3e
       0.22155882 -0.004509144 0.11310596 0.3232681
000390 ea 3b fe 3d 21 29 00 3e c2 37 0c be 57 10 df 3d
       0.124137715 0.1251569 -0.13693145 0.108917885
0003a0 b5 6c e2 3e 3a 6b b9 3c 0e cc 58 bd 37 04 b7 3d
       0.44223562 0.022634137 -0.052928977 0.08936351
0003b0 b6 5c 40 3e 58 10 54 3e 54 11 6f 3e 62 1e 2d 3e
       0.18785366 0.2070936 0.23346454 0.16906121
0003c0 29 cb 04 bd 85 5e 68 3e 09 55 00 bd 39 af 61 3e
       -0.03242031 0.22692306 -0.031331096 0.22039498
0003d0 7a ae 0e 3e c9 51 ad 3d 69 b7 77 bd 53 bb 12 3e
       0.13933745 0.08462865 -0.060477648 0.14329271
0003e0 f9 d2 45 3d a8 7a 9f 3e 9c c1 2c 3e e5 7f 51 3e
       0.048296902 0.31148267 0.16870731 0.20458944
0003f0 d2 6e 00 be 7b fb e4 be 5f f6 d2 bd ed 81 24 be
       -0.12542275 -0.44723114 -0.10300898 -0.16065188

fc3.bias f4 [2]
000000 35 4f 52 3d 2a eb ee bd
       0.05134507 -0.11665948
