actor1.pth (torch_old, 159228 bytes, 6 tensors)

fc1.weight f4 [256, 24]
0.2753558 -0.03312906 -0.008602085 -0.10589431 -0.14885032 -0.043254267 -0.004057413 -0.02888483
0.16777265 0.00021723453 -0.0049177436 -0.07362832 0.13953833 -0.08409843 0.05713808 -0.02043099
0.19936085 -0.05008638 -0.02975795 0.08023306 0.27185553 -0.057609744 0.035645176 0.035064235
0.104389966 0.022612473 -0.07389709 0.1294032 -0.096341036 -0.21249765 -0.065379985 0.036648385
0.03822165 -0.033842575 0.0523357 -0.006847607 -0.062111996 -0.1206204 0.004915712 0.0032134017
0.03589245 -0.19042492 0.009384322 -0.15963058 -0.006614905 0.002839577 0.054597985 -0.19794758
-0.10297061 0.046420973 0.07718575 -0.0077413027 0.045030683 0.0961262 -0.0055794315 -0.06169806
-0.001132557 0.0921024 -0.040983774 -0.023600804 0.074422754 0.04786102 -0.021799954 -0.0037650054
0.05338551 0.15326266 -0.096706405 0.06965463 0.035781726 0.025530603 -0.05032719 0.14477816
0.02483507 -0.13430554 -0.0068645263 -0.00704324 -0.119962655 -0.025306258 0.016955307 -0.014003856
0.014933474 -0.09647025 -0.04937863 0.04279888 -0.061487194 -0.02438016 -0.010930854 0.11464616
0.0684781 -0.049071696 -0.051049113 0.09188041 -0.096520014 0.1588588 0.045433708 0.121438265
0.09433573 -0.009182706 0.07475417 0.033327598 0.35507986 -0.017141184 -0.030989453 -0.03890783
0.084139474 0.016104445 0.007309429 -0.023340879 0.3085395 0.010115163 0.029292792 0.04396994
0.08108558 0.034225114 -0.013834561 -0.08049373 0.10190451 -0.04696354 0.024808856 -0.012239551
0.03270612 -0.038874216 -0.03140071 -0.11997712 0.061176863 0.107423335 0.04681292 -0.10175139
0.02785416 0.03262307 0.023495797 -0.1363462 -0.05034026 0.019461932 0.09109015 -0.11037192
-0.024888394 -0.11989322 -0.023259155 -0.012457176 -0.084566236 0.15134414 -0.015017185 -0.038654458
-0.08014792 -0.011598399 -0.00076769636 -0.19650747 0.028597753 -0.112127 0.026679525 -0.10697201
-0.033221927 -0.17830901 -0.00979236 -0.10679357 -0.125066 0.10758359 -0.031036075 -0.098557435
-0.06635716 -0.18461469 0.028722027 0.014339632 -0.09712863 0.008304647 0.026668875 0.04510537
0.057286244 0.23764093 -0.047490142 -0.11936034 0.22234905 0.023137387 -0.019579545 -0.16517012
0.022603368 0.13877663 -0.00094045047 -0.20537192 0.0938203 0.045704257 0.012471551 -0.19786464
0.01859007 0.021354472 -0.055558838 -0.049590927 0.14187685 -0.009048157 0.020988602 -0.06907893
-0.14708486 -0.07336084 0.018416584 -0.02881796 -0.019437907 0.08028244 0.020870512 -0.0541821
-0.10367486 -0.20130737 0.037408322 -0.048050832 0.041681327 0.17494166 0.057621367 -0.023308538
-0.006894236 -0.15169969 0.036057413 0.005456735 0.093714185 0.044246677 -0.041624215 -0.060815465
0.09599305 0.16470478 -0.026325777 -0.0548835 -0.0965716 0.113149844 -0.034500606 -0.03729309
-0.076151736 0.0025412305 0.038776286 -0.0018910377 -0.08355938 0.1636648 -0.006491849 -0.07218801
0.0037007316 0.0023691752 -0.09348801 0.08193629 0.023974556 -0.20494413 0.0034645698 0.055814482
0.027787676 0.11506301 0.008570495 -0.009547026 -0.09043034 0.2324485 -0.033807624 0.046224043
0.094556965 0.16530682 0.031855244 0.14254144 0.05949689 0.08608353 -0.009509266 0.16402462
00000000: 6ffb 8c3e 56b2 07bd c2ef 0cbc 1edf d8bd
00000010: 386c 18be 632b 31bd 0cf4 84bb e19f ecbc
00000020: 98cc 2b3e 73c9 6339 0625 a1bb 72ca 96bd
00000030: 23e3 0e3e cc3b acbd 9f09 6a3d e45e a7bc
00000040: 4025 4c3e 6027 4dbd f2c6 f3bc 3b51 a43d
00000050: a630 8b3e 32f8 6bbd ad00 123d 849f 0f3d
00000060: 68ca d53d cb3d b93c 5c57 97bd 4682 043e
00000070: 734e c5bd fc98 59be f1e5 85bd 9e1c 163d
00000080: 4e8e 1c3d 839e 0abd f55d 563d e461 e0bb
00000090: 2669 7ebd d407 f7bd fb13 a13b ef97 523b
000000a0: f603 133d c0fe 42be b3c0 193c 3376 23be
000000b0: d8c1 d8bb 3218 3a3b 23a2 5f3d c5b2 4abe
000000c0: 41e2 d2bd eb23 3e3d 9013 9e3d c1aa fdbb
000000d0: 1872 383d d0dd c43d aad3 b6bb 1bb7 7cbd
000000e0: 4f72 94ba 2fa0 bc3d 9ade 27bd 7956 c1bc
000000f0: f56a 983d eb09 443d d195 b2bc 4fbe 76bb
00000100: c4aa 5a3d e3f0 1c3e 020e c6bd 16a7 8e3d
00000110: dc8f 123d 8e25 d13c e223 4ebd ba40 143e
00000120: eb72 cb3c 6487 09be d2ef e0bb fbca e6bb
00000130: fbae f5bd 124f cfbc dbe5 8a3c 6e70 65bc
00000140: 88ab 743c 3292 c5bd 3f41 4abd e14d 2f3d
00000150: ffd9 7bbd e7b8 c7bc 5317 33bc 9bcb ea3d
00000160: 3f3e 8c3d 67ff 48bd e018 51bd cc2b bc3d
00000170: 49ac c5bd e2ab 223e b218 3a3d a0b4 f83d
00000180: 1733 c13d 0f73 16bc b718 993d 8582 083d
00000190: 07cd b53e ab6b 8cbc 98dd fdbc d15d 1fbd
000001a0: 5151 ac3d 78ed 833c ef83 ef3b 5f35 bfbc
000001b0: e4f8 9d3e 12ba 253c 70f7 ef3c d319 343d
000001c0: 3210 a63d a22f 0c3d 5baa 62bc e6d9 a4bd
000001d0: 50b3 d03d d75c 40bd f13b cb3c 6688 48bc
000001e0: daf6 053d 923a 1fbd 089e 00bd 90b6 f5bd
000001f0: 9794 7a3d c400 dc3d e8be 3f3d 0863 d0bd
00000200: 682e e43c c59f 053d 427a c03c 579e 0bbe
00000210: 9731 4ebd a16e 9f3c 798d ba3d ac0a e2bd
00000220: bfe2 cbbc 948a f5bd fc89 bebc 2f19 4cbc
00000230: 1031 adbd f5f9 1a3e a40a 76bc 2354 1ebd
00000240: 9824 a4bd 3607 3ebc 3b3f 49ba 4139 49be
00000250: d645 ea3c d7a2 e5bd 058f da3c 2414 dbbd
00000260: b713 08bd a396 36be 2270 20bc 96b6 dabd
00000270: 4d11 00be c954 dc3d 5e3f febc 7bd8 c9bd
00000280: 43e6 87bd a20b 3dbe 754a eb3c c7f0 6a3c
00000290: 60eb c6bd 3710 083c af78 da3c 69c0 383d
000002a0: fba4 6a3d 2558 733e 0685 42bd 3273 f4bd
000002b0: 78af 633e 9e8a bd3c 4865 a0bc 5b22 29be
000002c0: b32a b93c 761b 0e3e 9088 76ba 044d 52be
000002d0: dc24 c03d 6334 3b3d 7a55 4c3c 079d 4abe
000002e0: 344a 983c 93ef ae3c aa91 63bd db1f 4bbd
000002f0: 2a48 113e b93e 14bc 4af0 ab3c 4179 8dbd
00000300: 6a9d 16be 353e 96bd 60de 963c a413 ecbc
00000310: 3f3c 9fbc 1f6b a43d a3f8 aa3c 0dee 5dbd
00000320: 7c53 d4bd 8523 4ebe 7839 193d f3d0 44bd
00000330: 0aba 2a3d e823 333e 6204 6c3d 8cf1 bebc
00000340: 0be9 e1bb 2a57 1bbe f0b0 133d 69ce b23b
00000350: 39ed bf3d 013c 353d 277e 2abd a319 79bd
00000360: 0198 c43d 5fa8 283e 28a9 d7bc 85cd 60bd
00000370: 55c7 c5bd 1bbb e73d 8250 0dbd a4c0 18bd
00000380: 71f5 9bbd c68a 263b e2d3 1e3d b2dc f7ba
00000390: 2e21 abbd bf97 273e 94b9 d4bb 4fd7 93bd
000003a0: f987 723b 2a44 1b3b a476 bfbd 37ce a73d
000003b0: 4a66 c43c e0dc 51be d60d 633b ba9d 643d
000003c0: fba2 e33c 28a6 eb3d 436b 0c3c 216b 1cbc
000003d0: 8b33 b9bd fb06 6e3e dd79 0abd 6c55 3d3d
000003e0: 15a7 c13d 3146 293e a57a 023d 62f6 113e
000003f0: 03b3 733d 904c b03d c1cc 1bbc 12f6 273e

fc1.bias f4 [256]
-0.18742278 0.027300885 -0.018844655 0.11188849 0.0147158755 -0.14799058 -0.09328831 0.09158494
-0.117735304 -0.11257751 0.08695308 0.034753606 0.13748407 -0.106698446 -0.08329193 0.23874198
0.09477074 0.0035394859 -0.17462444 -0.03754065 -0.052293137 -0.006591617 -0.051537577 -0.101781115
0.060320698 -0.31511825 -0.013433622 -0.06243195 -0.23522225 -0.016791092 -0.15021288 -0.19182579
-0.12696296 0.08668273 -0.059713166 0.07861427 -0.08711407 0.23993082 -0.2593021 0.18282533
-0.22378002 0.0062886197 -0.14794353 -0.10836136 -0.14339857 -0.045084074 0.0072695003 -0.22171336
0.24501294 0.21031061 -0.043880448 0.09212713 -0.14265552 -0.24348535 0.101394 -0.16500016
0.27823937 -0.13515288 -0.14258914 0.1543615 -0.07764523 -0.049753092 -0.12373194 -0.10224166
0.09767522 0.042392924 -0.20698214 0.113716856 -0.11615819 -0.16745636 -0.12103555 -0.13641505
-0.16107576 -0.0007630663 -0.067542404 0.22670312 0.18516968 0.117260024 0.18665442 0.07824341
-0.064250335 -0.22527593 -0.11563047 -0.34024644 0.19725393 -0.14215913 -0.005626533 0.121817335
-0.30409384 0.09078935 -0.036052883 0.031080972 -0.11969314 0.12611364 -0.15409718 -0.23473929
0.13425113 -0.2575285 0.17091122 0.14261635 -0.024577552 -0.08604381 0.15316816 -0.007109491
-0.049899083 0.16840579 0.13065585 -0.08669012 0.08942847 -0.06064346 -0.10551806 -0.1482984
-0.07783752 -0.22745855 -0.010614828 0.19314079 0.33462045 -0.13908106 -0.16390365 0.060944963
0.021923887 -0.07282597 0.23567039 0.31826758 0.07075579 0.10918876 -0.046823625 -0.09014427
0.056928057 -0.14083739 -0.20533851 0.18543641 -0.18592335 0.06216206 0.20899343 0.14792603
0.082144685 0.07131689 0.13005927 0.041119058 -0.036352433 -0.1047359 0.14279257 0.12624148
0.2026522 -0.1298653 -0.07145974 -0.13699952 -0.0950522 0.02886026 0.10493621 0.22416368
-0.016118845 -0.13249698 0.24439864 0.0306486 0.18261562 0.017589822 0.048781596 0.17640801
-0.05968161 0.07571843 -0.084609084 0.08189004 -0.1694283 0.20859656 0.01884755 -0.023838107
0.08857166 0.14364724 0.07543767 -0.23989955 -0.1433533 -0.05430791 -0.09091198 -0.12840913
-0.036089122 0.28851977 -0.05316489 0.15550971 -0.05389786 0.2523896 0.067892656 0.057397213
0.049849287 -0.08526713 -0.12759197 -0.060054168 0.07648123 0.16456121 0.23498927 0.06524197
-0.12778045 -0.18550667 0.2719816 -0.08746178 -0.22354469 0.13581659 0.24162573 0.047445152
0.021517474 -0.19928801 0.020566687 -0.17066674 0.38496354 0.20532215 -0.04979593 0.22526814
-0.025380865 -0.2355759 0.12132971 -0.07023098 0.22512047 0.12973043 -0.013975399 -0.16216646
0.16335334 0.18466887 0.11083284 0.0748863 -0.12104566 0.17541076 0.22927141 -0.048524592
-0.09713429 -0.30292845 -0.012820911 -0.19881217 0.05692774 -0.24171379 0.23907478 0.21465704
-0.1420686 -0.06923669 0.106059015 -0.031175515 0.003721784 0.26141134 0.12373265 0.13250723
-0.027884712 -0.14275588 0.22359262 0.046907358 -0.017084913 0.21007949 -0.008303239 -0.22199291
-0.12477172 -0.1810217 -0.03234308 -0.20393892 0.16545464 0.070032224 -0.092728496 0.13541208
00000000: c2eb 3fbe 1ba6 df3c 1b60 9abc cb25 e53d
00000010: db1a 713c d88a 17be f10d bfbd e390 bb3d
00000020: 351f f1bd 0a8f e6bd 7514 b23d cc59 0e3d
00000030: a0c8 0c3e b784 dabd f694 aabd c778 743e
00000040: 2917 c23d b8f6 673b c0d0 32be 3ac4 19bd
00000050: 5431 56bd 7efe d7bb 1119 53bd 9e72 d0bd
00000060: d612 773d 2e57 a1be b218 5cbc a5b8 7fbd
00000070: 1ade 70be 798d 89bc 68d1 19be fb6d 44be
00000080: 9402 02be b786 b13d cb95 74bd 8500 a13d
00000090: dd68 b2bd 6db0 753e 3fc3 84be 9036 3b3e
000000a0: 9726 65be c410 ce3b 827e 17be 90ec ddbd
000000b0: 13d7 12be 14aa 38bd fd34 ee3b d408 63be
000000c0: ace4 7a3e aa5b 573e fcbb 33bd 26ad bc3d
000000d0: 4a14 12be 3954 79be a8a7 cf3d cdf5 28be
000000e0: 6475 8e3e 8465 0abe e302 12be f110 1e3e
000000f0: 7604 9fbd e6c9 4bbd 2c67 fdbd 1364 d1bd
00000100: f209 c83d 34a4 2d3d 20f3 53be 62e4 e83d
00000110: 58e4 edbd ae79 2bbe 7de1 f7bd 63b0 0bbe
00000120: 0bf1 24be 8308 48ba ac53 8abd dd24 683e
00000130: 1f9d 3d3e 0626 f03d 5622 3f3e 153e a03d
00000140: ae95 83bd bcae 66be abcf ecbd c834 aebe
00000150: effc 493e 2a92 11be c85e b8bb 5e7b f93d
00000160: 30b2 9bbe c4ef b93d 30ac 13bd 869d fe3c
00000170: ad21 f5bd ef23 013e a7cb 1dbe 7f5f 70be
00000180: 2179 093e c7da 83be 5a03 2f3e 050a 123e
00000190: dd56 c9bc bd37 b0bd 1dd8 1c3e bcf6 e8bb
000001a0: fb62 4cbd 9172 2c3e a6ca 053e 978a b1bd
000001b0: 4626 b73d 4765 78bd da19 d8bd 89db 17be
000001c0: 4769 9fbd e5ea 68be d1e9 2dbc b3c6 453e
000001d0: 5f53 ab3e 446b 0ebe 5cd6 27be 6da1 793d
000001e0: b999 b33c c825 95bd 9453 713e f8f3 a23e
000001f0: 69e8 903d 5b9e df3d 21ca 3fbd 8f9d b8bd
00000200: 652d 693d ad37 10be 4244 52be 0be3 3d3e
00000210: b162 3ebe a59d 7e3d 6002 563e ec79 173e
00000220: 793b a83d 970e 923d 422e 053e 756c 283d
00000230: 4ae6 14bd c77f d6bd 3738 123e 7245 013e
00000240: 0f84 4f3e 69fb 04be 7c59 92bd 9a49 0cbe
00000250: baaa c2bd 5a6c ec3c cce8 d63d 2a8b 653e
00000260: ab0b 84bc 4aad 07be a343 7a3e c612 fb3c
00000270: 97ff 3a3e 8818 903c 36cf 473d 4da4 343e
00000280: b474 74bd 4412 9b3d 8747 adbd f7b5 a73d
00000290: 9d7e 2dbe 569a 553e 2d66 9a3c 2248 c3bc
000002a0: 0f65 b53d 4318 133e 117f 9a3d 3aa8 75be
000002b0: 35cb 12be f971 5ebd 0f30 babd af7d 03be
000002c0: 30d2 13bd ddb8 933e 6dc3 59bd f03d 1f3e
000002d0: 01c4 5cbd 3639 813e 4e0b 8b3d 5719 6b3d
000002e0: c42e 4c3d 88a0 aebd 78a7 02be 5cfb 75bd
000002f0: 31a2 9c3d bc82 283e 07a1 703e 959d 853d
00000300: e1d8 02be 76f5 3dbe 2c41 8b3e 291f b3bd
00000310: e6e8 64be 8113 0b3e bc6c 773e d955 423d
00000320: 6a45 b03c 2812 4cbe 787b a83c 43c3 2ebe
00000330: f119 c53e f83f 523e d1f6 4bbd b1ac 663e
00000340: 88eb cfbc cf3a 71be b67b f83d 43d5 8fbd
00000350: fb85 663e 0ed8 043e 12f9 64bc f70e 26be
00000360: 1946 273e d619 3d3e 54fc e23d fd5d 993d
00000370: c9e6 f7bd e19e 333e 20c6 6a3e b9c1 46bd
00000380: 58ee c6bd 7019 9bbe cc0e 52bc 6b95 4bbe
00000390: 102d 693d d283 77be 05d0 743e 0ecf 5b3e
000003a0: 6e7a 11be f7cb 8dbd 7835 d93d cb63 ffbc
000003b0: 2de9 733b b5d7 853e 8b67 fd3d faaf 073e
000003c0: 7b6e e4bc 992e 12be 77f5 643e ee21 403d
000003d0: a9f5 8bbc 141f 573e 4f0a 08bc 1c52 63be
000003e0: 5188 ffbd c15d 39be 2d7a 04bd 5dd5 50be
000003f0: f16c 293e 0e6d 8f3d 70e8 bdbd 77a9 0a3e

fc2.weight f4 [128, 256]
-0.29511207 -0.07871971 -0.0035269351 0.033583444 0.11412803 0.051743545 0.035432722 0.13245693
-0.018114721 0.049352955 -0.072872564 0.029738342 0.063943535 0.051718038 4.774882e-05 0.13506955
0.00034188322 -0.0031678823 -0.009906274 0.028861819 -0.004376563 0.123536564 -0.0520931 -0.040234428
-0.0012079471 -0.2120214 -0.14254454 -0.07251877 -0.016215086 -0.087212846 0.012135132 -0.1307347
0.122772396 -0.023370903 0.1415054 0.088514164 0.034599446 -0.01920601 0.027860874 0.07778989
0.016457805 0.124094635 -0.045374576 -0.03525293 0.013430593 0.13897023 0.080254704 -0.0321292
0.034295265 0.03220375 -0.009962719 -0.031329792 0.012315268 -0.052967276 -0.009973571 -0.033336118
0.053962514 -0.042128615 -0.040063642 -0.062695704 0.046045806 0.045509066 -0.11791493 -0.0028373876
-0.031653404 0.098713964 -0.02137714 0.041692436 -0.012861495 0.0039826557 0.071988 -0.062397685
-0.04722363 0.18862002 0.03315325 0.015048022 0.09008899 -0.013197538 0.0616077 0.03667399
0.0119321095 0.0032468236 0.04371107 0.038576815 0.094517045 -0.2948746 -0.021884572 -0.040594768
-0.044917963 0.06097878 0.09136824 0.05834435 -0.04767681 0.109792 -0.094628535 0.020936903
0.092351966 -0.14067996 0.12836777 -0.03153459 0.030880002 0.06056284 0.050059818 0.025231842
0.102352075 0.13641457 0.051779013 0.06390002 -0.20581083 0.028654734 -0.03700868 0.0043658745
0.017173711 0.038145203 -0.05663153 0.034671113 0.12942474 0.15758894 -0.1457207 0.038496878
0.050177477 -0.16779259 0.049816325 0.09501065 -0.059947982 0.109454416 0.08714313 -0.0069658547
-0.023619583 0.12774634 -0.0367299 0.08284978 0.092577115 0.1094935 0.15174076 -0.061521437
0.036371585 0.030432856 -0.05772462 -0.02425294 -0.09266392 0.0744818 0.10485782 -0.009455152
0.06307964 0.11791809 0.028501278 0.0150676435 -0.078215994 0.0049861986 0.049313713 -0.03445585
-0.07589314 -0.054090723 0.056563675 0.06371079 0.02807153 0.08468907 0.10570153 0.05576225
0.08938999 -0.041379422 0.054322917 0.07871161 0.09734544 -0.048585195 -0.04685721 0.01639355
0.09120193 0.04333214 -0.053276036 -0.027470682 -0.062246256 -0.028522283 0.029501585 -0.15875427
0.047502838 -0.0065964237 0.08341107 0.05635917 0.087818645 -0.061908487 0.06438454 -0.013222222
0.09764532 0.035839636 0.07448815 0.018735982 0.04714147 0.14306109 0.024197888 0.026227137
-0.071417324 -0.020686654 -0.065582044 -0.0264531 -0.24016899 0.031043978 0.044401657 -0.095061794
0.06754134 -0.106440365 0.067837484 -0.0062988047 0.103885874 0.086434335 -0.1419148 0.10719121
0.07117066 0.1484125 0.0071639316 0.056673564 0.07887113 0.042780325 0.07300988 -0.02218961
0.06838277 0.041609485 -0.11388744 -0.051666625 -0.05698116 0.11742113 0.16626254 0.102773435
0.032044936 -0.02174915 -0.07227033 0.080711946 0.022514699 -0.07340401 0.011205637 0.07441538
-0.084198356 0.041634426 -0.077541806 0.044947863 -0.012935586 0.012956979 -0.011006416 -0.16307113
-0.04077225 -0.14010392 0.18503943 -0.05013466 0.06080037 0.04299245 0.1471124 -0.10040768
0.10743328 -0.056846585 0.07137417 -0.07531716 0.013775338 -0.08391187 0.03883281 0.003470442
00000000: ee18 97be cd37 a1bd 2724 67bb cb8e 093d
00000010: f5bb e93d 0af1 533d e721 113d caa2 073e
00000020: 5365 94bc 5326 4a3d 363e 95bd d39d f33c
00000030: d4f4 823d 4bd6 533d e845 4838 ac4f 0a3e
00000040: ca3e b339 3f9c 4fbb ed4d 22bc 9f6f ec3c
00000050: 4569 8fbb bd00 fd3d 935f 55bd dbcc 24bd
00000060: fb53 9eba 231c 59be 32f7 11be b984 94bd
00000070: 80d5 84bc a69c b2bd 6fd2 463c 51df 05be
00000080: 1870 fb3d 5674 bfbc cbe6 103e ea46 b53d
00000090: 26b8 0d3d ec55 9dbc 7d3c e43c 4e50 9f3d
000000a0: 85d2 863c 5425 fe3d b1da 39bd 6065 10bd
000000b0: fd0b 5c3c 364e 0e3e 945c a43d e899 03bd
000000c0: 3179 0c3d 14e8 033d ac3a 23bc ab53 00bd
000000d0: fac5 493c 37f4 58bd 3068 23bc 748b 08bd
000000e0: cc07 5d3d 0e8f 2cbd c619 24bd 9b66 80bd
000000f0: 879a 3c3d b767 3a3d 627d f1bd 77f3 39bb
00000100: 00a7 01bd 8c2a ca3d 1d1f afbc b0c5 2a3d
00000110: 05b9 52bc f080 823b 726e 933d b794 7fbd
00000120: 916d 41bd 9b25 413e b4cb 073d fb8b 763c
00000130: 9480 b83d 7d3a 58bc 5b58 7c3d 7737 163d
00000140: e57e 433c a9c8 543b 610a 333d b902 1e3d
00000150: 2792 c13d cef9 96be 4647 b3bc b346 26bd
00000160: e6fb 37bd e3c4 793d 461f bb3d 7cfa 6e3d
00000170: c248 43bd a1da e03d 9bcc c1bd de83 ab3c
00000180: 0723 bd3d 680e 10be d772 033e 6a2a 01bd
00000190: 0ff8 fc3c be10 783d 860b 4d3d 02b3 ce3c
000001a0: f79d d13d 43b0 0b3e 3b16 543d 04de 823d
000001b0: 13c0 52be 55bd ea3c 6a96 17bd 9c0f 8f3b
000001c0: e2af 8c3c 253e 1c3d 77f6 67bd 4c03 0e3d
000001d0: eb87 043e ff5e 213e cf37 15be e7ae 1d3d
000001e0: e686 4d3d d2d1 2bbe 340c 4c3d f294 c23d
000001f0: 048c 75bd a329 e03d 1978 b23d d341 e4bb
00000200: db7d c1bc f0cf 023e 1772 16bd 25ad a93d
00000210: 1299 bd3d 213e e03d ee61 1b3e e7fd 7bbd
00000220: 5ffa 143d 534e f93c a770 6cbd 1aae c6bc
00000230: 95c6 bdbd ea89 983d b2bf d63d c8e9 1abc
00000240: e62f 813d 0a7f f13d 837b e93c 47de 763c
00000250: b52f a0bd 4463 a33b 2dfd 493d 9421 0dbd
00000260: dd6d 9bbd 3c8e 5dbd 50af 673d cd7a 823d
00000270: 44f6 e53c 7771 ad3d 0b7a d83d f566 643d
00000280: 1912 b73d 787d 29bd b581 5e3d 8d33 a13d
00000290: 0c5d c73d 4501 47bd 59ed 3fbd c44b 863c
000002a0: 14c8 ba3d 0b7d 313d f937 5abd 320a e1bc
000002b0: eef5 7ebd 90a7 e9bc 4fad f13c 7b90 22be
000002c0: 5692 423d d026 d8bb 6cd3 aa3d dfd8 663d
000002d0: 43da b33d c193 7dbd 0bdc 833d 05a2 58bc
000002e0: 45fa c73d 95cc 123d 3e8d 983d 347c 993c
000002f0: 6a17 413d 9b7e 123e a63a c63c 4bda d63c
00000300: 3f43 92bd 0f77 a9bc e14f 86bd 2cb4 d8bc
00000310: dcee 75be f14f fe3c 83de 353d c2af c2bd
00000320: 1d53 8a3d 68fd d9bd 61ee 8a3d 3466 cebb
00000330: 1ec2 d43d 7c04 b13d 1d52 11be 1187 db3d
00000340: ecc1 913d 72f9 173e 6abf ea3b 8a22 683d
00000350: 3087 a13d 6c3a 2f3d 3486 953d fcc6 b5bc
00000360: 440c 8c3d b56e 2a3d d13d e9bd 62a0 53bd
00000370: 1465 69bd 7d7a f03d ba40 2a3e e17a d23d
00000380: 8d41 033d 462b b2bc 7702 94bd 4e4c a53d
00000390: bf70 b83c d754 96bd d997 373c 1767 983d
000003a0: 3070 acbd dc88 2a3d 3dce 9ebd 401b 383d
000003b0: c8ef 53bc 8249 543c 4154 34bc 1efc 26be
000003c0: ce00 27bd 6777 0fbe fa7a 3d3e 005a 4dbd
000003d0: cf09 793d da18 303d a2a4 163e 8ba2 cdbd
000003e0: fb05 dc3d f7d7 68bd 9f2c 923d e23f 9abd
000003f0: f5b1 613c fdd9 abbd 270f 1f3d 5b70 633b

fc2.bias f4 [128]
0.18559156 -0.059150282 0.059433207 -0.0102856 0.064131975 0.04639318 0.14068383 -0.07521948
-0.080257684 -0.026161218 0.18917565 0.11303495 -0.050193276 0.12697679 -0.22883844 -0.07624692
-0.003972482 -0.008682472 -0.050870538 0.08056987 -0.10101665 -0.054350268 0.10612088 0.10947947
0.10088584 0.03443016 -0.2266265 -0.095022574 -0.057121146 -0.0893405 0.06447364 0.16946115
-0.17367542 -0.05445784 0.06723278 -0.11312463 -0.096415125 0.018220888 -0.060268108 -0.14833514
-0.09278346 0.037490375 -0.0836324 0.0072257435 0.026251098 0.0035899174 -0.07737102 -0.012992809
-0.06698306 0.05551068 -0.12969336 0.065754384 -0.15057553 0.13048223 0.06437611 0.00019343858
0.037935548 0.1122146 -0.12140353 0.11315029 -0.08030474 -0.08241939 -0.085973464 0.14124922
0.09174063 0.053095233 -0.07503759 0.05741981 -0.008880163 0.21116415 -0.04597118 -0.11741255
0.0017234574 0.005358251 0.026006887 -0.013268084 -0.11461655 0.20702945 0.1273927 -0.06805009
-0.04556278 0.08328451 0.011824476 0.013715981 -0.02673058 -0.006641306 0.100518785 0.107690714
-0.07016609 -0.038664892 0.044504903 0.15135098 0.02885078 -0.023605444 -0.031230342 0.16978242
0.03904352 0.05496669 -0.02595676 -0.028901098 -0.063703865 -0.060564853 0.008491883 -0.09685151
-0.17342833 -0.054384336 0.11632652 -0.029127276 -0.014823916 -0.065894775 -0.08431187 -0.1217248
-0.037659276 0.0031972846 0.04785574 -0.077231854 -0.15396693 -0.026638167 0.050908312 -0.11443094
0.043069195 -0.026577475 0.014753022 -0.08433111 0.1356461 0.113351576 0.1202565 0.14755341
00000000: b70b 3e3e 9147 72bd 3c70 733d ef84 28bc
00000010: a057 833d c606 3e3d 6c0f 103e ac0c 9abd
00000020: 245e a4bd 0d50 d6bc 43b7 413e de7e e73d
00000030: 7797 4dbd 3406 023e a054 6abe 5827 9cbd
00000040: 982b 82bb ed40 0ebc a05d 50bd d101 a53d
00000050: d1e1 cebd 639e 5ebd e755 d93d c636 e03d
00000060: 3c9d ce3d a406 0d3d c710 68be 329b c2bd
00000070: ddf7 69bd 27f8 b6bd c10a 843d 3987 2d3e
00000080: f8d7 31be 2f0f 5fbd 57b1 893d e3ad e7bd
00000090: 4b75 c5bd f943 953c b1db 76bd 2be5 17be
000000a0: 4105 bebd 828f 193d 7747 abbd eec5 ec3b
000000b0: 8b0c d73c d244 6b3b b374 9ebd cadf 54bc
000000c0: 6a2e 89bd 2b5f 633d 56ce 04be 3caa 863d
000000d0: 7930 1abe 229d 053e 9fd7 833d c6d5 4a39
000000e0: 4e62 1b3d c5d0 e53d 6aa2 f8bd 57bb e73d
000000f0: d076 a4bd 7fcb a8bd db12 b0bd a3a3 103e
00000100: 83e2 bb3d 637a 593d 4fad 99bd 0931 6b3d
00000110: 1a7e 11bc 6a3b 583e 474c 3cbd fe75 f0bd
00000120: a2e5 e13a 4494 af3b 650c d53c 6162 59bc
00000130: 15bc eabd 87ff 533e 3b73 023e d85d 8bbd
00000140: 0aa0 3abd 1291 aa3d 72bb 413c feb8 603c
00000150: 17fa dabc 509f d9bb cbdc cd3d f38c dc3d
00000160: 3db3 8fbd 145f 1ebd c64a 363d c0fb 1a3e
00000170: 7958 ec3c 3460 c1bc c6d6 ffbc 71db 2d3e
00000180: 19ec 1f3d c024 613d 45a3 d4bc ffc1 ecbc
00000190: 2c77 82bd da12 78bd 8a21 0b3c 165a c6bd
000001a0: 3297 31be 1cc2 5ebd 993c ee3d 539c eebc
000001b0: 03e0 72bc d7f3 86bd b4ab acbd da4a f9bd
000001c0: 9d40 1abd 8989 513b 6104 443d bc2b 9ebd
000001d0: 82a9 1dbe 4938 dabc 3c85 503d c55a eabd
000001e0: 5369 303d 01b9 d9bc a9b6 713c cab5 acbd
000001f0: d0e6 0a3e df24 e83d 0a49 f63d 3e18 173e

fc3.weight f4 [2, 128]
0.0032000446 -0.089689516 0.012409587 0.013692452 -0.07681517 0.031659927 -0.04751459 -0.10368183
0.01485853 0.19168948 0.05117343 0.04758472 -0.2201415 0.04825433 -0.16416913 -0.120689414
0.030424783 -0.1158188 -0.13710076 0.060523864 -0.23961079 -0.049444772 -0.07250718 0.07940241
0.12554747 -0.05499648 -0.068137616 0.011879629 -0.07788817 -0.13781495 -0.05774643 0.034885474
-0.053104207 -0.14097226 0.05210285 -0.07065417 0.03154291 0.0018497305 0.04151839 -0.067350894
-0.076522395 -0.098757625 -0.048027974 -0.06273454 0.14081836 0.06469397 -0.17516188 -0.15817957
-0.1101358 -0.024775477 -0.15187624 -0.025076374 -0.10641269 0.060494516 0.21375945 -0.12529495
0.114406474 0.025159413 0.062326454 -0.14196658 0.421616 -0.049536478 0.006198756 0.07897141
-0.067800716 -0.25369665 -0.31989536 -0.045813758 -0.17698742 0.019067762 -0.04105433 -0.24964724
-0.13838737 -0.19288263 -0.096498504 -0.19749318 -0.05815493 0.054496262 0.036341608 -0.16190816
-0.11382926 -0.06901926 -0.035385594 0.049145576 -0.033835925 0.047795206 0.069473594 0.01536113
0.03682843 -0.15364374 0.064716145 -0.05745304 -0.28419745 0.18734115 0.09354063 0.016401164
-0.013667247 0.05870523 -0.10529547 -0.08640543 -0.16106434 -0.3691809 -0.04899848 -0.023716042
-0.011218534 0.03473623 0.035235327 -0.13464774 -0.20194347 -0.041465417 -0.046024732 -0.35603362
-0.26773643 0.057830848 0.22010927 -0.042519603 -0.03687817 -0.13688618 -0.049529895 -0.04456716
-0.11236908 -0.044104602 -0.31395403 -0.0819287 0.0760546 0.032832447 -0.110261306 0.04115672
-0.10194185 0.21544327 -0.26491392 0.04281385 -0.36441514 -0.0007989128 -0.21316506 -0.15194108
0.104351476 0.23797892 -0.13607389 -0.024645422 0.06345043 -0.12088276 0.26878002 0.03498067
-0.004728416 -0.0067072483 0.17750822 -0.055242833 -0.15021233 0.03225996 -0.36076343 -0.0589793
0.08413995 -0.05491055 0.10155459 0.12513493 0.3680211 0.19285886 -0.11331597 -0.118140996
0.12254383 -0.063722275 -0.06870916 0.23425573 0.13221814 0.09274355 0.21417542 0.1992984
0.33075204 0.288106 0.32175332 -0.15557064 0.12827419 0.05997873 0.17752418 0.27394298
0.12498407 -0.21206805 -0.011834287 -0.1696041 0.23539902 -0.059042323 0.021739727 0.26426038
0.108799 -0.016887028 0.20663112 -0.0575082 0.23544316 0.053215563 0.16253369 -0.30234307
-0.098173544 -0.20437413 0.1465086 -0.12529136 -0.022045143 -0.101624615 0.20494056 0.082755774
0.18803766 0.105745085 -0.09783608 -0.03305237 0.117882885 -0.12316921 -0.08938826 0.05636073
0.18874225 -0.107688166 -0.05625646 -0.0024747243 0.05071324 0.066359065 -0.14042702 -0.104447685
0.18300375 0.033767577 0.023401761 -0.16278747 -0.429924 0.12099024 0.13590321 -0.13190807
0.22384317 -0.0032879964 0.11186632 0.32354093 0.12840174 0.13472116 -0.13831547 0.10883036
0.44661984 0.022547785 -0.053372063 0.08909441 0.18801242 0.207366 0.23504637 0.16948235
-0.035086125 0.22679065 -0.034245286 0.22041984 0.14014138 0.08506152 -0.060691588 0.14023025
0.048197944 0.31489646 0.17018989 0.20469142 -0.12538487 -0.4446248 -0.10237542 -0.16063395
00000000: d7b7 513b 23af b7bd 9551 4b3c 4e56 603c
00000010: 4651 9dbd d7ad 013d a99e 42bd 2457 d4bd
00000020: 3171 733c 3f4a 443e 3b9b 513d 32e8 423d
00000030: c66c 61be 55a6 453d f41b 28be 032c f7bd
00000040: 653d f93c 6832 edbd 2464 0cbe dfe7 773d
00000050: 885c 75be 9a86 4abd a57e 94bd bb9d a23d
00000060: 848f 003e fd43 61bd bc8b 8bbd c7a2 423c
00000070: d583 9fbd 5d1f 0dbe 8587 6cbd 12e4 0e3d
00000080: cc83 59bd 085b 10be cc69 553d 22b3 90bd
00000090: 2333 013d a872 f23a 300f 2a3d 44ef 89bd
000000a0: c6b7 9cbd 7041 cabd fbb8 44bd f77a 80bd
000000b0: b032 103e 467e 843d a35d 33be d3f9 21be
000000c0: e18e e1bd f1f5 cabc 7285 1bbe f86c cdbc
000000d0: e5ee d9bd 19c9 773d c2e3 5a3e 524d 00be
000000e0: f14d ea3d 1d1b ce3c 064a 7f3d b05f 11be
000000f0: 0dde d73e c3e6 4abd ef1e cb3b c3bb a13d
00000100: 1adb 8abd 87e4 81be 53c9 a3be 35a7 3bbd
00000110: 313c 35be ff33 9c3c 9628 28bd 87a3 7fbe
00000120: 6bb5 0dbe 0683 45be 02a1 c5bd a73b 4abe
00000130: dd33 6ebd 7937 5f3d f0da 143d 41cb 25be
00000140: 511f e9bd f859 8dbd 7cf0 10bd df4c 493d
00000150: 8a97 0abd e8c4 433d 2c48 8e3d 40ad 7b3c
00000160: 68d9 163d c954 1dbe e689 843d e153 6bbd
00000170: 5482 91be 5cd6 3f3e 3b92 bf3d bc5b 863c
00000180: 97ec 5fbc e574 703d 27a5 d7bd 55f5 b0bd
00000190: 0dee 24be 4705 bdbe a1b2 48bd 2548 c2bc
000001a0: f1cd 37bc 9447 0e3d eb52 103d 19e1 09be
000001b0: 45ca 4ebe a4d7 29bd 6e84 3cbd 0a4a b6be
000001c0: c014 89be 0ae0 6c3d 5364 613e 0929 2ebd
000001d0: 900d 17bd e42b 0cbe dcdf 4abd 0e8c 36bd
000001e0: c321 e6bd 07a7 34bd 95be a0be 3cca a7bd
000001f0: 84c2 9b3d 517b 063d aed0 e1bd f393 283d
00000200: e3c6 d0bd 299d 5c3e cca2 87be 935d 2f3d
00000210: 9f94 babe 216e 51ba f147 5abe 7196 1bbe
00000220: 3ab6 d53d bfb0 733e f456 0bbe 32e5 c9bc
00000230: 4df2 813d 6191 f7bd 899d 893e e447 0f3d
00000240: d4f0 9abb 7ac8 dbbb b7c4 353e 4f46 62bd
00000250: 43d1 19be 0523 043d fcb5 b8be 4794 71bd
00000260: 9151 ac3d e3e9 60bd dafb cf3d 5f23 003e
00000270: 436d bc3e cb7c 453e 3412 e8bd e8f3 f1bd
00000280: 42f8 fa3d d380 82bd 63b7 8cbd bce0 6f3e
00000290: 3164 073e 55f0 bd3d cd50 5b3e e114 4c3e
000002a0: 5558 a93e a182 933e dabc a43e e94d 1fbe
000002b0: 4f5a 033e 42ac 753d e6c8 353e 4142 8c3e
000002c0: a6f7 ff3d 5e28 59be 99e4 41bc b2ac 2dbe
000002d0: 710c 713e 5dd6 71bd 8317 b23c 234d 873e
000002e0: 03d2 de3d aa56 8abc 1c97 533e b88d 6bbd
000002f0: 0318 713e 90f8 593d 3b6f 263e b6cc 9abe
00000300: 360f c9bd 7447 51be 5a06 163e 614c 00be
00000310: 0498 b4bc 9120 d0bd f0db 513e dc7b a93d
00000320: f28c 403e e190 d83d 485e c8bd ec61 07bd
00000330: 956c f13d 2440 fcbd 3111 b7bd 82da 663d
00000340: a645 413e 9d8b dcbd 2c6d 66bd fc2e 22bb
00000350: b0b8 4f3d 43e7 873d 1acc 0fbe abe8 d5bd
00000360: 5665 3b3e df4f 0a3d 0db5 bf3c c2b1 26be
00000370: 001f dcbe bbc9 f73d 362a 0b3e e912 07be
00000380: 2537 653e 6d7b 57bb 2b1a e53d 28a7 a53e
00000390: bf7b 033e 58f4 093e 92a2 0dbe 74e2 de3d
000003a0: 5bab e43e 22b6 b83c aa9c 5abd 2177 b63d
000003b0: 5486 403e c157 543e ffaf 703e c88c 2d3e
000003c0: 78b6 0fbd cf3b 683e c944 0cbd bdb5 613e
000003d0: 3981 0f3e bc34 ae3d be97 78bd 8598 0f3e
000003e0: 356b 453d 1c3a a13e 4246 2e3e a19a 513e
000003f0: e464 00be dda5 e3be 34aa d1bd 3a7d 24be

fc3.bias f4 [2]
0.051360317 -0.11741537
00000000: 325f 523d 7877 f0bd
