actor0.pth (torch_old, 159228 bytes, 6 tensors)

fc1.weight f4 [256, 24]
000000 d8 71 05 3e 98 1c 66 be 1b 2a b0 bb ea a2 7e bd
       0.13031709 -0.22471845 -0.005376113 -0.062167086
000010 38 4b 46 3d 49 7e b3 be f5 07 5a ba 27 28 73 3c
       0.048411578 -0.35057285 -0.0008317226 0.014841116
000020 ee 53 a9 3d 29 0f 6e be ea 6d 96 bc 48 94 65 bd
       0.082679614 -0.2324797 -0.018362958 -0.056049615
000030 94 a4 18 3e a3 61 fa be 1e f7 32 3d 60 e0 3a bb
       0.14906532 -0.48902616 0.0436927 -0.0028515086
000040 09 b2 72 3c 50 98 93 be 78 64 0f bd 0d 08 45 3e
       0.014812955 -0.28827143 -0.035007924 0.19241352
000050 f1 59 87 3d 59 5f 04 bf ab 00 f9 3c 7e c7 16 3e
       0.06608952 -0.5170799 0.030395826 0.14724538
000060 e3 68 eb bd 8a 07 c6 3e 8e e8 07 bd f4 cc 91 3d
       -0.11494615 0.38677627 -0.033180766 0.0711917
000070 de 23 4c 3d 6d 31 4b 3d 72 0b ca bc 64 a7 b0 bc
       0.049838893 0.049607683 -0.02466366 -0.021564193
000080 b0 d4 e0 bd 8c 42 9f 3e 7d 62 ac 3d fc ff f1 bd
       -0.10978067 0.3110546 0.08417223 -0.11816403
000090 6e a1 8d bd 12 ae 31 3e 10 89 16 3d 15 66 dd bd
       -0.06915556 0.17351559 0.036751807 -0.10810486
0000a0 ff f8 24 3d f4 23 56 3e 56 2f bd bc 18 0a eb bd
       0.040276524 0.20912153 -0.02309386 -0.114765346
0000b0 cf b6 82 bd 25 80 7a 3e 6b 35 b5 3c 24 c2 1c be
       -0.06382524 0.24462946 0.022120198 -0.15308434
0000c0 8f c4 15 3d 34 36 48 3e 34 8a 6d 3d 99 ba 90 3c
       0.036564406 0.19551927 0.05799313 0.017667102
0000d0 b6 69 bb 3d 75 7a 57 bc 59 ea ca bc 12 a6 14 bd
       0.09151022 -0.013151755 -0.024769949 -0.03629119
0000e0 f4 a0 82 3d ad 86 53 3e a2 ab c9 bb 66 b7 72 3d
       0.063783556 0.20656843 -0.0061544934 0.059256934
0000f0 f8 cb fe 3c 44 cc 98 3c 33 7b 55 3c 45 fb a1 3d
       0.03110312 0.018652089 0.013029861 0.07909254
000100 76 fa 2e 3d 38 c6 53 3e 0f 31 e8 bd 75 48 a1 bc
       0.042719327 0.20681083 -0.11337482 -0.01968787
000110 5a 62 32 bd 4f 7a ba 3d 58 34 89 bd d7 0f 63 3d
       -0.043550827 0.0910536 -0.06699437 0.055435028
000120 af 57 8c bd d7 97 56 3d 03 69 a8 3c 61 52 01 be
       -0.06852662 0.0523909 0.020557886 -0.12629081
000130 a4 df 3d be cc de 00 3e 30 c5 35 3d d8 72 08 be
       -0.18542343 0.1258499 0.044377506 -0.1332506
000140 ba 9a 69 bd af 3f 1a 3d 9d 89 7f bc 66 29 fd 3b
       -0.057032324 0.03765839 -0.015596774 0.0077258823
000150 6c f7 c6 3c 5c 42 c0 bc 58 33 bb 3c ea f6 a2 3d
       0.024287902 -0.023469143 0.022851631 0.07957251
000160 4e 30 4b 3d 8c 9d a3 3d 43 13 16 bd 4b 52 b1 3c
       0.049606614 0.07989034 -0.036639463 0.021645686
000170 76 f4 0c 3e 03 4f db 3c 98 1d 75 3d 9d ba 51 3d
       0.1376513 0.026771074 0.059842676 0.05120336
000180 d9 70 fb bd 45 bc fd 3d 0e 18 3b 3d 92 56 f5 3d
       -0.12277383 0.12389425 0.045677237 0.119794026
000190 f9 ff 84 3e 19 4b 56 bd db 08 76 bd 6b c8 42 3d
       0.25976542 -0.052317712 -0.06006704 0.047554415
0001a0 f8 05 f1 bd 17 dc 2d 3e 59 fb c9 3c 37 ed 2a bc
       -0.117687166 0.16978489 0.024655985 -0.010432533
0001b0 c2 f9 84 3e a0 63 e8 3c 68 08 3f 3d 7b f8 68 3d
       0.259718 0.028367817 0.046638876 0.056877594
0001c0 58 18 07 bd c0 ac 80 3d 64 eb 9b bd bd 6e 2f be
       -0.0329822 0.062829494 -0.076132566 -0.17132087
0001d0 25 9a 1c 3d ec a5 bf 3d ab 8e 19 bd cb 14 d3 bd
       0.03823294 0.09357819 -0.037489574 -0.103067
0001e0 a1 ec 82 3d fd 5d 00 be 91 e8 37 bc 6e e2 08 be
       0.0639279 -0.12535854 -0.011224882 -0.13367626
0001f0 55 a4 24 3d 67 fa 1f bc 42 31 89 3d 1f 70 ec bd
       0.04019578 -0.00976429 0.06698848 -0.11544823
000200 a4 b6 82 3d e8 29 c4 bd 34 c5 a8 3b 00 5c 1a be
       0.06382492 -0.095783055 0.0051504616 -0.15074158
000210 6c 9f 7d bd 86 cf 5d 3d 55 fb 94 3d da 85 ff bd
       -0.061919615 0.054152988 0.072745 -0.12476702
000220 ed 69 60 3d cf 6f 16 be dc 02 3e 3c ff df cf bc
       0.05478852 -0.14691089 0.011597361 -0.025375364
000230 19 dd b4 bc 76 ad 6b 3e ae 84 a2 3c 24 3d 53 bd
       -0.022078084 0.23015389 0.019838657 -0.05157198
000240 e0 68 56 3c 89 c2 bf bd 16 bc 44 3b 2d dc 5c bd
       0.013086528 -0.093632765 0.0030019335 -0.053920913
000250 c7 78 f6 3d 73 c0 6d bd 94 70 f9 3c f5 e2 11 3d
       0.12034755 -0.058044862 0.03044919 0.035616834
000260 46 e6 76 3c 16 f0 51 be 93 65 67 3c 97 d2 b5 3d
       0.01506955 -0.20501742 0.014123338 0.088780575
000270 c2 d2 96 bd dd 3f 58 3e fd 54 e9 bb cc b0 c6 3d
       -0.073644176 0.21118112 -0.007120727 0.0970169
000280 2c ec 95 bd 2d 17 11 be 32 08 1f 3c f6 36 19 3e
       -0.07320437 -0.14168997 0.009706544 0.14962372
000290 88 7a fc bd d9 7f 18 3e 9e c9 fa 3b 08 b8 38 3e
       -0.123280585 0.1489252 0.007653429 0.18038952
0002a0 86 83 1e bd 4a 97 67 3d 1b 1c d2 bd 3a 2d 1a bd
       -0.03869965 0.056540765 -0.10259267 -0.037640788
0002b0 84 85 c9 3d f1 b2 eb bd a4 f2 98 bd 48 e9 aa bd
       0.09839919 -0.1150874 -0.07468155 -0.08345276
0002c0 6d 7b 90 bd 95 af 0d 3d f1 94 a4 bd 19 cb bd bd
       -0.070547916 0.034591276 -0.08036221 -0.092672534
0002d0 b1 43 e1 bc 50 d6 95 3d 43 1d 89 bd 2b 6b ae bd
       -0.027498098 0.073162675 -0.06695034 -0.085165344
0002e0 20 63 8d 38 76 7f fc 3c 4a 5c 25 bc 50 92 e4 bc
       6.7418674e-05 0.030822497 -0.010092804 -0.027901798
0002f0 3e 5b d7 bd bc 07 e6 3d 01 19 88 3d d5 1b 42 bd
       -0.1051545 0.11231944 0.06645394 -0.047389824
000300 c7 00 38 be 6a e4 c5 3e 94 78 8c 3c 16 89 b1 3d
       -0.17969047 0.3865083 0.01714734 0.08668725
000310 b4 eb 50 3d d8 bf e2 3d 37 93 a0 3c ad 2d 7b 3d
       0.051006034 0.110717475 0.019601448 0.061322857
000320 1c 77 28 bd fc 19 98 3e 66 a5 a1 3b 6a 32 c6 bc
       -0.041129217 0.29707325 0.004933047 -0.024193961
000330 36 0b 92 3e 02 3d da 3d f5 00 ce 3c e8 f1 0f 3a
       0.28524178 0.106561676 0.02514694 0.0005491064
000340 1c b3 38 3d fc 5d 52 3e 2d 45 b8 3c 31 27 bf bd
       0.045092687 0.20543665 0.022493923 -0.09333647
000350 c0 9d b2 3e 5a 5d fa 3d 93 0d 62 bd 9a 6f 23 be
       0.3488598 0.12224837 -0.055188727 -0.15960541
000360 da 73 fa 3b 52 cc 4f 3e aa db ba 3c 63 11 b5 3d
       0.007643205 0.20292786 0.022809822 0.08841207
000370 c2 27 3c 3d 91 80 72 bc 48 c8 6f 3c 47 18 d9 3d
       0.045936354 -0.01480116 0.014635153 0.10600334
000380 c9 14 57 bd e7 1b 35 3e 0f c4 b2 3d 6f 9e e5 3d
       -0.052510057 0.17686425 0.087288015 0.112118594
000390 44 e3 74 bd f1 87 82 3d 82 1b 2c 3d f2 4a 2b 3d
       -0.05978705 0.06373585 0.04201842 0.04181952
0003a0 b5 29 f0 3c ce 52 2b 3e de 44 b4 bd 8b be 49 3e
       0.029316762 0.16730806 -0.08802198 0.19701593
0003b0 e3 71 ea bd 51 d5 c5 bc 82 54 12 3c 15 ff 2e 3e
       -0.114475034 -0.024149569 0.008931281 0.17089494
0003c0 40 c4 18 bd 60 c6 af bd dd 94 4f 3d 5d 2e 0a bd
       -0.037296534 -0.08582759 0.050679076 -0.03373562
0003d0 d4 c1 d0 3c a7 71 97 3d e5 01 08 3c 06 81 b4 3c
       0.02548305 0.07394724 0.008301233 0.02203418
0003e0 ef b3 a2 bc 36 06 0a be 66 d8 99 bc 1a e8 1b 3e
       -0.01986119 -0.13478932 -0.018779945 0.15225258
0003f0 59 7b e8 3d bf 96 33 3e 8a 59 76 bd 98 e7 31 3e
       0.11351652 0.17537974 -0.060143985 0.17373502

fc1.bias f4 [256]
000000 5c 08 53 bd 71 8e ea 3d a7 9a 33 3d b6 81 bd bb
       -0.051521644 0.1145295 0.04384866 -0.005783285
000010 b7 85 37 3d 26 c4 4b be ac 94 35 be 7e 6d 91 bd
       0.044805255 -0.19899043 -0.17732495 -0.07100962
000020 ae bc 6f be d9 da 9e bc 38 f8 81 3c e4 a9 f2 bd
       -0.2341182 -0.019391464 0.01586543 -0.1184881
000030 59 b4 56 3e 8f 54 6d be e6 88 18 bd 45 cc 91 3e
       0.20967235 -0.23176788 -0.03723993 0.28476158
000040 6c ab 26 3e 3d 57 4b 3e 35 e7 d0 bd d7 82 b0 be
       0.1627633 0.19857498 -0.10200349 -0.34474823
000050 39 ed c2 3d d3 cf c8 bd 45 c6 de bc 38 09 6f be
       0.09517903 -0.09805264 -0.027194152 -0.2334336
000060 d4 97 13 bc 59 4c d6 bd e5 37 47 3e 42 97 82 bd
       -0.009008367 -0.10463781 0.19454916 -0.063765064
000070 23 2f 8a be 31 34 4d bc c2 d7 42 bd 1d ca a8 3c
       -0.26989087 -0.01252465 -0.047569044 0.020604188
000080 40 a7 08 be e4 79 15 3e 4a 73 5b be 91 57 ba 3d
       -0.13345051 0.14597279 -0.21430698 0.09098733
000090 c8 3f b1 be 2c 08 f2 3d 49 c9 23 be 45 9e 8e 3d
       -0.34618974 0.11817965 -0.15994753 0.06963781
0000a0 9c d9 df bd 8b 94 35 be 9e 2b 95 bd cc 4d fa bd
       -0.109301776 -0.17732446 -0.0728371 -0.1222187
0000b0 18 49 25 be 3c d8 99 3c 28 57 f9 3d 27 e5 d6 bd
       -0.16141164 0.018779866 0.12174827 -0.10492926
0000c0 5c b5 a4 3e d8 00 84 bc b7 50 8a be 75 fe 90 3e
       0.32169616 -0.016113684 -0.27014706 0.28319135
0000d0 4d 7e 0f be 20 32 f6 bd 5a 57 40 3e e3 0f 24 bd
       -0.14013024 -0.12021279 0.18783322 -0.040054213
0000e0 7c 8e 32 3e ea 5a ca 3c e0 59 0c be 98 89 93 3d
       0.17437166 0.024701554 -0.1370616 0.07203978
0000f0 5d 89 c9 bd f9 15 ef 3c b5 7b 17 3b bc a2 5c be
       -0.09840653 0.029185282 0.0023114507 -0.21546453
000100 b2 94 36 bd 9b ce 01 be f4 6f e0 bd 76 23 ce 3d
       -0.0445754 -0.1267647 -0.10958853 0.100653574
000110 1b fc 48 be 0a d9 c5 bd 2f 6d f7 bd 88 45 7f be
       -0.1962742 -0.096605375 -0.12081372 -0.24928868
000120 77 fb 60 be ac 92 af bd 95 ee d8 bb 7f 23 86 3d
       -0.21970926 -0.08572897 -0.006620238 0.06549739
000130 a6 80 73 3e 47 00 89 3d ff 32 91 3c bc f0 c3 3d
       0.23779544 0.06689506 0.017724512 0.09567401
000140 7b 84 8f bd 1f 31 76 bd 33 03 68 be cd fa 19 be
       -0.070076905 -0.06010544 -0.2265747 -0.15037079
000150 19 27 f6 3c 82 e7 43 bd 6c db 6f bd 68 fb 34 3c
       0.03004794 -0.047828205 -0.058558866 0.011046268
000160 a7 42 c0 bd c8 3a df 3d c2 ed 9b bd 6f 99 86 3d
       -0.09387713 0.108998835 -0.07613708 0.06572234
000170 50 88 00 be 1d 3e b7 3d 1f fe 63 bd c8 a0 8e bd
       -0.12551999 0.08947394 -0.05566227 -0.0696426
000180 e8 6f ad 3d 78 7c 16 3d e1 55 18 3e 7d c6 04 3d
       0.0846861 0.036739796 0.1487651 0.032415856
000190 8d 8e d6 3d ac be 10 be 6d 30 0f 3d d7 b2 ec 3d
       0.10476408 -0.14135236 0.03495829 0.115575485
0001a0 50 cd 52 bd 27 5c 63 3e 5b 52 b0 3d a7 a5 79 3d
       -0.051465333 0.22203122 0.08609458 0.060948994
0001b0 46 b8 10 3e 2a e9 08 be e6 73 4b bd 54 7f 7f be
       0.14132795 -0.13370195 -0.049671076 -0.24950916
0001c0 06 2c ac bd e5 c0 22 bd a0 e5 4c 3c f6 d2 89 3d
       -0.08406834 -0.03973474 0.012505919 0.06729691
0001d0 85 97 83 3e 97 2f ae be 67 cd 6b bd 1b 47 58 3e
       0.25701538 -0.34020683 -0.057568934 0.21120875
0001e0 4b 5e 7f 3c 81 6b b0 3c 18 78 8c 3e 24 6b 56 3e
       0.015586446 0.021535637 0.27435374 0.20939308
0001f0 c2 da ed 3c 90 a8 39 3e c0 46 98 3c f0 22 09 3c
       0.029034976 0.18130708 0.018588424 0.008370146
000200 1a f9 85 3e 6b 2a 8b be a2 2a 06 be 01 fd a4 3d
       0.26166612 -0.271808 -0.131022 0.08056069
000210 90 7a 70 be 7c ac 30 3d 43 6c e7 3d 59 d9 a3 3e
       -0.23484254 0.043133244 0.11299946 0.3200176
000220 28 a6 8b 3d 3f c1 23 bc 97 08 73 3e b1 6b 7f 3e
       0.06818801 -0.009994804 0.23733746 0.24943425
000230 e0 45 05 3d 9f 73 33 be c3 09 1b 3e d7 93 83 bd
       0.03253734 -0.17524575 0.15140443 -0.064246826
000240 87 32 34 3e e2 5a 0f bd af 02 eb bd 96 41 31 be
       0.175974 -0.034998782 -0.11475121 -0.17310175
000250 3f 56 16 be e3 65 1b 3e 6d 1b 9a 3d b1 57 59 3e
       -0.14681338 0.15175585 0.07524762 0.21224858
000260 6e 1b 64 3e 03 84 2e be 33 b7 7d 3e e3 7c 75 3d
       0.22276089 -0.17042546 0.24776916 0.059933554
000270 2d cd 2e 3e 7f 49 4e 3d 39 b3 2c be 92 96 76 3e
       0.17070456 0.05036306 -0.16865243 0.24080876
000280 5c 91 93 be 45 95 5d 3d 0b 62 85 bd 28 35 05 3d
       -0.28821838 0.054097433 -0.06512841 0.032521397
000290 65 18 f7 3c 3c df a7 3e 48 c3 d1 bd b5 2a 4c 3e
       0.030163 0.32787502 -0.10242325 0.19938166
0002a0 a0 a0 69 bd 97 1f 72 3e 4d 3d 13 3e e9 b3 65 be
       -0.05703795 0.23644863 0.14378853 -0.22431912
0002b0 5f 8c 42 be f8 f5 fc bd 92 6b 8d be 1f 97 ff bd
       -0.1899886 -0.12351602 -0.27621132 -0.12479996
0002c0 aa a9 39 be 21 9e 75 3e 4c 6b 41 be 04 d9 9e 3c
       -0.18131128 0.23986103 -0.18888587 0.01939059
0002d0 9e 74 10 bd 93 a5 3a 3e 60 1e b7 3d be 6b 66 3d
       -0.035267465 0.18227224 0.089413404 0.056255095
0002e0 c6 06 81 3e 90 36 83 bd cb 11 64 be 0e c9 01 bc
       0.2520048 -0.06406891 -0.22272412 -0.00792147
0002f0 d0 84 9b 3d 12 f3 80 3e 15 51 02 3e 23 a5 63 bc
       0.07593691 0.25185448 0.12726243 -0.013894352
000300 ec 0e 8d bd 56 e8 44 3d 9a 19 01 3e 61 10 1a be
       -0.06887612 0.048073135 0.12607422 -0.1504531
000310 40 88 4a be c5 6d 81 3e a6 8c b5 3d 93 5d 49 3c
       -0.19778538 0.2527906 0.08864717 0.012290376
000320 c2 eb f6 3b 2d 8c b2 bc 78 af 04 bd 1e c1 d8 bd
       0.0075354287 -0.021795357 -0.032393903 -0.10583709
000330 2b 7d a0 3e a8 6c 2b 3e e9 66 5a bd d9 74 38 3e
       0.31345496 0.16740668 -0.0533208 0.18013324
000340 f3 54 4a be fa fd 77 be 94 20 19 bd 0e 70 2c 3c
       -0.19758968 -0.24217978 -0.037384585 0.010524763
000350 1b 03 e3 3d 1e b4 d7 bd 38 49 74 bd 07 0a 25 be
       0.11084577 -0.105324015 -0.05964014 -0.16117106
000360 d7 bb 1f 3e 1d a7 46 3d ae 68 20 3d c6 7c 6c 3d
       0.15598999 0.048499215 0.03916233 0.05773618
000370 ba 44 2e be c8 0b 04 3e 2c c5 0d 3e 88 b5 d8 bd
       -0.17018405 0.12895119 0.13844746 -0.10581499
000380 fd 64 46 3d b6 3c d5 bd 19 d6 12 3e c8 7f 0d be
       0.048436154 -0.1041197 0.14339484 -0.13818276
000390 f6 64 62 bc fb bf 75 3c 7d 62 4f 3e 41 3e 84 3d
       -0.013818016 0.014999385 0.20252414 0.064571865
0003a0 79 bc 00 be 77 a0 14 3d c9 87 20 3e e5 d4 08 3e
       -0.12571897 0.036285844 0.15676798 0.13362463
0003b0 9f 57 35 bd f7 05 67 3e 02 45 17 3e cd 6a 08 3e
       -0.044273015 0.22560869 0.14772418 0.13321991
0003c0 72 a2 b3 bd fc f2 b8 3c 11 59 12 3e 29 16 d8 3d
       -0.08771218 0.022576801 0.14291789 0.10551102
0003d0 2c 23 a6 3c ef f8 21 3e 29 63 05 3e dc d6 c2 bd
       0.020280443 0.15817617 0.13026108 -0.095136374
0003e0 fd 7d 35 bc f7 fa 0d be ae a8 f7 bc dd d1 88 bd
       -0.011077401 -0.13865267 -0.0302318 -0.06680653
0003f0 4b 6b 64 3e 8f b5 5a 3e 78 75 02 be 82 20 c8 3d
       0.22306554 0.21358322 -0.12740123 0.097718254

fc2.weight f4 [128, 256]
000000 a2 23 d2 be db bb 06 bd 78 d3 65 bd 7e 8e 47 bd
       -0.4104281 -0.032893997 -0.056109875 -0.048719876
000010 ab 27 80 3d 00 91 bd bc 27 ca 21 bd 50 46 d4 3d
       0.06257566 -0.02314043 -0.039499428 0.103649735
000020 8f a5 ce 3c 2e 40 46 3d f4 4f 98 bd d7 54 37 bd
       0.025225429 0.04840105 -0.07437125 -0.044758644
000030 a3 1d 96 bd d6 c4 25 3c 98 0a 17 3e 54 a0 95 3d
       -0.073298715 0.01011773 0.14750135 0.07305971
000040 6c 1c 10 be 9b a1 a3 bc 6f 39 5b bc 58 37 db bd
       -0.14073342 -0.01997452 -0.013380392 -0.10703915
000050 61 ec 0f bd a4 a5 bb 3d d5 8b af 3d 5c 36 f4 bd
       -0.035137538 0.09162453 0.08571593 -0.11924431
000060 98 db 97 bc e9 4d 1e be dd 2a a3 bd 20 e6 36 bd
       -0.018537328 -0.15459408 -0.0796716 -0.044653058
000070 6a 9d ef bd cf b5 97 bd 57 3f b1 3d 04 de 5a be
       -0.11699946 -0.07407724 0.08654659 -0.21373755
000080 b3 f7 de 3d bc eb 90 3d d4 a9 04 3e 56 38 ae bc
       0.108870886 0.07076213 0.1295541 -0.021267097
000090 e1 ac 03 3c e6 48 a6 bd 60 10 1b 3d b6 cf d3 3d
       0.008036823 -0.08119373 0.037857413 0.10342352
0000a0 11 cf e2 bd 6d 32 6e 3c f1 a2 65 3e 3f 51 d7 bd
       -0.11074651 0.01453839 0.22425438 -0.10513543
0000b0 86 a0 ad 3c a0 78 6e 3d 7e 56 98 3c 0b 4b 79 bd
       0.021194708 0.058220506 0.01859593 -0.060862582
0000c0 23 14 31 3d 68 ae 22 3c fd 8c cc bd 90 bc 8b bd
       0.043232094 0.009929277 -0.09987829 -0.06823075
0000d0 3f 1a 56 bd 02 58 1e bb 3c ec 80 bc fa ac f8 bd
       -0.052271124 -0.0024161343 -0.015737645 -0.12142368
0000e0 d4 f4 ed bc c2 86 10 bc 4e bc 20 bd ec ab 12 bc
       -0.029047407 -0.008821191 -0.03924208 -0.008952122
0000f0 7b 58 5e bc 52 9d d1 3d 00 95 26 3d ae 7e 27 bd
       -0.0135709 0.102350846 0.04066944 -0.040892296
000100 e8 f7 4d 3d 8b e1 1c 3d 4d a5 96 be 2b 2b 72 3b
       0.05028525 0.038301032 -0.2942299 0.0036952
000110 88 f3 01 be 2e f1 05 3d 6c 05 87 3d c3 fe 55 bd
       -0.12690556 0.03270071 0.06592831 -0.052244913
000120 ad 17 36 3d d4 86 14 3b e3 2c 70 3d 38 07 a7 bd
       0.044456173 0.0022663372 0.058636557 -0.08155674
000130 06 5b c5 bd d7 f9 7f bd c6 04 53 bc e8 0e 2e be
       -0.09636502 -0.062494125 -0.012879556 -0.16997874
000140 d0 db c9 bc 21 eb 83 bc 48 6f 22 be 8b d1 80 bc
       -0.024640948 -0.01610333 -0.15862763 -0.015724918
000150 70 0f b2 3d 8d 5c 07 be 1c 44 22 be 76 aa 3b bd
       0.08694351 -0.13218899 -0.15846294 -0.04581686
000160 1a a8 fc bd 48 cd ae 3b 5d 33 cd 3d 7a 6e b8 bd
       -0.1233675 0.00533453 0.100195624 -0.09005447
000170 ba 18 02 be c4 b9 9b bd cf c7 d8 3b a5 d6 e9 3c
       -0.12704745 -0.07603791 0.006615616 0.028544733
000180 f4 f8 e0 3d b7 8c a6 bd f5 27 05 3e 04 59 9f bd
       0.10984984 -0.08132308 0.13003524 -0.0778065
000190 91 16 39 bb 01 82 0f 3e c7 c7 10 3d 63 b5 a6 bc
       -0.002824221 0.14014436 0.035346773 -0.020350164
0001a0 5a f4 ef 3d 1c 17 cd bd 75 2d 04 3b 2c 16 61 3d
       0.11716528 -0.100141734 0.0020168696 0.054952785
0001b0 c8 89 61 be 27 0e 0b 3e e1 66 bd 3c b1 89 9e 3d
       -0.22025216 0.13579617 0.023120346 0.07741106
0001c0 8a 6f ac bd 34 2b 5a bd b9 08 43 bd 59 78 94 3d
       -0.08419712 -0.053263858 -0.04761574 0.07249517
0001d0 6b 34 9b 3c d9 56 6c 3d ce b6 5e bd 8a 2a dd 3c
       0.018945893 0.057700012 -0.054373555 0.026997823
0001e0 e8 4f 97 3d a0 3a 25 bf f0 da 1f be ce ad bd bd
       0.07388288 -0.6454258 -0.15610862 -0.09261666
0001f0 6a 15 5e bd e3 ca c9 3d 78 ef 93 3c 8d da ed bc
       -0.05421964 0.09853151 0.018058524 -0.029034877
000200 47 a4 cc 3c bb f9 3c 3e ad ab f2 bd 61 68 b7 3d
       0.024980677 0.1845464 -0.11849151 0.089554556
000210 c8 fc 96 bd e0 d0 1e 3d 9a 84 1c 3e a4 e0 bd bc
       -0.07372433 0.038773417 0.15284958 -0.023178406
000220 12 7e 3e 3d 4c d4 a7 3c 01 f9 e0 bd 6f ea e1 bc
       0.04650695 0.020486973 -0.10984994 -0.027577607
000230 d6 74 10 be 90 e8 9c 3d f7 e4 a2 3d 8a d3 ab bd
       -0.1410707 0.07661545 0.07953828 -0.08389957
000240 16 93 7e bd f7 0c 53 3d 55 5a 80 bd 96 e3 1f 3d
       -0.06215199 0.051526036 -0.062672295 0.039035402
000250 da 4e 6f bd 8a 47 2e 3e 68 72 ca bd 92 94 85 bd
       -0.058424808 0.17019477 -0.098851025 -0.06522478
000260 74 3c 0d be 3c 66 07 bd df 05 82 3d f4 c0 e3 3d
       -0.13792592 -0.033056483 0.06348776 0.11120787
000270 13 43 24 3c bb 5b e0 3c 80 b6 1a 3d 45 83 0e 3d
       0.010025757 0.02738749 0.0377717 0.034793157
000280 0f 9a ad 3d 13 a5 a6 bd 7a f0 a9 3d 6e ea 23 bd
       0.0847665 -0.08136954 0.082978204 -0.04001849
000290 c6 52 ff 3d c8 59 38 bf dd fd 27 be 8f a4 7b 3b
       0.1246696 -0.72011995 -0.16405435 0.0038397645
0002a0 4f 1f e1 3c 4f 03 c4 3c 02 34 13 bd 49 1e d0 bd
       0.02748075 0.023927359 -0.03593827 -0.101620264
0002b0 7e 80 70 bc 3e 9e 92 bd 3f a3 78 3d f7 e0 86 be
       -0.014679072 -0.071590886 0.06070256 -0.2634351
0002c0 97 47 4b 3d b0 fc 3b bd 84 cc bc 3d bb 1b c2 3d
       0.04962882 -0.04589528 0.09218696 0.094779454
0002d0 da 6b 12 bd 53 fa ba bd 23 a4 c6 3d af 3d 87 bd
       -0.035747387 -0.09129777 0.09699275 -0.06603562
0002e0 0b 78 f4 3d 78 a9 36 be 4c 6a 6f 3d d0 8f 17 3d
       0.11936959 -0.17838085 0.058450982 0.037002385
0002f0 59 dd 69 bd ef cd 28 3e 92 cc 3c be 3e a5 5b 3d
       -0.05709586 0.16484807 -0.18437412 0.053624384
000300 78 40 e5 bd fb d7 9e be 63 e2 10 be c4 39 40 3d
       -0.11193937 -0.31024155 -0.1414886 0.04693009
000310 0f 08 00 3c 30 eb 87 bb e7 5c 19 3e 20 67 9b bc
       0.007814421 -0.0041479096 0.14976846 -0.018970072
000320 a0 af 81 3d 38 bd 70 3d 44 af 55 bc 9b 22 74 bd
       0.06332326 0.058774203 -0.013042275 -0.059603315
000330 8d 28 81 3d ac c5 ab bc f9 21 99 be 3c 78 01 3e
       0.063065626 -0.02096828 -0.29908732 0.12643522
000340 34 97 f6 3a 66 b5 2b 3e 4c a6 92 3c 8c 1e 92 3d
       0.0018813373 0.16768417 0.017901562 0.071347326
000350 b3 8e 3e 3d 5f 21 af 3d ad 54 b2 3d 4b fc ee 3b
       0.046522807 0.08551287 0.08707557 0.0072932593
000360 f4 8a ec bb 65 00 6c 3d 04 a3 4d be c2 4b dc bd
       -0.007218713 0.057617564 -0.20081717 -0.10756637
000370 6e cc 12 3d bb 91 27 be 4c c5 a1 3d fb 4e 53 3e
       0.03583949 -0.16364186 0.078989595 0.20635597
000380 64 78 31 be 1d 39 27 bd 7f 05 59 bd aa ff 11 3e
       -0.17331082 -0.04082595 -0.052983757 0.14257684
000390 02 25 05 3d aa 3b 0a be 75 93 51 bb 82 15 82 bb
       0.032505997 -0.13499323 -0.003197876 -0.003969849
0003a0 c2 ab 2b be 63 18 5a bd 19 66 9a bd 7e 90 95 3d
       -0.16764739 -0.053245913 -0.07539005 0.0730295
0003b0 36 b3 19 3d 65 d8 5e be 58 2c 6f bd 71 96 83 be
       0.037524424 -0.21762235 -0.0583919 -0.25700715
0003c0 a7 4e 9f 3b 51 0a 8e be 10 0c 7a 3d 15 2b ba bd
       0.004861671 -0.27742246 0.06104666 -0.090902485
0003d0 4d ed 42 bd 63 43 ba 3d 5d 49 07 3e 88 4a d1 bd
       -0.04758959 0.09094884 0.1321158 -0.10219294
0003e0 ab d3 89 bb 91 67 68 3d 64 3b 20 3d 1a 34 d9 bd
       -0.004206141 0.056739394 0.03911914 -0.10605641
0003f0 39 ca 0f bd 77 ad 6a bd 5e b5 93 bd 68 1d 6a bd
       -0.035104964 -0.057294335 -0.072123274 -0.05715695

fc2.bias f4 [128]
000000 ad 51 6c 3d c6 9b 97 3c 90 00 02 be bd f9 dd bc
       0.05769508 0.018506896 -0.12695527 -0.027096624
000010 2f bf 72 bd d4 14 d2 3d 1d ad 23 3d b3 ff 48 be
       -0.059264358 0.10257879 0.039960016 -0.19628792
000020 60 45 b6 3d fb 19 92 bb 89 a3 1c 3e cb 19 fd 3d
       0.08899951 -0.0044586635 0.15296759 0.12358435
000030 98 67 97 bd a3 62 86 bd 57 64 ce bc 8c 7d 23 be
       -0.07392806 -0.06561782 -0.02519433 -0.15965861
000040 dc b6 86 3d 06 70 ed bd 7d 65 64 bd 5a 26 bf 3d
       0.065778464 -0.115936324 -0.05576085 0.09333487
000050 82 cd 65 be 91 cf 95 3d eb 1f a8 3d 71 47 5f bd
       -0.22441676 0.07314981 0.08209213 -0.05451149
000060 d1 0a ad 3d a2 4d bd bd e7 d9 3f bd 4a 59 28 3e
       0.08449329 -0.09243323 -0.046838667 0.16440311
000070 e7 c9 70 bd 06 a7 86 bd 99 a4 28 bd 8b ca d5 3d
       -0.0587863 -0.06574826 -0.041172598 0.10439023
000080 3d 6e 89 3d f7 90 92 bd 1d 6a 6e 3d ab 3b 08 bd
       0.067104794 -0.07156556 0.058206666 -0.03326003
000090 65 b1 4f 3d de 2c c3 3d 15 ef f2 3d d3 fb c1 bd
       0.050706286 0.09530042 0.118620075 -0.0947186
0000a0 d7 5f d6 bd f0 fc 40 bd 50 76 8d bd 81 a2 ac 3d
       -0.10467499 -0.04711622 -0.06907332 0.08429433
0000b0 20 2a ed 3d e1 a4 e4 bc f7 73 34 be 01 2b 8e 3d
       0.115803 -0.027910652 -0.17622362 0.06941796
0000c0 6d 0a e6 bd 69 9f 9f bd 23 38 7c be 65 4e e2 3d
       -0.11232457 -0.07794077 -0.2463079 0.11050109
0000d0 a8 8c bc 3d 20 36 0a 3e 45 02 a7 3d a8 1a 41 3d
       0.092065156 0.1349721 0.0815473 0.047144562
0000e0 f6 19 ef 3d 37 65 ce 3d 4d 31 5d 3c 2c 67 af 3d
       0.116748735 0.10077899 0.013500524 0.085646
0000f0 1a 75 da 3d b8 9b 97 3b cc 1b e4 3d 1b b8 00 3c
       0.106668666 0.0046267174 0.11138114 0.007856394
000100 33 db ff 3d 3c bc ab bd af a1 71 bc 42 8d 56 3d
       0.12492981 -0.08385512 -0.014748021 0.052380808
000110 36 ea fd bd 77 b0 fd 3d bd eb a0 bd 57 79 e8 bc
       -0.12398188 0.123871736 -0.078574635 -0.028378172
000120 f0 48 1f bd 28 09 0f be fe fe 0f 3d 5b 33 fa bc
       -0.038887918 -0.13968337 0.03515529 -0.030542066
000130 44 d2 88 bd 77 bd d3 3d 4d cc 09 3d 1c 19 03 be
       -0.0668073 0.10338872 0.033642102 -0.12802547
000140 5a 40 4a bd de 7f 34 be 81 e4 94 bc d6 3f 9a 3d
       -0.049377777 -0.17626902 -0.018175365 0.07531707
000150 a7 f5 61 3d 72 85 92 3d 49 cb e4 3d f3 ad f5 bd
       0.055165913 0.07154359 0.11171586 -0.11996069
000160 56 5c 2a 3e e4 62 38 3d a8 ad 8e bd 9c f0 99 bd
       0.16636786 0.045016184 -0.06966716 -0.07516596
000170 21 50 15 3e 4d ef 38 be 02 9c 97 3d 65 fa 87 3d
       0.14581348 -0.18060036 0.07402803 0.06639556
000180 28 30 d4 3d 3a d5 de 3d ff 9a 05 bd de 4f c0 bd
       0.103607476 0.108805135 -0.03261852 -0.093902335
000190 01 3a 32 bd b5 3a 00 3c 8c 57 00 bd f9 56 08 bd
       -0.043512348 0.007826497 -0.03133349 -0.03328607
0001a0 a3 b6 0f be 0e a8 7f 3b 23 12 09 3d 57 84 01 3c
       -0.14034514 0.003901008 0.033464562 0.007905087
0001b0 fd 98 98 3c 32 b8 55 bd d7 93 d5 3d 64 d0 92 bd
       0.018627638 -0.052177615 0.10428589 -0.071686536
0001c0 e9 fe 8a bd 12 9b 42 3e f9 cb 9b 3d 78 5f 21 be
       -0.067869015 0.19004467 0.07607264 -0.15759075
0001d0 34 30 d3 3d a0 da 16 be 39 8c 19 bd 16 4a 93 bd
       0.103119284 -0.14731836 -0.037487242 -0.07191865
0001e0 67 c7 98 3c 96 ff 12 3e 33 6d 96 3c 4e 24 14 bd
       0.01864977 0.14355311 0.018362617 -0.036167435
0001f0 78 b1 d0 bc 5f d3 ed bc 80 ff 01 3c af cb dc 3d
       -0.025475249 -0.029031454 0.007934451 0.10781037

fc3.weight f4 [2, 128]
000000 1c 09 e4 be 49 bf 35 be 07 0d 8d be e8 fd da 3d
       -0.445382 -0.17748751 -0.27549002 0.1069296
000010 e9 d0 61 bf 8e c1 29 3d 5a 71 51 bd f6 3b 7e be
       -0.88209397 0.041444354 -0.05113349 -0.24827561
000020 69 1b 91 3d 37 02 25 bd aa a9 13 3d b5 2a 91 3d
       0.07085306 -0.040285315 0.036050476 0.07088224
000030 a7 ce 33 be 61 e4 1e be 18 84 eb 3c c2 a0 09 be
       -0.175593 -0.15516807 0.02874951 -0.1344023
000040 67 75 cf 3c 9e 47 6b be c2 44 d8 bd 52 2d 36 3c
       0.025324536 -0.22976539 -0.105599895 0.011119204
000050 42 9f a6 be c9 6f d5 3c 82 8c f8 38 53 45 c7 3c
       -0.3254338 0.02605428 0.00011851733 0.024325049
000060 19 66 85 3d c9 ac 60 bd d0 8d 5b be 45 2b a4 bc
       0.06513614 -0.05485228 -0.21440816 -0.020040164
000070 f8 21 ba bd 4d 92 e2 bd 54 2e 7c be 0b 40 e9 3b
       -0.0908851 -0.11063061 -0.24627048 0.00711823
000080 9a 34 13 3d 47 2a 5a bf 60 ae 17 3d b7 af 1f be
       0.035938837 -0.8522076 0.03703153 -0.15594374
000090 a4 7d ff 3d 69 22 29 3d ab 37 fd 3c f5 0e 4c 3d
       0.12475136 0.04129258 0.030910334 0.04981895
0000a0 fa c8 f5 bd 5e 63 b0 bd 76 94 d1 bd dc 8f 24 3d
       -0.12001224 -0.08612703 -0.10233395 0.040176257
0000b0 ae 4a d5 3d fa c6 57 3e ac 9d 67 be 1d a7 c0 bd
       0.10414635 0.21071997 -0.22618741 -0.09406874
0000c0 32 32 86 be 6f ac d8 3c b4 25 1f be ad c4 01 3d
       -0.2621017 0.02644941 -0.15541726 0.031681705
0000d0 69 5c 4b 3e 62 32 20 3d 8a 7f 0e 3e 24 5e 66 bd
       0.1985947 0.03911055 0.1391584 -0.056242123
0000e0 fe fa 5c 3e 04 1c 1e 3d af ce 2a be ec 8a 58 3d
       0.21580121 0.038600937 -0.16680406 0.05286686
0000f0 17 81 eb 3c 93 5c 04 3e ee 3b f6 3d b3 83 09 be
       0.028748078 0.1292594 0.120231494 -0.13429146
000100 27 5b 23 3c 83 6a c1 be 37 af d9 bd 06 e0 04 bd
       0.009970463 -0.37776574 -0.10629123 -0.032440208
000110 b1 30 46 be dd 9f 94 39 46 ff 85 bd f3 cf c7 bd
       -0.19354512 0.00028347867 -0.0654283 -0.0975646
000120 e7 6e ab bd d0 40 3e be 3e ea 5b be ff ea 0d bc
       -0.08370762 -0.18579412 -0.21476075 -0.0086619845
000130 ad 68 35 be 68 a3 3b bd 70 c3 5a bd 98 4c 63 bd
       -0.17715712 -0.045810133 -0.05340904 -0.055492967
000140 64 3c 44 3d 8c d7 24 be 2b 0f 68 be b2 bd ff 3c
       0.047909155 -0.1609785 -0.22662036 0.031218383
000150 27 d7 f2 3c c9 de 62 3d 55 74 f0 3c 23 1d bd bd
       0.029643608 0.055388246 0.029352346 -0.09234073
000160 b4 ff 14 3d a5 5a aa 3b 23 dd 1d be a0 af ab be
       0.03637667 0.005198794 -0.15416388 -0.3353243
000170 d7 db 90 3d 9e a6 68 be 19 97 12 3e ac 5d 69 3d
       0.07073181 -0.2271981 0.14315452 0.056974098
000180 15 f9 30 3d b4 ee ea 3c fa dd 64 bd f4 8b ad bd
       0.043206293 0.028678276 -0.055875756 -0.084739596
000190 76 95 84 bd b6 57 74 3e 47 2e 73 be 2e 73 bc 3d
       -0.0647382 0.23861584 -0.23748122 0.09201656
0001a0 f3 f3 d4 3d 2b 44 8f 3d 3a fb 0f be e8 1d 4e be
       0.10398092 0.06995424 -0.14060679 -0.20128596
0001b0 57 38 09 be cb 88 31 3c b2 df 1d 3d 70 75 58 be
       -0.13400398 0.010835837 0.03854341 -0.21138549
0001c0 ee 2e eb bd e0 ff 35 3e c1 34 62 3e 18 64 5c be
       -0.114835605 0.1777339 0.22090437 -0.21522558
0001d0 ac 30 d0 3c a2 75 94 be 7d 0d fb bd 7f 75 84 3d
       0.025413834 -0.28995997 -0.12258432 0.06467723
0001e0 c1 4a 63 be 1e 96 82 3d 76 e9 9c bc 6d 81 d7 bd
       -0.22196485 0.06376289 -0.019154292 -0.10522733
0001f0 5d ea 84 bd 7e d4 58 bb 66 58 8c bd eb 22 bc 3c
       -0.06490014 -0.003308564 -0.06852798 0.022965869
000200 d5 08 aa 3e 69 ba 90 bc 05 1c 3a be bf f9 06 3e
       0.33209863 -0.017667012 -0.18174751 0.13181208
000210 a4 9e 7d be 0b fa fc bc bd d9 bf be 6c f0 28 be
       -0.24767548 -0.030880949 -0.3747081 -0.16497964
000220 41 f7 9b bc 39 29 8d 3e 33 ff 30 be 02 89 ec bc
       -0.019038798 0.27570513 -0.17284851 -0.028873924
000230 bc 28 f1 3e 14 7b 80 be 13 17 af 3e 6f bf a1 3e
       0.4710139 -0.250939 0.34197292 0.31591365
000240 83 b5 ef bd ae fc f4 bd 99 9b c3 3d 60 2d cb bd
       -0.117045425 -0.11962257 0.09551162 -0.09920764
000250 4e 33 40 3e 0c 97 e6 3a e1 4b 19 be 50 aa d7 3e
       0.18769571 0.0017592623 -0.14970352 0.42122126
000260 f3 08 b6 3d b3 6d f6 3c f1 7d b7 bd a5 25 bd be
       0.08888426 0.030081606 -0.08959568 -0.36942783
000270 25 ab bf 3d b1 23 99 3c 16 8c c6 bd 01 84 df bd
       0.09358815 0.018693777 -0.09694688 -0.109138496
000280 a2 aa 82 bd 0f d1 b3 3e b8 85 38 bd 96 d6 2f 3e
       -0.06380202 0.35120437 -0.0450494 0.17171702
000290 37 cd 9e 3d 25 21 0a bd 55 c1 cb bd 7f b8 ae 3e
       0.077539854 -0.033723015 -0.099489845 0.34125134
0002a0 ab 61 68 3e ac e0 a4 3e 39 62 53 3e 3d 26 94 3e
       0.22693507 0.3220266 0.20642938 0.28935423
0002b0 df 2c 4f 3d 9f 67 23 3e bb be 17 3d d2 f7 60 3e
       0.0505799 0.15957497 0.03704713 0.21969536
0002c0 89 48 91 be a8 e4 87 3e cf b9 2d 3e 5d 5b 16 be
       -0.28375652 0.26541638 0.16965412 -0.1468329
0002d0 c1 43 e7 3c a8 da 67 bd fd 2b 06 bd 8c 19 2d 3e
       0.02823055 -0.05660501 -0.032756794 0.16904277
0002e0 1a 16 4e 3e e2 00 80 3b 8f 59 a1 bd 9a 43 f3 3d
       0.20125619 0.0039063552 -0.0787841 0.11878128
0002f0 ed 29 5d bd 74 3c f3 bc 72 e4 1b 3e 54 65 d5 3e
       -0.05399506 -0.029691912 0.15223864 0.4167887
000300 91 58 29 be f8 d8 5e 3d 12 79 dd bd 9d 0a 50 be
       -0.16537692 0.054406136 -0.10814108 -0.20316549
000310 d1 58 62 3e 8c e6 0f be b3 56 60 3e 60 3e 18 3e
       0.22104193 -0.1405279 0.21908073 0.14867544
000320 1d f1 ed 3d a0 9c 9a 3e b6 f0 a8 3e 09 f0 7d 3e
       0.11618254 0.3019762 0.32996148 0.24798597
000330 8e 34 b2 bc 45 03 41 be cd 8d 8a be 05 5e da 3d
       -0.021753576 -0.18848903 -0.2706131 0.10662464
000340 64 bf 90 3e 33 28 02 3e 6c 0e b2 3e 10 05 58 bd
       0.2827102 0.12710647 0.34776628 -0.052739203
000350 84 f7 5c 3d 8e a5 51 3d 45 75 fe bd 71 1b 6a 3d
       0.053946987 0.051183276 -0.12424711 0.057155076
000360 2c ef e0 bd 43 c3 e9 bd ea 95 76 3d ce 9a 3f 3e
       -0.109831184 -0.11414196 0.060201563 0.18711397
000370 eb 8c 4f be 9f 97 2f 3e ed c7 76 3d 38 6d 23 3c
       -0.202686 0.17147683 0.060249258 0.00997477
000380 72 12 00 3e 82 e0 0f bd ff c1 c3 3e dc ac 82 3e
       0.12507036 -0.035126217 0.38233945 0.25522506
000390 84 a3 51 3e f1 94 b8 3e 43 83 6f 3d 35 af 48 3e
       0.20472533 0.36051133 0.05847479 0.19598086
0003a0 dd c5 a4 3e 3f f6 5f bc a3 87 02 be 40 57 b4 bd
       0.32182208 -0.0136695495 -0.12747054 -0.08805704
0003b0 a8 d2 b1 3d 87 e2 5b 3e b2 74 9a be 14 d5 45 3d
       0.086827576 0.21473132 -0.30167156 0.04829891
0003c0 e7 6f b0 3d 26 85 23 3e ef 08 48 3e 4a 39 9e 3e
       0.08615094 0.15968761 0.19534658 0.30903083
0003d0 be a8 9a bd 62 07 b4 3d 6e 22 e0 3d 26 5c 32 3e
       -0.07551716 0.08790471 0.10944067 0.17417964
0003e0 5e 4c 97 bd c0 f7 ae 3d d1 40 d8 3e 40 9f fc bc
       -0.07387613 0.08543348 0.4223695 -0.030837655
0003f0 bb 2c 8b be 59 01 33 3e 81 38 16 3b 93 12 e5 bd
       -0.27182564 0.17480983 0.0022921863 -0.111851834

fc3.bias f4 [2]
000000 59 1b d8 3d bf a9 f5 bc
       0.10552091 -0.029988168
