actor_target0.pth (torch_old, 159224 bytes, 6 tensors)

fc1.weight f4 [256, 24]
000000 45 f6 05 3e 6b 0b 68 be e8 37 a0 bb 26 22 75 bd
       0.13082226 -0.22660606 -0.004889477 -0.05984702
000010 d0 e7 45 3d 01 01 b1 be 33 e5 b4 b9 c5 97 8c 3c
       0.048316777 -0.34571078 -0.00034503042 0.017162213
000020 d9 c7 b1 3d 99 85 6f be 0e 64 8a bc 0d 01 5d bd
       0.08680696 -0.23390807 -0.016893413 -0.05395608
000030 a8 cb 19 3e 09 f9 f4 be e4 fc 38 3d 7e 83 46 ba
       0.15019095 -0.4784625 0.04516305 -0.00075726944
000040 31 97 8c 3c e8 f6 93 be 6a a2 12 bd ad de 46 3e
       0.017161937 -0.28899312 -0.03579942 0.19420882
000050 ff 24 8e 3d 08 41 02 bf 8a 86 f2 3c f0 9d 18 3e
       0.0694065 -0.5088048 0.029605169 0.14903998
000060 2e 1d ed bd 75 0c c5 3e 78 03 0b bd 7c 3d 8e 3d
       -0.11577831 0.38486066 -0.033938855 0.06945321
000070 ac 3b 41 3d 74 8c 48 3d f6 40 d0 bc b4 e7 be bc
       0.04717605 0.04896207 -0.0254216 -0.023303844
000080 50 ab e2 bd 4a 30 9e 3e 67 3c ac 3d a6 cf f1 bd
       -0.110678315 0.30896217 0.08409958 -0.11807184
000090 69 9f 92 bd 2e fd 31 3e 21 3c 16 3d be 35 dd bd
       -0.07159311 0.17381737 0.036678437 -0.10801266
0000a0 75 3d 22 3d ee 21 54 3e d9 73 b5 bc 5d 7c ec bd
       0.03960939 0.20716068 -0.022149967 -0.11547158
0000b0 34 35 86 bd 4c 74 79 3e 26 f2 bc 3c 74 7b 1d be
       -0.065531164 0.2436077 0.023064684 -0.15379125
0000c0 b8 98 13 3d ff 82 49 3e 2d 24 6a 3d 8e 7e 92 3c
       0.036034316 0.19678877 0.057163406 0.017882612
0000d0 c1 ff ba 3d 21 12 79 bc b0 b8 d1 bc ce c4 13 bd
       0.091308124 -0.015202076 -0.025600761 -0.03607636
0000e0 b1 7c 83 3d d7 56 54 3e b1 5a 92 bb 50 4f 68 3d
       0.064202674 0.20736252 -0.0044663777 0.056716263
0000f0 cc 96 fc 3c 96 1f 8b 3c ca 24 71 3c 66 c7 9c 3d
       0.030833624 0.016982835 0.014718244 0.0765522
000100 9a f6 2f 3d a7 fb 53 3e 5a a7 e8 bd 20 2e ac bc
       0.042959787 0.20701467 -0.11360045 -0.021018088
000110 9e a0 32 bd f3 be b6 3d 40 aa 89 bd 19 9e 5d 3d
       -0.043610208 0.089231394 -0.06721926 0.05410585
000120 20 28 8b bd f1 63 55 3d 3f 6f ad 3c c5 f9 00 be
       -0.067947626 0.052097265 0.02117121 -0.1259528
000130 e8 a7 3c be 79 2a ff 3d 95 48 38 3d 58 1a 08 be
       -0.18423426 0.12459273 0.044991095 -0.132913
000140 d3 45 67 bd 29 09 19 3d e3 a4 80 bc 0c 17 c3 3b
       -0.056463074 0.03736225 -0.015703624 0.005953675
000150 6d c9 ca 3c 2e 4c d2 bc 50 54 ba 3c 3e 56 9f 3d
       0.02475425 -0.02567109 0.022745281 0.07780121
000160 af 28 4d 3d ef 0d a2 3d d9 52 18 bd d1 fc 9b 3c
       0.050087627 0.07912814 -0.037188385 0.01904145
000170 8b f0 0c 3e 2d 40 bd 3c 46 df 72 3d 48 10 47 3d
       0.13763635 0.02310189 0.05929496 0.04859951
000180 f1 d5 fd bd 79 43 00 3e 03 35 40 3d 69 bc f1 3d
       -0.12394322 0.12525739 0.046925556 0.118035145
000190 d1 21 85 3e 95 42 50 bd 53 ed 70 bd 2a 93 3b 3d
       0.26002362 -0.050844748 -0.05882008 0.045794643
0001a0 70 fa f4 bd 51 14 2f 3e 42 e8 bf 3c c8 f8 46 bc
       -0.1196183 0.17097594 0.023426179 -0.012144275
0001b0 74 49 85 3e b0 a9 f5 3c 01 ff 39 3d 7d f6 61 3d
       0.26032603 0.02998814 0.045409206 0.05516671
0001c0 b7 1b 0d bd ef ec 82 3d 86 2c 9a bd 2b 81 2f be
       -0.03445026 0.06392848 -0.075280234 -0.17139117
0001d0 13 fb 20 3d 87 ed c3 3d 71 10 16 bd 2a 39 d3 bd
       0.039301943 0.09566789 -0.036636773 -0.103136376
0001e0 45 38 87 3d 8a a8 fd bd 69 23 37 bc 7a 87 07 be
       0.066025294 -0.12385662 -0.011177876 -0.13235274
0001f0 e5 f4 27 3d 7a bb 47 bc 6f 4a 89 3d 23 ba e9 bd
       0.041005034 -0.012190694 0.0670365 -0.11412456
000200 00 88 87 3d 7e c6 c1 bd d5 a7 92 3b 53 5e 1a be
       0.06617737 -0.094616875 0.0044755735 -0.15075044
000210 3c 01 79 bd 3a 14 4e 3d fd 99 93 3d 47 8a ff bd
       -0.060792193 0.05031226 0.07207105 -0.12477546
000220 e4 ee 6b 3d fb 8f 15 be 92 a8 4d 3c c1 0d d4 bc
       0.05760087 -0.14605705 0.012552397 -0.025885465
000230 6d 81 aa bc ee 93 66 3e c2 57 aa 3c 4a 54 55 bd
       -0.020813668 0.22517368 0.0207938 -0.052082337
000240 26 b8 3b 3c c8 63 bc bd 58 0f 00 3b 0c d5 5e bd
       0.011457479 -0.09198719 0.0019540396 -0.054402396
000250 e3 84 f0 3d 3c 00 6a bd c4 db f0 3c 53 eb 0f 3d
       0.11744096 -0.05712913 0.029401667 0.035136532
000260 01 40 62 3c fc 5c 50 be 84 ce 66 3c e6 99 b5 3d
       0.013809205 -0.2034797 0.014087323 0.088672444
000270 75 7f 9b bd b5 de 56 3e 87 85 ea bb 30 78 c6 3d
       -0.0759267 0.20983393 -0.007157031 0.09690893
000280 a9 ef 97 bd 97 05 0f be a9 05 1c 3c 0d f6 1b 3e
       -0.074187584 -0.13966976 0.009522834 0.1523058
000290 9d 45 00 be 27 ab 15 3e 54 c4 f4 3b 3f 77 3b 3e
       -0.12526555 0.1461607 0.007469693 0.18307208
0002a0 5f f2 20 bd 84 b9 60 3d 77 1b d2 bd 5f b9 1a bd
       -0.039293643 0.05486442 -0.10259145 -0.03777444
0002b0 f8 27 c7 3d 53 1e e9 bd c4 f1 98 bd c3 2f ab bd
       0.0972442 -0.11382737 -0.07467988 -0.08358719
0002c0 88 cb 91 bd 35 28 06 3d 5f f2 a4 bd 47 63 bb bd
       -0.07118899 0.03275319 -0.08054041 -0.09149795
0002d0 cc f6 eb bc 65 b8 97 3d 8b 7a 89 bd 2e 03 ac bd
       -0.028804205 0.07408217 -0.06712826 -0.08399044
0002e0 87 9b 26 ba 1e 5c f0 3c 10 59 23 bc 13 ce cf bc
       -0.0006355573 0.0293408 -0.009969965 -0.025366819
0002f0 c0 0b da bd d4 d2 e7 3d e9 59 88 3d ef b9 37 bd
       -0.106467724 0.11319509 0.06657774 -0.044855054
000300 7e 2c 35 be 5e 98 c6 3e fb 0b 8c 3c 06 5e b4 3d
       -0.17692754 0.38788122 0.017095556 0.08806996
000310 74 b4 5c 3d 35 8c dd 3d ab 26 a0 3c 98 6b 80 3d
       0.05388303 0.10817758 0.019549688 0.06270522
000320 b3 ea 1c bd c3 00 99 3e 6b 3e b0 3b 13 b0 c4 bc
       -0.038309764 0.29883394 0.0053785346 -0.02400974
000330 c5 f3 92 3e bb 24 d5 3d bf a7 d1 3c ed 52 40 3a
       0.28701606 0.104073964 0.025592683 0.00073365757
000340 98 4b 42 3d f9 b9 53 3e 52 b7 b3 3c 48 10 c0 bd
       0.047435373 0.20676412 0.021938 -0.093781054
000350 25 d4 b3 3e 92 e6 f4 3d 96 55 64 bd 5f e4 23 be
       0.3512279 0.1195804 -0.055745684 -0.16005085
000360 32 92 b6 3b 06 48 52 3e d5 be c3 3c 42 6a b2 3d
       0.005571627 0.20535287 0.023894707 0.08711673
000370 18 ce 35 3d 44 d4 47 bc 16 c7 80 3c 49 71 d6 3d
       0.044386 -0.012196604 0.015719932 0.10470826
000380 94 8b 5c bd 7c 82 37 3e a2 8d b9 3d 86 f0 e2 3d
       -0.05384405 0.1792087 0.090602174 0.110810325
000390 4d e8 7c bd 65 6a 8c 3d 0e ae 39 3d 02 ee 25 3d
       -0.061744977 0.06856231 0.045332007 0.040510185
0003a0 bd 0f e5 3c 72 cc 2d 3e b6 d1 b4 bd d6 c3 47 3e
       0.027961606 0.16972521 -0.08829062 0.19508299
0003b0 09 05 ee bd 5a 02 94 bc 37 f3 0d 3c 46 04 2d 3e
       -0.11622054 -0.018067528 0.008663944 0.16896161
0003c0 b8 6c 1f bd 00 93 b0 bd cd 7f 52 3d 8f 09 07 bd
       -0.03892204 -0.08621788 0.05139141 -0.0329681
0003d0 89 b9 c1 3c c4 13 9c 3d 5b ab 13 3c 21 cc ba 3c
       0.02364804 0.076209575 0.009013022 0.022802414
0003e0 b4 13 b1 bc 97 cc 09 be 73 93 aa bc b8 e2 1d 3e
       -0.02161584 -0.13456951 -0.020822262 0.15418518
0003f0 36 11 e5 3d 22 68 33 3e c2 b7 7e bd 4e e2 33 3e
       0.11184923 0.17520192 -0.062186964 0.17566797

fc1.bias f4 [256]
000000 0d 19 56 bd ce 8c ec 3d 0a 80 37 3d 0c 1b db bb
       -0.052269984 0.11550294 0.044799842 -0.006686574
000010 7f a9 41 3d 89 0c 4f be 1a 10 36 be be 36 8e bd
       0.047280785 -0.20219626 -0.1777958 -0.06944035
000020 5e e2 70 be cf 3f 8f bc 9d fc 89 3c 01 02 f1 bd
       -0.23523852 -0.017486481 0.016844088 -0.1176796
000030 8a de 55 3e af 33 6d be 03 4f 12 bd 60 c0 91 3e
       0.20885673 -0.23164247 -0.035719883 0.28467083
000040 08 c3 29 3e 29 bc 4b 3e 2c 5a d2 bd f3 d9 af be
       0.16578305 0.19895996 -0.10271105 -0.3434597
000050 55 50 c5 3d f8 53 c5 bd f8 95 ec bc c5 23 6f be
       0.09634463 -0.096351564 -0.028880104 -0.23353489
000060 47 7f 1a bc ca ef d5 bd 3d ce 46 3e 42 8a 81 bd
       -0.009429759 -0.10446127 0.19414611 -0.06325199
000070 25 29 8a be 70 d8 57 bc d4 93 42 bd 6f 1a a4 3c
       -0.26984516 -0.013174161 -0.04750426 0.020032136
000080 a0 c1 06 be e8 fa 13 3e 80 36 5b be 4b f7 b9 3d
       -0.131598 0.14451182 -0.21407509 0.090803705
000090 78 cf b1 be 3e b3 f0 3d 80 5f 21 be e1 39 8f 3d
       -0.347286 0.11752938 -0.15759087 0.069934614
0000a0 74 67 e0 bd 53 52 36 be 0a 12 94 bd 99 98 fb bd
       -0.10957232 -0.17804842 -0.07230003 -0.12284965
0000b0 15 9c 24 be 36 63 92 3c 87 8a f7 3d 21 df d9 bd
       -0.16075166 0.017869573 0.12086969 -0.106382616
0000c0 b6 bc a4 3e 43 75 86 bc e1 36 89 be d8 e0 90 3e
       0.32175225 -0.016413337 -0.26799682 0.28296542
0000d0 d3 71 0e be fe 59 f7 bd e6 c8 40 3e 60 dc 25 bd
       -0.13910608 -0.120777115 0.18826637 -0.04049337
0000e0 39 db 32 3e b9 0a d0 3c 88 5d 0b be 77 d0 91 3d
       0.1746644 0.025395738 -0.13609898 0.0711984
0000f0 ad 99 cb bd fd 9e fd 3c c3 e7 2e 3b 5f 33 5b be
       -0.09941421 0.0309596 0.0026688434 -0.21406315
000100 bd 3c 39 bd 37 a2 01 be 90 de e0 bd 80 ac cf 3d
       -0.04522394 -0.12659536 -0.109799504 0.10140324
000110 f1 83 48 be 7b eb c2 bd ed fc f7 bd 54 8a 7f be
       -0.19581582 -0.095175706 -0.12108789 -0.24955112
000120 54 9a 60 be 27 30 b1 bd 8c 7d cc bb a8 7e 8a 3d
       -0.21933872 -0.086517625 -0.0062405523 0.06762439
000130 1c 77 71 3e 8c 7b 8a 3d 82 f6 8c 3c 93 66 c2 3d
       0.23580593 0.06761846 0.017207388 0.09492221
000140 8a 7a 8f bd d3 8b 74 bd b7 36 67 be 97 2d 1a be
       -0.07005794 -0.05970366 -0.22579466 -0.15056454
000150 4c de f8 3c e6 88 4c bd aa e1 66 bd 53 3c 38 3c
       0.030379437 -0.049935244 -0.056367554 0.011244851
000160 83 d2 be bd 71 2b dd 3d b8 08 9c bd cc 1d 89 3d
       -0.09317496 0.107993014 -0.076188505 0.066951364
000170 09 fb 01 be e7 4c b6 3d fa 69 62 bd da f0 8c bd
       -0.12693419 0.08901387 -0.05527685 -0.06881876
000180 57 eb ab 3d af 26 23 3d eb a8 18 3e 0c 78 07 3d
       0.08394497 0.039831813 0.14908187 0.03307347
000190 45 10 d8 3d e9 d0 0f be b8 16 09 3d b0 c8 eb 3d
       0.10549978 -0.14044537 0.033468932 0.115128875
0001a0 29 01 58 bd 55 aa 61 3e 38 df ac 3d 86 6d 7e 3d
       -0.05273548 0.22037633 0.08441013 0.06211617
0001b0 f1 0b 12 3e 0a 22 07 be a6 d4 45 bd fe 1d 80 be
       0.14262368 -0.13196579 -0.0482985 -0.25022882
0001c0 53 1f ad bd 7e 98 22 bd 4f d4 57 3c ac 0e 8f 3d
       -0.0845324 -0.03969621 0.013173177 0.0698522
0001d0 a0 85 83 3e 53 a1 ae be 93 e8 68 bd cb 0c 59 3e
       0.25687885 -0.34107456 -0.056862425 0.21196286
0001e0 a7 f1 86 3c 8e 5a c2 3c 8f 77 8d 3e 22 3d 56 3e
       0.01647265 0.02372482 0.27630278 0.20921758
0001f0 69 99 04 3d 81 57 38 3e 5d 36 9c 3c b2 1a ee 3b
       0.032372866 0.1800213 0.019068891 0.007266366
000200 30 70 85 3e 09 c2 8b be 18 e8 04 be 4a 07 a9 3d
       0.26062155 -0.27296475 -0.12979162 0.082533434
000210 16 93 70 be 82 c2 43 3d a1 4e ec 3d 59 45 a3 3e
       -0.23493609 0.04779292 0.11538435 0.31888846
000220 a5 bf 8e 3d dd 8c 04 bc c6 80 75 3e 8c 83 80 3e
       0.06970147 -0.008090225 0.23974904 0.25100362
000230 db eb 00 3d 40 b3 34 be 0e 33 1a 3e fa ed 7f bd
       0.03147493 -0.17646503 0.15058538 -0.06248281
000240 cb a7 32 3e 02 76 0a bd 53 e1 ed bd d1 f9 30 be
       0.1744682 -0.033803947 -0.11615243 -0.17282797
000250 78 ba 17 be 01 3d 1a 3e 70 66 9e 3d 0b a7 59 3e
       -0.14817226 0.15062334 0.07734382 0.21255128
000260 9a 0e 64 3e 6f 13 30 be f0 cd 7d 3e 66 af 6e 3d
       0.22271195 -0.17194913 0.2478559 0.05827274
000270 a3 64 2f 3e 02 94 49 3d f6 e7 2b be d4 0c 78 3e
       0.17128234 0.049213417 -0.16787705 0.24223644
000280 93 72 93 be 52 77 69 3d 5b 50 85 bd 90 71 fe 3c
       -0.2879835 0.05699856 -0.06509467 0.03106001
000290 a8 3c f2 3c 54 86 a7 3e 95 31 d2 bd d3 4f 4e 3e
       0.029569939 0.32719672 -0.10263363 0.20147638
0002a0 4f d0 67 bd e8 6c 72 3e 8f a7 11 3e 72 15 67 be
       -0.056595143 0.23674357 0.14224075 -0.22566774
0002b0 5f 1f 42 be ba 7c fb bd 64 a6 8d be 95 b0 fb bd
       -0.1895728 -0.12279649 -0.27666008 -0.1228954
0002c0 8d 30 38 be 2c cd 76 3e c8 34 42 be 6d 5e 9c 3c
       -0.1798727 0.24101704 -0.18965447 0.019087994
0002d0 51 56 14 bd aa c9 3a 3e da 91 b4 3d 05 f3 69 3d
       -0.03621513 0.18240991 0.088168815 0.057116527
0002e0 37 41 81 3e d1 37 82 bd 40 c0 63 be 12 86 fe bb
       0.25245067 -0.063583024 -0.22241306 -0.0077674473
0002f0 87 61 9b 3d 8b 3b 81 3e c3 42 02 3e 66 c5 5c bc
       0.07586961 0.2524074 0.1272078 -0.013474798
000300 92 91 8e bd ce 3e 42 3d 68 25 02 3e a0 9b 1a be
       -0.06961359 0.047423176 0.12709582 -0.15098429
000310 ca 1f 4a be 54 9e 81 3e 64 67 b7 3d 62 76 33 3c
       -0.19738689 0.25316107 0.08955267 0.010953518
000320 d7 45 f4 3b 1a 11 b0 bc e3 02 02 bd 2e a0 db bd
       0.0074546146 -0.02149253 -0.031741034 -0.10723911
000330 05 40 a0 3e bd 56 2d 3e 88 9f 59 bd af a6 39 3e
       0.31298843 0.1692762 -0.053130656 0.18129991
000340 f0 56 4a be 41 b1 7a be ad 44 15 bd 52 36 51 3c
       -0.19759727 -0.2448168 -0.036442447 0.012769299
000350 52 73 e0 3d 8c c5 d7 bd 6c 35 74 bd 92 c6 25 be
       0.109594956 -0.10535726 -0.05962126 -0.1618903
000360 84 a4 1f 3e ed 32 3f 3d 73 dd 23 3d 7c 2d 73 3d
       0.15590101 0.046679426 0.040006112 0.05936955
000370 02 d9 2d be d9 13 06 3e e0 cb 0c 3e 01 42 d5 bd
       -0.16977313 0.13093509 0.13749647 -0.1041298
000380 42 50 4a 3d ce 0f d4 bd 6b e5 14 3e 0c d1 0a be
       0.049392946 -0.10354577 0.14540641 -0.13556308
000390 48 13 66 bc 71 72 3d 3c 14 2b 51 3e 20 83 84 3d
       -0.014042683 0.0115629295 0.20426589 0.064703226
0003a0 56 b0 ff bd 39 ad 0a 3d 1b 22 22 3e 48 46 07 3e
       -0.12484805 0.033856604 0.15833323 0.13210404
0003b0 31 8d 35 bd 48 a6 65 3e b8 f8 16 3e bd c5 08 3e
       -0.044324104 0.22426713 0.14743316 0.13356681
0003c0 f5 1e b5 bd 3b e7 b1 3c 04 32 12 3e 49 e3 d2 3d
       -0.08843795 0.021716705 0.14276892 0.102972575
0003d0 7a a0 96 3c 00 06 20 3e 01 2f 05 3e e1 f9 c1 bd
       0.018387068 0.15627289 0.13006212 -0.09471489
0003e0 97 ed 23 bc b7 52 0c be 07 1b f9 bc 73 75 8e bd
       -0.010005376 -0.13703428 -0.030408395 -0.069559954
0003f0 31 fd 68 3e 1a 25 5b 3e 50 87 01 be d6 35 c8 3d
       0.22752835 0.21400872 -0.12649274 0.097758934

fc2.weight f4 [128, 256]
000000 c1 0e cd be 4d 21 0c bd e9 ab 56 bd 0d 3a 46 bd
       -0.4005032 -0.034211446 -0.05241004 -0.048395205
000010 48 21 83 3d 90 18 c3 bc 22 2e 22 bd 47 20 d6 3d
       0.06402832 -0.023815423 -0.039594777 0.10455375
000020 08 12 db 3c 85 74 44 3d 34 ba 94 bd 5e a2 32 bd
       0.026741996 0.047962684 -0.07262078 -0.043611877
000030 64 30 9b bd 7b b3 38 3c 24 42 16 3e f7 a5 97 3d
       -0.07577589 0.01127326 0.14673668 0.07404702
000040 30 73 11 be 75 4f a4 bc a1 86 55 bc c5 e4 d3 bd
       -0.14204097 -0.02005742 -0.013032586 -0.10346369
000050 6c 9f 18 bd bb 2a b8 3d 5b 0e af 3d 25 31 f3 bd
       -0.03726141 0.08992525 0.0854766 -0.11874608
000060 ad da 95 bc 38 43 1d be c4 42 a4 bd 34 0f 2a bd
       -0.01829275 -0.15357673 -0.08020547 -0.041518405
000070 fe 2f f0 bd b2 d5 94 bd c1 bc b4 3d 91 08 5f be
       -0.11727904 -0.07267322 0.088250645 -0.21780612
000080 4c b0 dd 3d 79 d1 99 3d a3 2e 05 3e ff 3a ba bc
       0.108246416 0.07510657 0.13006072 -0.02273321
000090 04 b2 d5 3b 1e 90 a7 bd b9 2f 1e 3d 96 9c d8 3d
       0.0065214653 -0.08181785 0.03861973 0.105767414
0000a0 1f dd e6 bd 6e 9e 81 3c 8d 13 66 3e 3e 14 d8 bd
       -0.11272644 0.015822615 0.22468396 -0.10550736
0000b0 97 85 b4 3c c6 88 66 3d 9f 17 a7 3c 03 cc 78 bd
       0.022036357 0.05628278 0.020397006 -0.060741436
0000c0 f6 70 36 3d 80 28 35 3c 83 d5 c7 bd f5 08 8d bd
       0.04454132 0.011057019 -0.09757521 -0.06886474
0000d0 cb 56 5a bd 81 2e de b8 0c cd 7b bc a0 8b f2 bd
       -0.05330543 -0.00010594447 -0.015368711 -0.118430376
0000e0 1f 28 f4 bc 4e a1 14 bc 6d 69 21 bd 2f 21 09 bc
       -0.029804287 -0.009071661 -0.039407182 -0.008369728
0000f0 e8 06 59 bc 0d 18 cb 3d 2a 64 21 3d 36 18 1b bd
       -0.0132462755 0.09916697 0.039402165 -0.037864886
000100 02 75 53 3d a7 2d 23 3d 56 88 97 be 44 e6 68 3b
       0.05162526 0.03983846 -0.29596204 0.003553764
000110 07 62 02 be 9f 55 07 3d fa 36 86 3d 34 a3 4c bd
       -0.12732707 0.03304064 0.06553455 -0.04996033
000120 3f 93 37 3d 5d cb 96 3b bb 0e 6f 3d 14 95 a8 bd
       0.04481816 0.0046018795 0.058363657 -0.082315594
000130 27 a4 c0 bd 5a 7c 80 bd 07 f8 65 bc 42 3b 2a be
       -0.094063096 -0.06273718 -0.014036185 -0.16624168
000140 43 95 d6 bc 33 14 8f bc 54 40 22 be 5e 49 6a bc
       -0.02619422 -0.017465686 -0.15844852 -0.014299719
000150 f0 96 b4 3d d4 81 09 be 8b f4 22 be 8b b5 3b bd
       0.088178515 -0.13428432 -0.15913598 -0.04582743
000160 a4 5c f4 bd 05 64 eb 3b e1 76 cc 3d a3 0e b6 bd
       -0.11931732 0.007183554 0.09983612 -0.088895105
000170 b2 50 00 be e7 24 96 bd 0e 9a a7 3b d2 59 df 3c
       -0.12530783 -0.07331257 0.0051148003 0.02726451
000180 b0 bb df 3d ab 6f a6 bd eb 22 06 3e fe 61 97 bd
       0.109244704 -0.08126768 0.13099258 -0.073917374
000190 b3 d6 33 bb b0 50 0e 3e 9d 2b 09 3d de 71 b0 bc
       -0.0027441203 0.13897967 0.03348886 -0.021538671
0001a0 fe c5 f4 3d 90 98 cc bd 14 6b 53 3a e1 f7 68 3d
       0.119518265 -0.099900365 0.0008064967 0.05687702
0001b0 24 ef 63 be 0b 8b 0a 3e 5a 69 b3 3c d4 00 a1 3d
       -0.22259194 0.13529603 0.021900821 0.07861486
0001c0 b1 38 a8 bd e8 01 57 bd 9c d2 42 bd 10 40 92 3d
       -0.08213938 -0.052492052 -0.047564134 0.07141125
0001d0 ca 02 a0 3c 1b 31 75 3d 34 2d 61 bd e7 7b d1 3c
       0.01953258 0.059861284 -0.05497475 0.025571777
0001e0 17 f9 96 3d 24 55 25 bf 06 7e 1f be e8 fb ba bd
       0.07371729 -0.6458304 -0.15575418 -0.091300786
0001f0 3c 36 54 bd 7e b5 ca 3d 25 ef 8d 3c 4c 09 e1 bc
       -0.051809534 0.09897898 0.017325947 -0.027470253
000200 8c 0f d4 3c 3b b3 3c 3e 84 ba e5 bd a7 aa ba 3d
       0.02588632 0.18427746 -0.11217216 0.091145806
000210 77 99 93 bd 2f 48 28 3d a3 4b 1d 3e 53 2a c5 bc
       -0.072070055 0.041084465 0.15360884 -0.024068033
000220 90 06 42 3d 59 6d bc 3c 96 99 e2 bd 48 d7 ca bc
       0.04736954 0.02300136 -0.110644504 -0.024760857
000230 e9 36 0f be f0 98 98 3d 49 3e a5 3d c7 29 ac bd
       -0.1398579 0.074510455 0.080685206 -0.08406406
000240 c4 aa 7b bd 8c c7 4f 3d 17 16 7f bd d6 c5 25 3d
       -0.06144215 0.050727412 -0.062276926 0.040471874
000250 4e 80 70 bd 3d c3 2d 3e 77 e0 c6 bd 50 8c 85 bd
       -0.05871611 0.16969009 -0.09710782 -0.06520903
000260 65 01 0f be c7 c2 ff bc 88 58 79 3d 4b 7b e7 3d
       -0.13965376 -0.031220807 0.060875446 0.11302813
000270 6e 4f 12 3c 0f 97 01 3d b1 c5 23 3d 06 44 15 3d
       0.00893007 0.0316382 0.039983455 0.036441825
000280 9e 62 af 3d b0 1a a3 bd 2f 98 a8 3d f0 4e 24 bd
       0.085637316 -0.079640746 0.08232152 -0.040114343
000290 1a 17 00 3e 49 85 36 bf 81 4c 24 be 16 58 c1 3b
       0.12508813 -0.71297127 -0.16044809 0.0059003932
0002a0 29 a4 dd 3c 4b 9f cb 3c 23 b1 19 bd fb 23 d2 bd
       0.027055817 0.02485623 -0.037522446 -0.10260769
0002b0 7c 69 8f bc 1e 6b 8d bd 52 58 7c 3d 60 d8 85 be
       -0.017506354 -0.069051966 0.061607666 -0.26141644
0002c0 38 1e 45 3d 83 e8 38 bd 65 f3 c1 3d 9e 50 c6 3d
       0.048124522 -0.045143615 0.09470252 0.09683345
0002d0 de 0c f8 bc ba 6d bc bd 95 c1 c8 3d 03 45 8d bd
       -0.030279573 -0.09200616 0.09802548 -0.068979286
0002e0 fb 64 f5 3d f2 66 32 be f2 10 70 3d ab d5 16 3d
       0.11982151 -0.17422083 0.05860991 0.036824863
0002f0 f2 4c 71 bd 94 21 29 3e ea ed 3a be 6d 63 67 3d
       -0.05891127 0.16516715 -0.1825482 0.056491304
000300 5c 2d e2 bd d1 41 a0 be 9e 9e 10 be 22 3a 43 3d
       -0.11043808 -0.31300214 -0.14123008 0.04766286
000310 31 d5 e1 3b d0 10 bf bb 09 9b 1a 3e ef 8f 8b bc
       0.0068918695 -0.0058308616 0.15098204 -0.017036406
000320 b9 61 81 3d ea df 71 3d f3 d7 32 bc 7c 04 79 bd
       0.06317467 0.05905143 -0.010915744 -0.060795292
000330 bb 96 73 3d 00 f1 90 bc 2c 0a 9a be d5 2f 02 3e
       0.05946992 -0.017693043 -0.30085886 0.12713559
000340 5e 05 b0 3b 4c 34 2d 3e 7c e7 ac 3c 66 40 92 3d
       0.0053717336 0.16914481 0.021106474 0.07141189
000350 13 41 46 3d ea 26 b8 3d 5c 78 b3 3d 3f c5 2a 3c
       0.048401903 0.08991797 0.08763191 0.010423004
000360 9c 1d 09 bc 5d 7a 69 3d 08 f3 49 be e3 2a d7 bd
       -0.008368876 0.05700146 -0.19721615 -0.10506227
000370 92 b8 11 3d fb ec 28 be 34 17 a0 3d 42 a9 52 3e
       0.03557641 -0.16496651 0.07816926 0.20572379
000380 2d c7 32 be a6 5a 1f bd 4a df 55 bd c9 ea 14 3e
       -0.17458792 -0.03890481 -0.0522149 0.14542688
000390 6d ea 0a 3d ee f8 07 be ae 0b 81 bb eb f2 9c bb
       0.033914972 -0.13278553 -0.00393816 -0.0047897003
0003a0 ed 03 2b be 90 55 5f bd 80 c1 9d bd 59 e8 96 3d
       -0.16700716 -0.054524958 -0.07702923 0.073685355
0003b0 df 38 24 3d 27 d9 5a be 6d 30 70 bd 6b 9f 83 be
       0.0400933 -0.213719 -0.058639932 -0.25707564
0003c0 f9 a9 78 3b 36 53 8e be 18 8d 77 3d 24 aa bf bd
       0.0037943108 -0.2779786 0.06043729 -0.093586236
0003d0 18 2b 47 bd 98 d3 ba 3d 85 51 06 3e 53 09 d1 bd
       -0.04862508 0.091223896 0.13117035 -0.102068566
0003e0 d6 ac 49 bb 3d a7 6d 3d 18 bd 15 3d 0d 65 d5 bd
       -0.0030773184 0.05802082 0.036557287 -0.104196645
0003f0 e1 a2 12 bd 9a c1 62 bd fb ce 8e bd 46 11 67 bd
       -0.035799865 -0.055360414 -0.06973072 -0.056412958

fc2.bias f4 [128]
000000 09 b9 6d 3d e3 d8 97 3c c1 0d 03 be 10 a5 e2 bc
       0.05803779 0.018536037 -0.12798215 -0.027666599
000010 47 9e 74 bd 0e 7f d2 3d 5a 14 26 3d 10 82 46 be
       -0.059721258 0.1027814 0.040546753 -0.19385552
000020 f5 2e b6 3d b8 4f 2a bb 5d cf 1c 3e ba 7f fd 3d
       0.08895675 -0.0025987457 0.15313478 0.123778775
000030 95 40 99 bd 8e 13 88 bd 53 48 cd bc 52 48 22 be
       -0.07483021 -0.06644355 -0.025058901 -0.158479
000040 8b 2a 87 3d a2 23 f0 bd 50 39 64 bd 98 a8 bf 3d
       0.06599911 -0.117255464 -0.05571872 0.093583286
000050 a9 b7 65 be 07 88 96 3d b7 a2 a6 3d db 60 55 bd
       -0.22433342 0.07350164 0.08136504 -0.05209432
000060 8b bb ad 3d f9 cd b9 bd 28 ab 44 bd 5e 94 24 3e
       0.084830366 -0.09072489 -0.04801479 0.16072223
000070 5c 4b 75 bd b5 04 87 bd 65 15 2c bd 55 38 d6 3d
       -0.05988632 -0.06592695 -0.04201259 0.10459963
000080 45 f7 89 3d 90 0a 93 bd f6 8b 6f 3d ef be 0c bd
       0.06736616 -0.07179749 0.058483087 -0.034361776
000090 ca 67 50 3d f8 bb c3 3d ee 6b f3 3d 51 a2 bd bd
       0.05088023 0.095573366 0.1188582 -0.09259475
0000a0 a2 11 d9 bd 9b bb 3e bd 25 bb 8a bd 53 a5 ad 3d
       -0.10599066 -0.046565633 -0.06773976 0.08478799
0000b0 8e 54 ef 3d ff f3 e1 bc fb 57 34 be a2 20 8d 3d
       0.116860494 -0.027582167 -0.17611687 0.0689099
0000c0 c7 fd e5 bd 8d c0 a2 bd 50 5c 7b be 52 c0 e2 3d
       -0.11230045 -0.079468824 -0.24546933 0.110718384
0000d0 ff fc be 3d 2e 7b 0a 3e d6 2f a7 3d 2b 4e 3e 3d
       0.09325599 0.13523552 0.08163421 0.046461266
0000e0 f3 9c f5 3d c3 99 cf 3d ab b0 5f 3c c6 31 ae 3d
       0.11992826 0.101367496 0.013652961 0.08505587
0000f0 75 0d db 3d 88 74 ae 3b a5 05 e6 3d 00 f8 09 3c
       0.10695926 0.00532395 0.11231545 0.008420944
000100 b6 0f 00 3e 8e 2f ac bd 66 98 70 bc 0a 4c 56 3d
       0.12505993 -0.08407508 -0.014684772 0.05231861
000110 24 ba 01 be 3b f2 fd 3d e9 b1 a0 bd 86 84 e8 bc
       -0.12668663 0.123997174 -0.07846434 -0.028383505
000120 15 f6 22 bd 48 24 0f be 03 66 17 3d da b5 f3 bc
       -0.039785463 -0.13978684 0.03696252 -0.0297498
000130 8e 2b 8a bd 90 d0 d3 3d 1f cd 02 3d 04 b1 04 be
       -0.06746589 0.103425145 0.0319339 -0.12958151
000140 0e c1 47 bd 14 f0 34 be 92 ed 8f bc d1 d7 9a 3d
       -0.048768096 -0.17669708 -0.017569337 0.07560695
000150 cf 0d 62 3d 5a ce 92 3d 59 38 e5 3d 23 36 f6 bd
       0.05518895 0.07168265 0.11192388 -0.120220445
000160 e6 95 2a 3e 66 e2 39 3d bb d2 8d bd e8 c2 92 bd
       0.16658744 0.045381926 -0.06924959 -0.07166082
000170 6c 7f 15 3e 9d 45 38 be b1 e6 9b 3d fb 6c 88 3d
       0.14599389 -0.17995305 0.0761236 0.066614114
000180 08 77 d7 3d c9 7a df 3d 4d 97 09 bd 64 d3 bf bd
       0.1052075 0.10912091 -0.033591557 -0.093664914
000190 91 83 2e bd 77 c7 ea 3b bd 4d fe bc 92 53 01 bd
       -0.04260594 0.0071648913 -0.031042928 -0.03157384
0001a0 ba 8a 0e be 3b f3 91 3b d0 11 09 3d 13 24 da 3b
       -0.13920107 0.004454044 0.033464253 0.0066571324
0001b0 de 0f 9a 3c c0 4d 50 bd 9b a6 d3 3d cb ea 92 bd
       0.018806394 -0.0508554 0.10334512 -0.071736895
0001c0 f8 17 8b bd 46 1d 44 3e cb 1b 9b 3d 12 14 21 be
       -0.06791681 0.19151792 0.075736605 -0.15730312
0001d0 40 c2 d3 3d 24 03 19 be af 7c 1b bd 16 c0 94 bd
       0.103397846 -0.14942604 -0.037960704 -0.072632
0001e0 09 73 a4 3c d2 72 13 3e a1 f8 a1 3c 8e 1f 14 bd
       0.020074384 0.14399269 0.019771876 -0.036162905
0001f0 e4 80 cc bc ff 30 ee bc 02 ef d6 3b f5 41 dd 3d
       -0.024963804 -0.029076098 0.0065592537 0.10803596

fc3.weight f4 [2, 128]
000000 dd 10 e4 be b6 30 37 be 70 63 8d be 61 d2 da 3d
       -0.44544116 -0.17889675 -0.27614927 0.10684658
000010 96 ef 5f bf fe 60 2c 3d a5 31 55 bd 75 3e 7d be
       -0.87474954 0.042084686 -0.052049298 -0.24730857
000020 8a 86 91 3d e7 42 21 bd 8c 4e 14 3d c5 56 92 3d
       0.071057394 -0.039370444 0.03620772 0.07145456
000030 76 b9 35 be 78 a9 1f be b0 97 e3 3c 15 26 03 be
       -0.17746529 -0.15591991 0.027782291 -0.12807496
000040 96 4c d1 3c fd c1 6d be 0d e6 d9 bd 2a 71 3b 3c
       0.025549214 -0.23218532 -0.10639582 0.011440555
000050 3b 33 a4 be 38 05 dd 3c 7b 81 a2 38 c7 73 b7 3c
       -0.32070336 0.026980028 7.7488796e-05 0.022394074
000060 22 69 87 3d 27 78 6a bd 1c 72 5a be a8 06 ad bc
       0.06611849 -0.057243492 -0.21332592 -0.021121338
000070 4e 78 bb bd 5f 74 db bd 68 a5 7d be 96 f0 f0 3b
       -0.09153806 -0.107155554 -0.24770129 0.007352899
000080 cf ec 15 3d cd b1 59 bf 74 ab 19 3d 65 2f 21 be
       0.03660279 -0.8503693 0.037517026 -0.15740736
000090 ce 67 ff 3d 8b bc 2a 3d 79 19 ff 3c a8 c9 45 3d
       0.12470971 0.041683715 0.031140076 0.048288018
0000a0 40 83 f6 bd 8a 6f b2 bd 7a b9 d5 bd 13 c6 22 3d
       -0.12036753 -0.08712681 -0.104357675 0.03973968
0000b0 42 60 d5 3d ac 7f 56 3e ae 7c 66 be f8 4c c3 bd
       0.1041875 0.2094714 -0.22508499 -0.09536165
0000c0 72 01 85 be 37 90 cc 3c 3c 76 1b be 29 a1 02 3d
       -0.25977665 0.02497111 -0.15181822 0.031891976
0000d0 da 05 4a 3e 2c 37 21 3d e6 e6 0e 3e 0b eb 6a bd
       0.19728795 0.039359257 0.13955268 -0.05735306
0000e0 b8 b3 59 3e 73 96 1f 3d 6a a4 29 be dd 98 56 3d
       0.21259964 0.03896184 -0.16566625 0.052391876
0000f0 61 6f ee 3c 06 ad 05 3e 3f 1b f5 3d c9 46 0a be
       0.029105844 0.13054284 0.119680874 -0.13503565
000100 f9 56 25 3c 4c fb c0 be 73 5d da bd 04 e3 01 bd
       0.010091537 -0.37691724 -0.10662355 -0.03171064
000110 11 34 47 be 4e de 1c 3a 9d 63 85 bd 9f 6e c8 bd
       -0.19453456 0.0005984054 -0.0651314 -0.09786724
000120 70 f0 ab bd 2e 92 3d be fd 40 5d be c5 11 f1 bb
       -0.08395469 -0.18512794 -0.21606822 -0.0073568546
000130 8a c0 35 be d2 ef 3c bd 44 4b 61 bd f5 0b 64 bd
       -0.17749229 -0.046127148 -0.05500342 -0.055675466
000140 af 5f 42 3d ac e2 21 be 8a 13 69 be c3 5c 01 3d
       0.047454532 -0.15809125 -0.2276136 0.031582605
000150 b7 4c f8 3c 2c ed 63 3d a6 75 f1 3c a4 78 be bd
       0.030310018 0.055646107 0.029475044 -0.09300354
000160 14 87 15 3d f3 29 c8 3b f7 09 1d be 47 00 aa be
       0.036505774 0.0061085164 -0.15335833 -0.33203337
000170 c2 7b 91 3d d3 15 6a be ec 4a 12 3e b0 70 6b 3d
       0.07103683 -0.22859888 0.14286393 0.057480514
000180 1f 7b 2f 3d f9 5b f1 3c ab c0 64 bd bf ce ae bd
       0.042842027 0.029462801 -0.055847805 -0.085355274
000190 a4 08 84 bd 92 99 70 3e 31 04 74 be b4 31 b5 3d
       -0.064469606 0.23496082 -0.23829724 0.08847371
0001a0 ca b9 ce 3d 01 2c 8f 3d fe 95 10 be 72 13 4c be
       0.1009403 0.06990815 -0.14119717 -0.19929293
0001b0 bc 77 0a be 45 4d 34 3c 8c a6 1a 3d 4d 72 5a be
       -0.13522238 0.011004751 0.037756488 -0.21332665
0001c0 c7 69 ed bd 53 08 36 3e cc 8d 62 3e b2 f9 5d be
       -0.11592441 0.17776613 0.22124404 -0.21677282
0001d0 09 7f d2 3c 30 d0 90 be 1f 7c fa bd 2e 3e 82 3d
       0.02569534 -0.28283834 -0.122307055 0.06359516
0001e0 61 34 62 be 2a ce 80 3d c7 5c a5 bc 18 df d8 bd
       -0.22090293 0.06289323 -0.020185841 -0.10589427
0001f0 8c c4 85 bd c9 ad 8a bb c6 60 8e bd cd 73 be 3c
       -0.06531629 -0.0042321426 -0.06952052 0.023248577
000200 7d 06 aa 3e cb 38 8e bc 15 7f 34 be 9f f0 05 3e
       0.33208075 -0.017361065 -0.17626603 0.13080071
000210 d9 fc 77 be be 6d fb bc 65 56 be be 82 12 2a be
       -0.24217547 -0.030691978 -0.3717529 -0.16608623
000220 92 60 a4 bc ee 15 8d 3e a3 dd 30 be 5b 03 ee bc
       -0.02006558 0.27555794 -0.17272048 -0.029054334
000230 b2 0d f1 3e 37 79 80 be de bd ae 3e ba f2 a0 3e
       0.4708076 -0.2509248 0.34129232 0.31435186
000240 c6 14 ef bd e4 f3 eb bd c8 97 c5 3d 7d 1b cb bd
       -0.11673884 -0.11521128 0.096480906 -0.09917352
000250 f8 9c 3d 3e 42 f8 c8 3a 55 7b 18 be 08 23 d7 3e
       0.1851691 0.0015332776 -0.14890797 0.42018914
000260 ab 95 b5 3d 01 e8 ee 3c f0 d8 b7 bd 9d f3 bb be
       0.088664375 0.029163362 -0.089769244 -0.367093
000270 40 cd bb 3d a1 7a af 3c 00 a1 c6 bd fe 70 df bd
       0.09170008 0.021420779 -0.09698677 -0.109102234
000280 72 ed 81 bd b8 ac b3 3e 09 f2 38 bd c1 b8 30 3e
       -0.06344117 0.3509271 -0.045152698 0.17257978
000290 13 82 9d 3d a6 d7 09 bd 92 98 cb bd f5 15 ae 3e
       0.07690825 -0.033652924 -0.0994121 0.34001127
0002a0 6b c1 68 3e 97 a9 a4 3e a2 52 54 3e 82 2e 94 3e
       0.22730033 0.32160637 0.20734647 0.28941733
0002b0 4e 11 59 3d 3d 80 24 3e 27 22 14 3d 7f 9d 5e 3e
       0.05299502 0.16064544 0.036165383 0.21739767
0002c0 42 64 91 be a5 92 87 3e 4d 97 2e 3e 82 20 16 be
       -0.28396803 0.26479068 0.17049904 -0.14660838
0002d0 f7 bf ec 3c 50 9a 67 bd 25 6b 06 bd 05 85 2a 3e
       0.02890013 -0.05654365 -0.032817025 0.16652305
0002e0 ef 05 50 3e 85 32 83 3b 96 7c a2 bd 1a e4 ee 3d
       0.20314763 0.004003825 -0.07933919 0.11664601
0002f0 d8 de 5c bd 7c 25 f0 bc 87 da 1c 3e ed ac d5 3e
       -0.053923458 -0.029314749 0.15317737 0.41733494
000300 11 75 29 be 41 ef 66 3d c1 fd de bd b0 4b 4f be
       -0.16548564 0.056380514 -0.108882435 -0.20243716
000310 8a e5 61 3e 24 44 0f be ef ef 60 3e 02 66 17 3e
       0.22060218 -0.13990837 0.21966527 0.14785007
000320 59 03 eb 3d 02 11 9a 3e a2 70 a9 3e 83 53 7d 3e
       0.11475248 0.300911 0.33093745 0.24738888
000330 9f 66 a4 bc d5 65 40 be 35 64 8a be 25 97 d8 3d
       -0.020068465 -0.18788846 -0.27029577 0.105757035
000340 b2 a3 8f 3e e4 bc 00 3e 2a ae b3 3e 8a 52 54 bd
       0.28054577 0.12572056 0.35093814 -0.051836528
000350 bf 37 61 3d 4f 7a 52 3d 2b 83 fe bd 47 a2 63 3d
       0.054984804 0.051386174 -0.12427362 0.05557468
000360 e3 e8 e0 bd a0 c4 e8 bd 5a cb 79 3d a0 48 42 3e
       -0.109819196 -0.11365628 0.060984947 0.18973017
000370 ff 47 4f be bb da 2e 3e ea 31 7a 3d 11 26 17 3c
       -0.20242308 0.17075627 0.061082758 0.009225384
000380 20 5a fe 3d 1e d7 0e bd 7a e9 c1 3e e1 65 81 3e
       0.12419534 -0.03487312 0.3787344 0.2527304
000390 09 e9 50 3e d1 2f b9 3e b3 29 74 3d d0 fa 45 3e
       0.20401396 0.36169294 0.05961008 0.19333959
0003a0 2c 6e a4 3e 07 d3 62 bc e4 e9 00 be c9 fa ad bd
       0.32115304 -0.013844258 -0.12589222 -0.08495099
0003b0 e6 56 b4 3d b5 ab 5e 3e 78 c9 99 be 0c 72 46 3d
       0.08805637 0.21745189 -0.3003652 0.048448607
0003c0 4d af ac 3d a4 44 23 3e 00 e4 46 3e d7 d3 9d 3e
       0.084318735 0.15944153 0.19422913 0.30825683
0003d0 08 dc 99 bd 32 7a b3 3d 9b 2e df 3d 10 bb 32 3e
       -0.07512671 0.08763541 0.10897561 0.17454171
0003e0 fa 1a 92 bd b8 e4 b0 3d 58 67 d8 3e 7a 1c 02 bd
       -0.071340516 0.08637375 0.42266345 -0.03176544
0003f0 f2 f1 8a be 83 64 32 3e 8b 35 12 3b 76 4c e5 bd
       -0.27137715 0.17421155 0.0022309746 -0.111962244

fc3.bias f4 [2]
000000 f0 6b d8 3d b3 19 f5 bc
       0.105674624 -0.02991948
