critic_target1.pth (torch_old, 187386 bytes, 5 tensors)

fcs1.weight f4 [256, 52]
0	0xbe898ea1	-0.2686663
1	0x3f29a5ef	0.6626882
2	0x3c662ccc	0.014048766
3	0xbd6ba12a	-0.057526745
4	0x3bcdf697	0.0062854993
5	0x3f48c70e	0.78428733
6	0xbb9c507c	-0.0047703367
7	0x3ce733ae	0.028222885
8	0xbecebada	-0.4037693
9	0x3f3c0410	0.734437
10	0xbd55e347	-0.0522187
11	0x3d100133	0.035157394
12	0x3ddbe2aa	0.10736592
13	0xbeb46769	-0.35235146
14	0x3caeed1a	0.021353293
15	0x3d8b3a85	0.06798271
16	0xbf2b8b87	-0.67009777
17	0x3f92cfc3	1.1469654
18	0xbc9627b3	-0.018329477
19	0x3e44b5a5	0.19209917
20	0x3f005252	0.5012561
21	0xbfd7c933	-1.6858276
22	0xbd4a4fa5	-0.04939236
23	0x3e8a25be	0.2698192
24	0xbde67f4f	-0.11254751
25	0x3d383407	0.044971492
26	0x3c518d26	0.01279
27	0x3d301d5a	0.04299674
28	0x3d975597	0.07389372
29	0x3f504eca	0.8137022
30	0xbc80a1f0	-0.015702218
31	0xbcbe8d14	-0.02326063
32	0xbcf57271	-0.029961796
33	0x3e059b10	0.13047433
34	0x3cc3fac1	0.02392328
35	0xbd0f85aa	-0.03503958
36	0x3c4793d6	0.012181243
37	0xbeba95dc	-0.3644246
38	0xbce9eb44	-0.028554566
39	0x3b77f593	0.0037835583
40	0x3e32c587	0.17458163
41	0x3e40c3ff	0.18824767
42	0xbc2e7e96	-0.010650298
43	0x3df5d9a7	0.120044045
44	0xbefe6da2	-0.49693018
45	0xbfd2f5a2	-1.6481211
46	0x3a8e6c22	0.0010865966
47	0x3bbac539	0.0056997803
48	0xbfa5f67c	-1.2965846
49	0xbe31cdb5	-0.17363627
50	0x3d467091	0.048447195
51	0xbc2d0e44	-0.010562483
52	0xbecda1a0	-0.40162373
53	0x3f0e953f	0.5569648
54	0x3d8a5044	0.06753591
55	0x3e8fdffa	0.28100568
56	0x3d8d0d79	0.06887335
57	0xbf009dd0	-0.502408
58	0x3cd82103	0.026382929
59	0x3e73c1e9	0.2380444
60	0xbe8b2f28	-0.27184415
61	0x3f45cc19	0.77264553
62	0xbdb233fc	-0.087013215
63	0xbc173b37	-0.0092304265
64	0x3e009657	0.1255735
65	0xbf97b5f9	-1.1852409
66	0x3c0038c4	0.007826034
67	0xbd799592	-0.060933657
68	0xbd185c7d	-0.03719758
69	0x3f81435d	1.0098683
70	0xbd368f91	-0.04457051
71	0x3edba014	0.42895567
72	0x3ee0b9df	0.43891808
73	0xbf97ca07	-1.1858529
74	0x3d31492f	0.043282684
75	0x3f06d878	0.52674055
76	0x3d0e0a7b	0.034677964
77	0xbe529678	-0.20565212
78	0xbda66e47	-0.081265025
79	0xbdcf3d35	-0.10119096
80	0x3cb9933c	0.022653215
81	0xbee396c3	-0.4445096
82	0x3d2a7a28	0.041620404
83	0xbd7ad965	-0.06124248
84	0x3f8686fc	1.0509944
85	0xbc711631	-0.0147147635
86	0xbb775f5a	-0.0037746043
87	0x3e2fc544	0.17165095
88	0xbe3c8060	-0.18408346
89	0xbf9cbd3d	-1.2245251
90	0xbc31b617	-0.010846636
91	0x3e72babb	0.23704045
92	0x3fe96ecd	1.8236939
93	0x3e176a51	0.1478665
94	0x3dc029ef	0.09382998
95	0x3ef0b4f7	0.47013065
96	0xbedfb983	-0.43696222
97	0xbfa5da03	-1.2957157
98	0x3e08c9dd	0.13358255
99	0x3ef79f28	0.48363614
100	0x3f69566a	0.9114748
101	0xbe80da94	-0.25166762
102	0x3ea54531	0.3227935
103	0x3e045b3b	0.12925427
104	0xbe0043cc	-0.12525862
105	0x3eadafe1	0.33923247
106	0x3cee5c7c	0.029096834
107	0xbba7318b	-0.0051023415
108	0x3ef44880	0.47711563
109	0xbf08e7eb	-0.5347888
110	0xbd4c6310	-0.04989916
111	0x3b3e76d4	0.0029062526
112	0x3e4a45de	0.19753215
113	0x3eb020f8	0.34400153
114	0xbd5b1798	-0.053489298
115	0xbe7e6c1c	-0.24845928
116	0x3d4343f3	0.047672223
117	0xbf596682	-0.8492204
118	0xbd20d567	-0.039266016
119	0xbe664995	-0.22489007
120	0x3f03f102	0.51539624
121	0x3e847e7f	0.2587776
122	0xbd580baa	-0.0527455
123	0xbe772b82	-0.2413769
124	0xbe977d69	-0.29587868
125	0xbfe97ceb	-1.8241247
126	0x3a1f34a9	0.00060732156
127	0xbe319bd9	-0.17344607
128	0xbe9de5ec	-0.3083948
129	0x3edcb031	0.43103173
130	0xbce90413	-0.028444326
131	0x3f0a2d12	0.5397502
132	0xbed2b265	-0.4115173
133	0xbedd8a72	-0.43269688
134	0xbc9f1f76	-0.019424181
135	0x3f12ea99	0.5738922
136	0x3e45e788	0.19326603
137	0x3f27fccd	0.6562012
138	0x3c9c3961	0.01907033
139	0x3f0793d7	0.5295996
140	0xbdc03f1d	-0.09387038
141	0xbf559f24	-0.83445954
142	0x3db4ac0c	0.08821878
143	0x3ee66d81	0.4500542
144	0x3e63be5b	0.22240584
145	0x3f594afa	0.8488003
146	0x3c52e27f	0.012871384
147	0x3e96a133	0.2941986
148	0x3e912ee3	0.28356084
149	0xbfe816a7	-1.8131913
150	0x3c9823ff	0.018571852
151	0x3e85635e	0.26052374
152	0x3f715234	0.94266057
153	0x3eadbd27	0.33933374
154	0xbed0e074	-0.40796244
155	0xbf499109	-0.7873693
156	0xbea0a5cd	-0.31376496
157	0xbe9c1803	-0.3048707
158	0x3d153abe	0.036432974
159	0x3e3b03e9	0.1826321
160	0xbe6ea742	-0.23305991
161	0xbdfe9d63	-0.12432363
162	0xbb6584fc	-0.0035021892
163	0x3e722a49	0.23648943
164	0x3e05ebed	0.1307828
165	0x3cf4eed4	0.029899038
166	0xbca06d8c	-0.019583486
167	0x3e8fa2d8	0.28053927
168	0x3dbf8c81	0.09352971
169	0xbdae6e5e	-0.085171446
170	0xbd1a3405	-0.037647266
171	0x3e9d9231	0.30775598
172	0x3f56223b	0.8364598
173	0x3eaef0a5	0.34167972
174	0xbd9ab98c	-0.075549215
175	0x3f07ce5c	0.53049254
176	0x3f346228	0.70462275
177	0xbeb5dc7a	-0.35519773
178	0xbcc3ee52	-0.02391735
179	0x3f144274	0.579139
180	0x3eb4045c	0.35159576
181	0xbe92d81c	-0.28680503
182	0x3d0763c7	0.03305414
183	0x3e09638b	0.13416879
184	0x3e702870	0.23452926
185	0xbdb9b166	-0.09067039
186	0xbd4218c3	-0.047386896
187	0x3e386924	0.18008858
188	0x3f39ac95	0.72528964
189	0x3da7384b	0.08165034
190	0xbc1f169d	-0.009709981
191	0x3e359e22	0.17736104
192	0xbcd040ac	-0.025421463
193	0xbe13335b	-0.1437506
194	0xbb869592	-0.0041071856
195	0x3e641977	0.22275339
196	0x3f9c2095	1.2197443
197	0x3e015d92	0.1263335
198	0xbc3f0062	-0.011657806
199	0xbe2170db	-0.15765707
200	0xbf2e0154	-0.67970777
201	0xbea02522	-0.3127833
202	0x3cff25dd	0.031145984
203	0xbe5254ac	-0.20540112
204	0xbf82d9f3	-1.0222763
205	0x3bf58542	0.007492692
206	0x3e28a0dd	0.16467614
207	0xbead4b8f	-0.3384671
208	0xbe192297	-0.14954601
209	0xbe26a047	-0.16272078
210	0x3cd80e8e	0.026374128
211	0x3ea5e25e	0.32399267
212	0x3ec670fa	0.3875807
213	0xbeed9cab	-0.4640859
214	0xbc39a9ae	-0.011331959
215	0x3e8d946f	0.27652308
216	0xbd8214a6	-0.063515946
217	0xbe87804b	-0.26465067
218	0xbd1f0211	-0.03882033
219	0x3e1485c7	0.14504157
220	0x3e0fe12c	0.1405074
221	0xbe546bcb	-0.20744245
222	0x3d4e0c57	0.050304737
223	0x3d583b5b	0.05279098
224	0x3e62f5dc	0.221641
225	0xbe9b6a65	-0.3035461
226	0xbc2fca69	-0.010729411
227	0x3db4aa64	0.08821562
228	0x3e1f7d9d	0.15575261
229	0xbf946cd3	-1.159571
230	0xbdb74a01	-0.08949662
231	0x3da6ea07	0.08150106
232	0x3e80f038	0.25183272
233	0xbe1ba1d1	-0.15198447
234	0xbd6b251b	-0.057408433
235	0x3d6127e9	0.054969702
236	0xbe994c8a	-0.29941207
237	0xbf038e80	-0.5138931
238	0xbd90a5c7	-0.070628695
239	0x3d5139df	0.05108058
240	0x3e7c9948	0.24667847
241	0xbeadb7d9	-0.33929327
242	0xbd7158b0	-0.05892247
243	0x3d130bac	0.035899803
244	0xbe4b341b	-0.19844095
245	0xbe521506	-0.20515832
246	0xbdeb3be6	-0.11486034
247	0x3d34dbb4	0.044154838
248	0x3ea60d7b	0.3243216
249	0xbec61a86	-0.3869211
250	0x3c67fbe0	0.014159173
251	0x3e302093	0.17199926
252	0xbe3a0357	-0.18165337
253	0xbf8a5a20	-1.0808754
254	0x3db69315	0.089147724
255	0x3e42fd27	0.19041882

fcs1.bias f4 [256]
0	0xbdfe90f9	-0.12429995
1	0xbef1c0c5	-0.47217384
2	0xbefd17ad	-0.49432126
3	0xbed42d52	-0.41440827
4	0xbf4bb93a	-0.7957951
5	0xbe701d94	-0.23448783
6	0xbb37de45	-0.0028056067
7	0xbf003324	-0.50078034
8	0xc001c623	-2.0277183
9	0xbf1d23b4	-0.61382604
10	0xbf385260	-0.72000694
11	0x3f1ab2da	0.60429156
12	0xbf5a68e7	-0.8531632
13	0x3eabb063	0.3353301
14	0xbf0f71a1	-0.5603276
15	0xbf0bd97b	-0.54628724
16	0xbdcdf744	-0.10056928
17	0x3ec4a7db	0.38409314
18	0xbfc173b0	-1.511343
19	0xbef5a7a7	-0.4797947
20	0x3c5106d9	0.01275798
21	0xbf0a0720	-0.5391712
22	0x3e56bc00	0.20970154
23	0xbf2f89d7	-0.685697
24	0xbf259bb2	-0.646907
25	0xbf02ba91	-0.5106593
26	0x3fa24b01	1.2679139
27	0x3f15f81b	0.58581704
28	0xbe64f386	-0.22358522
29	0xbfdc8179	-1.7227012
30	0xbf9e060e	-1.2345598
31	0xbf5a493b	-0.8526799
32	0xbf45500d	-0.7707527
33	0x3f526b12	0.82194626
34	0xbf629b03	-0.8851778
35	0xbf7dad26	-0.9909233
36	0xbf070dcd	-0.52755433
37	0xbeca693c	-0.39533412
38	0xbf6ab55b	-0.91682976
39	0xbf2b8bc1	-0.6701012
40	0xbea6df64	-0.3259231
41	0xbfa80f1f	-1.3129615
42	0xbf883316	-1.064059
43	0xbf8506e6	-1.039273
44	0xbf82338d	-1.0171982
45	0xbe517f0d	-0.20458622
46	0xbf0eef64	-0.5583403
47	0xbf2cd153	-0.67506903
48	0xbf5ab343	-0.8542978
49	0xbda6f0a1	-0.08151365
50	0xbec415f1	-0.3829799
51	0xbcef9c40	-0.02924931
52	0xbf4173b0	-0.7556715
53	0xbce786a9	-0.028262453
54	0xbeb1fb8e	-0.34762233
55	0x3ca55e54	0.02018658
56	0xbee2fca2	-0.4433337
57	0x3d6a3373	0.057177972
58	0xbf890d0b	-1.0707105
59	0xbf46130d	-0.7737282
60	0x3eba3aae	0.36372894
61	0xbe2f217e	-0.1710262
62	0x3d2b32bd	0.041796435
63	0xbe949e47	-0.29027006
64	0xbf651ba2	-0.8949529
65	0xbf756efa	-0.9587246
66	0xbec7be7f	-0.39012524
67	0xbec0c368	-0.37649083
68	0xbe9c73bf	-0.30557057
69	0x3f029e27	0.5102257
70	0xbf9e9b3d	-1.2391125
71	0xbf8aa793	-1.083239
72	0xbf971703	-1.1803898
73	0xbe7c5b84	-0.24644285
74	0xbe7eb00f	-0.24871849
75	0xbf8cc765	-1.099835
76	0xbedd2fc3	-0.43200502
77	0xbf3e58e8	-0.7435441
78	0xbf5024f3	-0.8130638
79	0xbe5cb261	-0.21552421
80	0xbfc205aa	-1.5157979
81	0xbf4b5e4c	-0.7944076
82	0xbebc04b6	-0.36722344
83	0xbf3dc8b4	-0.74134374
84	0xbfd42a4b	-1.6575407
85	0xbee24a1d	-0.4419717
86	0xbeb46c9c	-0.35239112
87	0xbf926240	-1.1436234
88	0xbf65e593	-0.8980343
89	0xbf676d5e	-0.90401256
90	0xc01b780a	-2.4292016
91	0x3dc522d4	0.096257836
92	0xbf7a3f29	-0.97752625
93	0xbf8bb9d4	-1.0916085
94	0xbd074ee4	-0.03303422
95	0xbe70671f	-0.23476838
96	0xbe4a7180	-0.1976986
97	0xbf01658b	-0.5054557
98	0xbf01780f	-0.5057382
99	0xc014757a	-2.3196702
100	0xbf4d710c	-0.8025062
101	0xbeb477a7	-0.35247537
102	0xbe3df379	-0.18549909
103	0xbf6ab0f3	-0.91676253
104	0xbe2a339a	-0.16621247
105	0xbf7a0746	-0.9766735
106	0xbe25334b	-0.16132848
107	0xbe101903	-0.14072041
108	0xbf401f71	-0.75047976
109	0xbf56d302	-0.8391572
110	0xbf2c192a	-0.672259
111	0xbfb61943	-1.4226459
112	0xbfa6894d	-1.3010651
113	0xbed1b318	-0.4095695
114	0xbf33abb6	-0.70183885
115	0xbf21cb27	-0.6320061
116	0xbe83e55c	-0.25760925
117	0xbdce3bfc	-0.10070035
118	0xbf7b8ac7	-0.9825863
119	0xbf0da02b	-0.5532252
120	0xbf35ac5b	-0.7096612
121	0xbeb761f1	-0.3581691
122	0x3ebc82d4	0.36818564
123	0xbee0abe5	-0.43881145
124	0xbf1a5588	-0.6028676
125	0xbfc92252	-1.5713599
126	0xbf3c2e7e	-0.7350844
127	0xbf59872c	-0.8497188
128	0xbf947281	-1.1597444
129	0x3e4a193f	0.19736193
130	0xbf0cba3a	-0.5497166
131	0xbee415d2	-0.44547898
132	0xbfa07bc4	-1.253777
133	0xbf1cbc39	-0.61224705
134	0xbedef285	-0.43544403
135	0xbf0a2877	-0.53967994
136	0xbee53a16	-0.4477088
137	0x3fc50326	1.5391586
138	0xbf38e417	-0.7222304
139	0xbf01d145	-0.50709945
140	0xbf7746e9	-0.96592575
141	0xbe60e452	-0.21962097
142	0x3f02dfaa	0.51122534
143	0xbe9a82ab	-0.30177817
144	0xbf427604	-0.7596133
145	0xbf0dc609	-0.553803
146	0x3f0f756f	0.56038564
147	0xbefe949d	-0.49722758
148	0xbeff0f81	-0.49816516
149	0x3e2cb436	0.1686562
150	0xbf1313e0	-0.574522
151	0x3f04a9e0	0.5182171
152	0xbf6628c3	-0.8990595
153	0xbc327824	-0.010892902
154	0xbf87319a	-1.0562012
155	0xbeeeb64d	-0.4662346
156	0xbe99986e	-0.29999107
157	0xbf1645e9	-0.58700424
158	0xbf6eb4f4	-0.9324486
159	0x3bfc9a08	0.0077087916
160	0xbf42b61b	-0.7605912
161	0xbf3896b7	-0.7210497
162	0xbf8d413b	-1.1035532
163	0xbf60765f	-0.8768062
164	0xbf51549b	-0.8176972
165	0x3f0dea72	0.5543586
166	0xbe1b602e	-0.15173408
167	0xbf5e36b1	-0.868022
168	0xbee661ea	-0.44996578
169	0xbf09e275	-0.5386117
170	0xbed17460	-0.409091
171	0xbefa0be2	-0.4883719
172	0x3ee68522	0.45023447
173	0xbf84c0d8	-1.0371351
174	0xbe4e2716	-0.20132098
175	0xbeab696f	-0.33478877
176	0xbea8d8fa	-0.3297804
177	0xbf8a5fb4	-1.0810456
178	0xbd074778	-0.033027142
179	0xbe96b0a9	-0.29431656
180	0xbf57e765	-0.84337455
181	0xbf952c7b	-1.1654199
182	0xbf5ccae0	-0.8624706
183	0x3e3069ba	0.17227831
184	0x3dc69e98	0.09698218
185	0xbf84dba7	-1.0379533
186	0xbecd9db2	-0.40159374
187	0xbf38562c	-0.7200649
188	0x3e57a683	0.21059613
189	0xbff57a8f	-1.9178027
190	0xbf0c559b	-0.54818124
191	0xbf134548	-0.5752759
192	0x3fa00a8d	1.250322
193	0xbe9681a5	-0.29395786
194	0xbf3d3072	-0.73902047
195	0x3def80a6	0.116944596
196	0xbf836345	-1.026467
197	0xbf53d668	-0.8274903
198	0x3e913feb	0.28369078
199	0xbf980f59	-1.1879684
200	0xbf365ae0	-0.71232414
201	0xbfa2b3b0	-1.2711086
202	0xbf8993b6	-1.0748203
203	0xbf4db937	-0.8036074
204	0xbf4dca3c	-0.8038671
205	0x3e951157	0.29114792
206	0xbf7d2eb7	-0.98899406
207	0xbf21aaf2	-0.63151467
208	0x3e87f637	0.26555035
209	0xbef25e97	-0.4733779
210	0xbe495fba	-0.19665423
211	0xbf612b64	-0.87956834
212	0xbf69d4f8	-0.9134059
213	0xbf3d9a7e	-0.7406386
214	0xbd2ed01f	-0.04267895
215	0xbf8b046f	-1.0860728
216	0xbedc5efb	-0.43041214
217	0xbe9e7778	-0.30950522
218	0xbf8cc9bd	-1.0999066
219	0xbcdf09cc	-0.027226351
220	0x3e478436	0.19484028
221	0xbf21a4f8	-0.6314235
222	0xbf14fd7f	-0.58199304
223	0xbf365ec9	-0.7123838
224	0xbf6ae857	-0.9176077
225	0xbf54f5a0	-0.83187294
226	0xbef8f309	-0.4862292
227	0xbe87087c	-0.2637366
228	0xbf2aad11	-0.6667033
229	0xbc42f64a	-0.01189954
230	0x3e7c9b55	0.2466863
231	0xbedf355b	-0.43595394
232	0xbe3d7764	-0.18502575
233	0xbf6ea673	-0.9322273
234	0xbf72dbee	-0.94866836
235	0xbe5af280	-0.21381569
236	0xbd88e89c	-0.06684992
237	0xbf47d16f	-0.78053945
238	0xbf0b8959	-0.5450645
239	0xbfe648ca	-1.7990963
240	0x3e5d5f4f	0.21618389
241	0xbe76079c	-0.2402634
242	0xbf3fb2b9	-0.74882084
243	0xbf513bdc	-0.81731963
244	0xbef4c40e	-0.47805828
245	0xbf981f93	-1.1884636
246	0xbf1691f1	-0.5881644
247	0xbf2a6edd	-0.66575414
248	0xbe6d2523	-0.23158698
249	0xbf89d047	-1.0766686
250	0xbfefe881	-1.874283
251	0xbef8ae1e	-0.4857034
252	0xbddce9af	-0.10786759
253	0xbdf78c2e	-0.12087284
254	0xbf8687a6	-1.0510147
255	0xbf5d8f80	-0.8654709

fc2.weight f4 [128, 256]
0	0xbd5c9387	-0.05385163
1	0x3c344ae4	0.011004183
2	0xbd8e5bd5	-0.06951109
3	0xbd7f36d4	-0.062308148
4	0xbd854b7d	-0.06508539
5	0x3d3cd66b	0.046102922
6	0xbcdb91b6	-0.026802879
7	0x3d19c5bd	0.037542094
8	0xbdaf4541	-0.08558131
9	0xbd9a8d5e	-0.07546495
10	0x3c298123	0.01034573
11	0xbe11170f	-0.14168952
12	0xbd007149	-0.031358037
13	0x3cc1c80f	0.023654966
14	0xbcdfdb61	-0.027326288
15	0x3d4d93a1	0.050189618
16	0xbe0ba09a	-0.13635483
17	0x3be4926c	0.0069754627
18	0xbd011171	-0.031510774
19	0xbd065906	-0.032799743
20	0xbd9558eb	-0.072923504
21	0xbdda41c5	-0.10657076
22	0x3b8780a0	0.0041352063
23	0x3cd0a8b4	0.025471069
24	0x3d32b4a2	0.043629296
25	0xbdda8bfd	-0.10671232
26	0xbb96b87c	-0.004599629
27	0xbe019b44	-0.12656885
28	0x3c918c3e	0.017767068
29	0xbc88be50	-0.01669231
30	0xbd86aef6	-0.0657634
31	0x3bff3abb	0.0077889836
32	0xbd5da10f	-0.054108676
33	0xbdd822cb	-0.10553511
34	0xbdb41434	-0.08792916
35	0xbdb400ac	-0.08789191
36	0x3cc5469a	0.024081517
37	0xbd0b248b	-0.033970397
38	0x3bd075eb	0.006361713
39	0x3c3934b8	0.011304073
40	0xbbf2b3a9	-0.007406671
41	0xbda48f7f	-0.08035182
42	0xbc06ca4e	-0.008226944
43	0xbd275e42	-0.040861376
44	0xbda56e28	-0.08077651
45	0x3d21cb22	0.039500363
46	0x3c48d8ad	0.012258691
47	0x3c9a1bae	0.018812027
48	0xbbb5b62e	-0.005545399
49	0xbc83018b	-0.015991947
50	0xbda4974f	-0.08036672
51	0xbc60b622	-0.013715299
52	0x3cd5ade1	0.026083888
53	0xbd9f9223	-0.07791545
54	0xbdfce512	-0.12348379
55	0xbd6c5aa4	-0.05770363
56	0xbbcd5522	-0.006266252
57	0x3d2d9bee	0.042385034
58	0xbdef57ac	-0.11686644
59	0x3c84db15	0.016217748
60	0xbda43da9	-0.08019573
61	0x3c3a1749	0.011358091
62	0xbdf1aa08	-0.11800009
63	0xbde6a996	-0.11262815
64	0xbd131e99	-0.035917852
65	0xbcd432f8	-0.02590321
66	0xbdf37312	-0.11887182
67	0xbd4bedc1	-0.049787287
68	0xbc793f77	-0.015212885
69	0xbd687689	-0.05675367
70	0xbd9a4608	-0.07532889
71	0xbbc67b34	-0.0060571674
72	0xbd06a33e	-0.032870524
73	0x3d0664bd	0.032810915
74	0xbdaf6cc9	-0.08565671
75	0xbdc7426d	-0.097294666
76	0xbdb625d5	-0.08893935
77	0xbd8904a0	-0.06690335
78	0x3a9f672a	0.0012161483
79	0x3d7e3502	0.06206227
80	0xbd967613	-0.073467396
81	0xbdc4f0ab	-0.09616216
82	0xbdad6927	-0.08467322
83	0xbdeaf72b	-0.11472925
84	0xbe1c8cb1	-0.15288045
85	0xbdd5a611	-0.10432065
86	0xbdf6b31d	-0.12045882
87	0x3d32241a	0.04349146
88	0x3ccae037	0.024765117
89	0xbd484825	-0.048896927
90	0xbd5c8f9f	-0.053847905
91	0x3d0da823	0.034584176
92	0xbcee2795	-0.029071609
93	0x3c19508d	0.009357584
94	0x3ca24f5d	0.019813234
95	0xbe0da054	-0.13830692
96	0xbd95b2c2	-0.07309486
97	0xba0c63eb	-0.0005355465
98	0xbda15b2c	-0.07878718
99	0xbdc955ae	-0.09830795
100	0x3d85c87c	0.0653238
101	0xbdbe0eed	-0.092801906
102	0x3d6db64c	0.05803518
103	0xbd04323b	-0.032274466
104	0xbd3c74c4	-0.046009794
105	0xbd4346e1	-0.047675017
106	0x3d7d3719	0.061820123
107	0x3d1f5f5a	0.038909294
108	0xbc9531da	-0.018212248
109	0xbc564a21	-0.013079197
110	0xbc55e491	-0.013054983
111	0x3d5c129d	0.05372869
112	0xbdcee77b	-0.10102745
113	0xbd98086d	-0.07423482
114	0xbda2babe	-0.079457745
115	0xbdc17dd8	-0.09447831
116	0xbd4cc0b1	-0.049988452
117	0x3ceb166a	0.028697211
118	0xbd0b4e91	-0.034010474
119	0xbd137c59	-0.03600726
120	0xbd5dc438	-0.054142207
121	0x3d072fdf	0.033004638
122	0xbd6cf2fc	-0.057848915
123	0xbdb44315	-0.088018574
124	0xbd653296	-0.055956446
125	0xbccb1300	-0.024789333
126	0xbdbe4d6d	-0.092921115
127	0xbb269af1	-0.0025421942
128	0xbe009859	-0.12558116
129	0x3c7110f0	0.014713511
130	0xbd217e55	-0.03942712
131	0xbd46d50c	-0.04854302
132	0xbdb3a2ec	-0.08771309
133	0xbba9f654	-0.0051868353
134	0xbca72792	-0.02040461
135	0xbdc85f96	-0.097838566
136	0xbe0b8542	-0.13625053
137	0xbd915977	-0.07097142
138	0xbccf8f74	-0.025336958
139	0xbd466dea	-0.048444666
140	0x3b554467	0.0032541992
141	0xbc1cf241	-0.009579242
142	0xbe3c1189	-0.18366064
143	0x3c190e25	0.009341751
144	0x3b69352e	0.0035584676
145	0xbd313da2	-0.04327167
146	0xbd38dae0	-0.04513061
147	0xbd041acc	-0.032252118
148	0xbcf57e84	-0.029967554
149	0xbcf0fa40	-0.029416203
150	0x3c1c7928	0.00955037
151	0xbd779d7d	-0.060452927
152	0xbdbe39e5	-0.09288386
153	0xbe0e9a55	-0.1392606
154	0xbca199ad	-0.019726599
155	0x3b03c0f3	0.002010402
156	0xbda28adc	-0.079366416
157	0x3ca523ee	0.020158734
158	0xbd51681d	-0.05112468
159	0xbd675d48	-0.056485444
160	0xbe82172a	-0.25408298
161	0x3cd538af	0.026028005
162	0x3d1a1f96	0.03762778
163	0x3d13da18	0.036096662
164	0x3d36c3b6	0.04462024
165	0xbe2389c6	-0.15970525
166	0xbc715800	-0.0147304535
167	0x3d3b7ac3	0.04577137
168	0xbdac4fe6	-0.08413677
169	0xbc2b9464	-0.010472391
170	0x3d8c3cda	0.06847544
171	0xbd2a5fcc	-0.041595265
172	0xbe00bf69	-0.12573017
173	0xbde40d9d	-0.11135409
174	0xbd589413	-0.05287559
175	0xbcceef4b	-0.025260588
176	0xbd1ce689	-0.038305793
177	0xbdaa9a64	-0.08330229
178	0xbd4ae038	-0.049530238
179	0xbdc28779	-0.094984956
180	0xbd91b737	-0.071150236
181	0xbd868016	-0.06567399
182	0xbdc4352a	-0.09580453
183	0x3c041acb	0.008063029
184	0x3b91da5f	0.0044510807
185	0x3cf0ee87	0.029410614
186	0xbe0d0440	-0.13771152
187	0xbc1681cb	-0.0091862185
188	0xbde238db	-0.110460006
189	0x3c67b2ca	0.014141748
190	0x3d192d65	0.037396807
191	0xbdb1689a	-0.08662529
192	0xbd525e36	-0.051359378
193	0xbd4ed00b	-0.050491374
194	0xbd72bb79	-0.05926082
195	0x3d009c41	0.031399015
196	0xbd773fbd	-0.06036352
197	0xbd20a77c	-0.039222226
198	0xbd93b6f0	-0.07212627
199	0xbd9bec88	-0.07613474
200	0xbd8e407d	-0.06945894
201	0x3d0f55d4	0.03499396
202	0xbcc85bae	-0.024457779
203	0xbe0606fe	-0.13088605
204	0x3cde1e0f	0.027113942
205	0xbd933609	-0.07188041
206	0xbd984ad5	-0.07436148
207	0xbadd2bdf	-0.0016874037
208	0x3d55a9f8	0.052164048
209	0xbd8dfe14	-0.06933227
210	0x3cad077d	0.021121735
211	0xbd01bd52	-0.03167469
212	0x3cc84824	0.024448462
213	0xbd0e678d	-0.034766722
214	0xbd3613ee	-0.0444526
215	0x3dbaa3ea	0.091132954
216	0xbdcf7fd4	-0.10131803
217	0x3cc02de6	0.023459386
218	0xbd60835a	-0.054812767
219	0xbca3669e	-0.019946393
220	0xbd7a934f	-0.06117564
221	0xbd41a4e8	-0.047276407
222	0xbdd18375	-0.102301516
223	0x3cc8b19d	0.024498755
224	0xbd511615	-0.05104645
225	0xbddca70f	-0.107740514
226	0xbd1e655a	-0.038670875
227	0x3cfdfa6b	0.031003198
228	0xbdae382f	-0.0850681
229	0x3db22803	0.08699038
230	0xbdb2c559	-0.08729047
231	0x3d4371d8	0.04771599
232	0x3d144391	0.03619725
233	0xbd81d0d9	-0.06338663
234	0xbd658886	-0.056038402
235	0xbe0fabc6	-0.1403037
236	0x3c9c2337	0.01905976
237	0xbdb1800a	-0.08667
238	0x3d21d82c	0.0395128
239	0x3cb665f5	0.022265414
240	0xbddcd5ef	-0.10782992
241	0xbd1ce689	-0.038305793
242	0x3d216acc	0.03940849
243	0xbe102cae	-0.14079544
244	0x3d450c02	0.048107155
245	0x3cdc129d	0.026864344
246	0xbd5a3c97	-0.05328044
247	0xbd68dc19	-0.056850526
248	0xbdca865f	-0.098889105
249	0xbd0d32f4	-0.03447242
250	0xbd9e74fa	-0.07737155
251	0xbcbd20a4	-0.023086853
252	0xbd9dc14a	-0.077028826
253	0xbd4083d7	-0.047000732
254	0xbdafb701	-0.08579827
255	0x3ca85842	0.020549897

fc2.bias f4 [128]
0	0xbdc960d5	-0.09832922
1	0xbdb81b78	-0.08989614
2	0xbe1da5f2	-0.15395334
3	0xbe34663d	-0.17617126
4	0xbe174134	-0.14770967
5	0x3f258f39	0.64671665
6	0xbe85700d	-0.2606205
7	0xbe15705b	-0.14593641
8	0xbe1df412	-0.15425137
9	0xbe328bd4	-0.17436153
10	0xbe289aab	-0.16465251
11	0xbe115ede	-0.14196345
12	0xbdbd2c5c	-0.092369765
13	0xbe68e9be	-0.22745416
14	0xbdc23958	-0.09483594
15	0xbeb86224	-0.36012375
16	0xbdc3dfbd	-0.09564159
17	0xbe7531ac	-0.2394473
18	0xbea0af4c	-0.3138374
19	0xbe37873a	-0.17922679
20	0x3e6f205d	0.2335219
21	0xbe4e8f07	-0.20171748
22	0xbc619347	-0.013768024
23	0xbe274ab8	-0.16337097
24	0xbe130ef9	-0.1436118
25	0xbe1fa5ab	-0.15590541
26	0xbe6dba3d	-0.23215576
27	0xbe77763c	-0.24166197
28	0xbe0596e9	-0.13045849
29	0xbdf4f396	-0.11960523
30	0xbe5626fb	-0.20913307
31	0xbe48dc96	-0.19615397
32	0xbe06ddd6	-0.13170561
33	0xbe2f9f91	-0.17150714
34	0xbdd7d0c3	-0.10537865
35	0x3d63c043	0.055603277
36	0xbe2ae9ad	-0.16690703
37	0xbe26f0e1	-0.16302826
38	0xbe323dee	-0.17406437
39	0xbda7f144	-0.08200315
40	0xbdcbb710	-0.09947026
41	0xbdb1dedc	-0.08685085
42	0xbe242dd7	-0.16033112
43	0xbe3ceab6	-0.1844891
44	0xbe72d825	-0.23715265
45	0x3d553b2e	0.05205839
46	0xbda3b4bf	-0.07993459
47	0xbe28ba7a	-0.16477385
48	0xbddd1863	-0.10795667
49	0xbe2149ce	-0.1575081
50	0xbdafa0eb	-0.085756145
51	0xbe6f9378	-0.23396099
52	0xbe1f3463	-0.15547328
53	0xbe0b5c8c	-0.13609523
54	0xbe06745e	-0.13130328
55	0xbe237e0e	-0.15966055
56	0x3fe6b7dc	1.802486
57	0xbde2e8a4	-0.11079529
58	0xbe099cf9	-0.13438787
59	0xbe4b16bf	-0.19832896
60	0xbe4d326b	-0.20038764
61	0xbe3501a7	-0.17676412
62	0xbdd88a0d	-0.10573206
63	0xbdeb0e9b	-0.11477395
64	0xbe540fcf	-0.20709155
65	0xbe05d623	-0.13069968
66	0xbe17d98d	-0.14829083
67	0xbe112f25	-0.1417814
68	0x3f56a211	0.83841044
69	0xbdb9bab1	-0.09068812
70	0xbe6e6e59	-0.23284282
71	0xbdf48119	-0.11938686
72	0xbe3183f2	-0.1733549
73	0xbdcdcbed	-0.100486614
74	0xbe583a3b	-0.21115963
75	0xbe33358c	-0.17500895
76	0xbec9dfff	-0.39428708
77	0xbe082dc7	-0.13298713
78	0xbe2ae885	-0.16690262
79	0xbdb5dd3e	-0.08880089
80	0xbe3331a4	-0.17499405
81	0xbe1fa423	-0.15589957
82	0xbe4d0e7a	-0.20025054
83	0xbe06baae	-0.1315715
84	0x3f48125c	0.78153014
85	0xbe36bbe7	-0.17845117
86	0xbe2abfcd	-0.16674729
87	0xbdc590d3	-0.09646764
88	0xbd846504	-0.0646458
89	0x3e50ef15	0.20403703
90	0xbe6729dd	-0.22574563
91	0xbeeedf5b	-0.46654782
92	0xbe1f9d8d	-0.15587445
93	0xbe3d5754	-0.18490344
94	0x3ddb4398	0.10706252
95	0xbe42122f	-0.18952249
96	0x3e872259	0.26393393
97	0xbe51b13f	-0.2047777
98	0xbe20806c	-0.15673989
99	0xbddb300d	-0.10702524
100	0xbe49de67	-0.19713746
101	0xbe268381	-0.16261102
102	0xbe13bdb7	-0.14427839
103	0xbe57ab44	-0.21061426
104	0x3f6fdb32	0.9369384
105	0xbe1876c8	-0.14889061
106	0xbe360ab0	-0.17777514
107	0xbe10f55b	-0.14156096
108	0xbe282d4a	-0.16423526
109	0xbe2ccce6	-0.16875038
110	0xbe338c49	-0.17533983
111	0xbd986dfd	-0.074428536
112	0xbe9053cb	-0.2818893
113	0xbe22e46e	-0.15907452
114	0xbdedfdda	-0.11620684
115	0xbe37a2dc	-0.1793322
116	0xbdc346e1	-0.095350035
117	0xbe79cfff	-0.2439575
118	0xbe2965cb	-0.16542737
119	0x3efabbd3	0.48971424
120	0xbe1852a5	-0.14875276
121	0x3ebcf11e	0.36902708
122	0xbe83f3bc	-0.25771892
123	0xbe4d513c	-0.2005052
124	0xbe23084c	-0.15921134
125	0xbe14ef72	-0.14544466
126	0xbdfa3590	-0.122172475
127	0xbe380774	-0.17971593

fc3.weight f4 [1, 128]
0	0x3c8bec57	0.017080469
1	0xbc431801	-0.011907578
2	0xbac2c9e0	-0.0014861189
3	0x3b99f886	0.0046988158
4	0xbcb6f67e	-0.022334334
5	0xbc54bccf	-0.012984469
6	0xbce6e26a	-0.028184135
7	0xbbee5676	-0.0072734905
8	0xbc93e5d0	-0.01805392
9	0xbcc83c2d	-0.024442757
10	0x3ccf6093	0.025314605
11	0xbc737ad1	-0.014860825
12	0xbc600e1c	-0.013675239
13	0xbba85df0	-0.0051381513
14	0x3c46b5cc	0.012128305
15	0x3d4fd68f	0.05074173
16	0x3cdc9e7a	0.026931036
17	0x3b6d39f5	0.0036197875
18	0x3c518374	0.0127876885
19	0x3cda04cf	0.026613621
20	0xbc251072	-0.010074722
21	0xba9c6444	-0.0011931737
22	0x3c8b3d92	0.016997132
23	0x3ae7b17f	0.0017676799
24	0x3b8e38ab	0.0043402514
25	0x3cd18b45	0.025579104
26	0xbba0684a	-0.0048952447
27	0xbb978546	-0.0046240417
28	0x3cb0ea59	0.02159612
29	0x3c75235b	0.014962043
30	0xba1ea1e5	-0.0006051346
31	0x3c138fe0	0.00900647
32	0x3b04587b	0.002019434
33	0xbc764d8c	-0.015033137
34	0x3bb8e927	0.0056430283
35	0xbc3a7e8e	-0.011382712
36	0x3c8509b2	0.016239975
37	0xbb58a3b3	-0.0033056557
38	0x3b947e6a	0.0045316713
39	0x3cc54451	0.024080427
40	0xbc6672e7	-0.014065481
41	0x3bd63fec	0.006538382
42	0x3a13e1d6	0.0005641257
43	0x3c818304	0.015809543
44	0x3c323e88	0.010879166
45	0xbc6666bc	-0.01406258
46	0xbb97fdf3	-0.0046384274
47	0xb668949e	-3.46572e-06
48	0xbd2ead0f	-0.04264551
49	0xbc3b06e4	-0.011415217
50	0x3c46f331	0.012142942
51	0xbca52dab	-0.020163378
52	0xbc1243d8	-0.008927308
53	0xbc82669a	-0.015918065
54	0x3c6aeb73	0.014338362
55	0xba5935ec	-0.0008285928
56	0x3bf8d65a	0.007593912
57	0xbccf8b8c	-0.025335096
58	0xbb70003f	-0.003662124
59	0x3d018603	0.031621944
60	0xbcd6f8af	-0.026241628
61	0x3c2a4dab	0.010394494
62	0xbc042a9f	-0.008066802
63	0x3cd8808a	0.02642848
64	0xbb6ba30b	-0.0035955335
65	0xbc2b0735	-0.01043873
66	0x3ccfed33	0.02538166
67	0xbc9c227f	-0.019059418
68	0x3c047fff	0.008087157
69	0x3d07d071	0.03315777
70	0xbca8558a	-0.0205486
71	0x3cc1a6e2	0.023639146
72	0xbcde4138	-0.027130708
73	0x3d0047ee	0.031318597
74	0xbbe9e1d1	-0.007137515
75	0xbc8aba22	-0.016934458
76	0xbc6a5ec0	-0.014304817
77	0xbc1f30e1	-0.0097162435
78	0x3b78f53f	0.0037987975
79	0x3c1fd48a	0.009755263
80	0x3c411ed1	0.011787132
81	0x3bbcce5a	0.0057619037
82	0xba8e2063	-0.0010843392
83	0x3c77ad1c	0.015116956
84	0xbc0b5e4d	-0.00850637
85	0x3c484055	0.012222369
86	0xbbc32ef9	-0.0059565273
87	0xbbfb9908	-0.007678155
88	0x3b5d2fc6	0.00337504
89	0xbc763c26	-0.015028989
90	0x3c1607d1	0.009157137
91	0xbc2c1925	-0.010504042
92	0x3ccb6f39	0.024833309
93	0xbc19a67e	-0.009378074
94	0xbcde3c20	-0.02712828
95	0x3b2ae223	0.002607473
96	0x3c0d7491	0.008633749
97	0x3b0b3df6	0.0021246648
98	0xbcbe3215	-0.02321724
99	0xbcff2b1c	-0.031148486
100	0x3c1020f5	0.00879692
101	0xba981fdc	-0.0011606175
102	0xbb60545e	-0.0034229974
103	0x3c95596f	0.018231122
104	0x3c4bebeb	0.012446384
105	0xbc70fb66	-0.014708376
106	0x387cbb9d	6.025621e-05
107	0x3c47eb75	0.012202133
108	0xbba6a2c0	-0.0050853193
109	0xbc05dc04	-0.008170132
110	0x3caa1949	0.02076401
111	0xbc3b0592	-0.011414902
112	0x3c65b8c4	0.014021102
113	0xbb628526	-0.0034564226
114	0xbc7f2b29	-0.015574255
115	0xbc4da5d2	-0.012551742
116	0xbc1047af	-0.008806153
117	0x3bb763df	0.0055966224
118	0xbc4029ff	-0.011728763
119	0x3c9042ca	0.017609973
120	0x3ca381f5	0.01995943
121	0x3c02d814	0.007986087
122	0x39fbf293	0.00048055183
123	0x3c7a8358	0.015290104
124	0x3b887fac	0.0041656103
125	0xbc98e716	-0.018664878
126	0x3ca970b6	0.020683628
127	0x3c1495d5	0.009068926
