critic1.pth (torch_old, 187386 bytes, 5 tensors)

fcs1.weight f4 [256, 52]
0	0xbe894dfe	-0.26817316
1	0x3f2d05bc	0.67586875
2	0x3c347cf0	0.011016116
3	0xbd678429	-0.056522522
4	0xbb0f5ab7	-0.0021874139
5	0x3f4967e5	0.78674155
6	0xbbffae50	-0.007802762
7	0x3cef6b47	0.029225959
8	0xbecf1a15	-0.40449587
9	0x3f3f7b1c	0.74797225
10	0xbd2b3115	-0.041794855
11	0x3d07683c	0.03305839
12	0x3dcfd264	0.10147551
13	0xbeb4e35a	-0.35329705
14	0x3d0227ab	0.03177611
15	0x3d86edd6	0.06588332
16	0xbf2c3a35	-0.67276317
17	0x3f947fc6	1.1601493
18	0xbc96b7cd	-0.01839819
19	0x3e3f184a	0.1866161
20	0x3efeecaa	0.49789935
21	0xbfd8b731	-1.6930906
22	0xbd4a974e	-0.0494607
23	0x3e8756ec	0.26433504
24	0xbdfce382	-0.12348081
25	0x3d58fea0	0.052977204
26	0x3c664d37	0.014056495
27	0x3d5f6885	0.054543037
28	0x3da8af53	0.082365654
29	0x3f50efa7	0.8161568
30	0xbc6c825a	-0.014435375
31	0xbc3fe9d9	-0.0117134685
32	0xbd215fdc	-0.03939806
33	0x3e12542f	0.14289926
34	0x3cc9ccac	0.024633728
35	0xbce1e0cb	-0.02757301
36	0x3c9407d8	0.018070146
37	0xbebb11b8	-0.36536956
38	0xbce417ed	-0.02784344
39	0x3c385046	0.011249607
40	0x3e269238	0.16266716
41	0x3e4c347e	0.19941899
42	0xbc38f431	-0.0112886885
43	0x3df1b0fa	0.11801334
44	0xbefcb5c8	-0.49357438
45	0xbfd3e3a6	-1.6553848
46	0x39eae697	0.0004480376
47	0x3b708d80	0.0036705434
48	0xbfaa96fe	-1.3327329
49	0xbe3ecc4d	-0.18632622
50	0x3d5182c4	0.0511501
51	0xbbe9723e	-0.0071242144
52	0xbed25d04	-0.4108659
53	0x3f108d48	0.5646558
54	0x3d971813	0.07377639
55	0x3e8de487	0.27713415
56	0x3d88348d	0.06650648
57	0xbf00e339	-0.50346714
58	0x3d05a0aa	0.032623924
59	0x3e6fcb43	0.23417382
60	0xbe8d3923	-0.27582654
61	0x3f473c19	0.77826077
62	0xbd868305	-0.06567959
63	0xbca71fcb	-0.020400902
64	0x3e005a11	0.12534358
65	0xbf982239	-1.1885444
66	0x3ceeddf1	0.029158564
67	0xbd93aaf3	-0.0721034
68	0xbd142d94	-0.03617628
69	0x3f81ad96	1.0131099
70	0xbd327ac0	-0.043574095
71	0x3ed72ad3	0.4202486
72	0x3ee29046	0.44250697
73	0xbf981897	-1.1882504
74	0x3d355ccf	0.044277962
75	0x3f049dce	0.5180329
76	0x3d3b5640	0.04573655
77	0xbe5e64f9	-0.21718206
78	0xbda88149	-0.08227784
79	0xbdba5ace	-0.09099351
80	0x3cccf4c9	0.025019066
81	0xbee4218e	-0.4455685
82	0x3d2652a1	0.040606145
83	0xbd511536	-0.05104562
84	0x3f87ea9c	1.0618472
85	0xbcfe8b80	-0.031072378
86	0xbb65801e	-0.003501899
87	0x3e2208a1	0.15823604
88	0xbe3c43f2	-0.18385294
89	0xbf9d296f	-1.227827
90	0xbc2d3de7	-0.010573841
91	0x3e64fde1	0.22362472
92	0x3fea7401	1.8316652
93	0x3e063123	0.13104682
94	0x3dcae849	0.09907586
95	0x3eedc00b	0.4643558
96	0xbee18fd2	-0.4405504
97	0xbfa62874	-1.2981095
98	0x3e0e28e9	0.13882793
99	0x3ef4aa35	0.47786108
100	0x3f711dff	0.94186395
101	0xbe7add3f	-0.24498461
102	0x3ea5f9b4	0.3241707
103	0x3df8de7f	0.12151813
104	0xbde624d5	-0.11237494
105	0x3eb0cd8c	0.3453182
106	0x3d08c18f	0.033387717
107	0xbca23762	-0.0198018
108	0x3f00abf4	0.5026238
109	0xbf0c3844	-0.54773355
110	0xbd3aceab	-0.04560725
111	0xbc4138bc	-0.011793312
112	0x3e5439a7	0.20725118
113	0x3eb1c33b	0.34719262
114	0xbd7cd014	-0.061721876
115	0xbe848194	-0.2588011
116	0x3d8b2530	0.06794202
117	0xbf5a7465	-0.85333854
118	0xbd428e1c	-0.047498807
119	0xbe70e0b3	-0.23523216
120	0x3f07f329	0.5310541
121	0x3e84b91c	0.25922477
122	0xbd32ef57	-0.043685284
123	0xbe828913	-0.25495204
124	0xbe8e8560	-0.27836132
125	0xbfe95f2a	-1.8232167
126	0x3c1e6196	0.009666821
127	0xbe3f82a3	-0.18702178
128	0xbea4195f	-0.32050607
129	0x3edd37a7	0.43206522
130	0xbcbbcee0	-0.022925794
131	0x3f06d9ed	0.5267628
132	0xbedfc1e5	-0.43702617
133	0xbee42b30	-0.445642
134	0xbc63d4d3	-0.013905722
135	0x3f0f9776	0.56090486
136	0x3e3c60bc	0.18396276
137	0x3f284215	0.65725833
138	0x3cb2e95e	0.021839794
139	0x3f0801bc	0.53127646
140	0xbde9c206	-0.1141396
141	0xbf56ad0b	-0.8385779
142	0x3dba5794	0.090987355
143	0x3ee7495d	0.4517316
144	0x3e567282	0.20942119
145	0x3f5a92db	0.85380334
146	0x3b82c0a1	0.0039902483
147	0x3ea22658	0.3166988
148	0x3e8836e5	0.2660438
149	0xbfe7f8f8	-1.8122854
150	0x3c1ec57a	0.009690637
151	0x3e90e88e	0.28302425
152	0x3f716110	0.9428873
153	0x3ea8139d	0.32827464
154	0xbedd84c2	-0.4326535
155	0xbf45de90	-0.7729273
156	0xbeaed0fc	-0.34143817
157	0xbe96fcd6	-0.29489774
158	0x3d56ba49	0.05242375
159	0x3e41fc47	0.18943892
160	0xbe6b3445	-0.22969158
161	0xbdf1cdf9	-0.11806864
162	0x3c4c9ef5	0.01248907
163	0x3e792272	0.24329546
164	0x3de0a082	0.109681144
165	0x3d1b8fe3	0.037979018
166	0xbc8b4c8d	-0.017004276
167	0x3e8d6ae6	0.2762062
168	0x3dcce2da	0.10004206
169	0xbdae530d	-0.085119344
170	0xbd0fa344	-0.03506781
171	0x3e9b5a45	0.30342308
172	0x3f53d330	0.8274412
173	0x3eb71159	0.35755423
174	0xbd8f4c63	-0.069969915
175	0x3f0b01d1	0.54299647
176	0x3f370953	0.714986
177	0xbebbc438	-0.3667314
178	0xbc963a9d	-0.018338496
179	0x3f1775e3	0.59164256
180	0x3eb15778	0.34637046
181	0xbe8737a8	-0.2640965
182	0x3d452310	0.04812914
183	0x3e154d67	0.14580308
184	0x3e6cb585	0.23116119
185	0xbdace242	-0.08441593
186	0xbd04586d	-0.032310892
187	0x3e4452cc	0.1917221
188	0x3f3a0a85	0.726723
189	0x3de67af6	0.11253922
190	0xbb92fb57	-0.0044855285
191	0x3e429ef7	0.19005953
192	0xbd02cdee	-0.03193467
193	0xbe132587	-0.14369784
194	0x3a926ea1	0.0011171886
195	0x3e711a08	0.23545086
196	0x3f9ccc24	1.2249799
197	0x3e1e7058	0.15472543
198	0xbcab8dcb	-0.020941636
199	0xbe27c3e2	-0.16383317
200	0xbf30a885	-0.6900714
201	0xbea60cf0	-0.32431746
202	0x3cb31729	0.02186163
203	0xbe58a789	-0.2115766
204	0xbf817e63	-1.0116695
205	0x3bd590bc	0.006517498
206	0x3e11f363	0.14253001
207	0xbea104b5	-0.31448904
208	0xbe0c6039	-0.13708581
209	0xbe2ba593	-0.1676238
210	0x3d0885d0	0.03333074
211	0x3eab51b0	0.3346076
212	0x3eca10f2	0.39466053
213	0xbeefd64c	-0.46843183
214	0xbb8f5b61	-0.004374907
215	0x3e9303ce	0.2871384
216	0xbd305ea5	-0.04305901
217	0xbe8a9c15	-0.27072206
218	0xbce02b79	-0.02736448
219	0x3e0eefa1	0.13958599
220	0x3e1675b8	0.14693344
221	0xbe4dd6a2	-0.20101407
222	0x3d7cf772	0.06175942
223	0x3d41e411	0.04733664
224	0x3e7ae431	0.2450111
225	0xbe9eef0d	-0.31041756
226	0xbc6a57a9	-0.014303126
227	0x3da68366	0.08130531
228	0x3e287870	0.16452193
229	0xbf93ba8d	-1.1541306
230	0xbdbe9b20	-0.093069315
231	0x3d98c317	0.074590854
232	0x3e81f11c	0.25379264
233	0xbe1c6236	-0.1527184
234	0xbd821914	-0.063524395
235	0x3d683c47	0.05669811
236	0xbe9cecc5	-0.3064939
237	0xbf04ab4e	-0.5182389
238	0xbd9d2c48	-0.076744616
239	0x3d584e47	0.052809026
240	0x3e7f32a2	0.24921659
241	0xbeb06039	-0.34448412
242	0xbd8420b6	-0.064515516
243	0x3ce3e35c	0.027818374
244	0xbe51c87c	-0.20486635
245	0xbe4b7fe5	-0.19873007
246	0xbdf6afdb	-0.120452605
247	0x3d13c1a0	0.036073327
248	0x3ea89e99	0.329335
249	0xbeca9d2b	-0.39573035
250	0x3c8c4f68	0.017127708
251	0x3e19a89e	0.15005729
252	0xbe42fe25	-0.19042261
253	0xbf89a7e7	-1.0754365
254	0x3dbca6f6	0.09211533
255	0x3e2c8527	0.16847669

fcs1.bias f4 [256]
0	0xbe0005e2	-0.12502244
1	0xbef27db0	-0.47361517
2	0xbf007c02	-0.5018922
3	0xbed32a17	-0.4124305
4	0xbf4c8501	-0.7989045
5	0xbe77df7f	-0.2420635
6	0xbbcbcfd0	-0.0062198415
7	0xbefd7441	-0.49502757
8	0xc0028012	-2.0390668
9	0xbf1c8a50	-0.6114855
10	0xbf39752d	-0.7244442
11	0x3f1e132f	0.6174802
12	0xbf575208	-0.84109545
13	0x3eaf6803	0.34259042
14	0xbf0f44f3	-0.55964583
15	0xbf0bf9d1	-0.54678065
16	0xbde1a03a	-0.11016889
17	0x3ec7af3f	0.3900089
18	0xbfc098b0	-1.5046597
19	0xbefa2f62	-0.48864275
20	0x3cd467ea	0.025928456
21	0xbf0d3781	-0.5516282
22	0x3e43c156	0.1911672
23	0xbf30185e	-0.6878718
24	0xbf23b72b	-0.6395137
25	0xbf03c89a	-0.5147797
26	0x3fa1b96d	1.2634712
27	0x3f18428e	0.59476554
28	0xbe642423	-0.2227941
29	0xbfdd5447	-1.7291344
30	0xbf9f7a15	-1.2459131
31	0xbf59a7b1	-0.850215
32	0xbf477df6	-0.77926576
33	0x3f542c49	0.82880074
34	0xbf5f8b81	-0.8732224
35	0xbf80315f	-1.0015067
36	0xbf05ce46	-0.52267873
37	0xbece0daf	-0.40244815
38	0xbf6c8762	-0.9239408
39	0xbf2e5e38	-0.68112516
40	0xbeae1da2	-0.34006983
41	0xbfa93488	-1.3219156
42	0xbf8661c6	-1.0498588
43	0xbf85eddc	-1.0463214
44	0xbf82a7c6	-1.020745
45	0xbe4c93a9	-0.19978203
46	0xbf0deb8d	-0.55437547
47	0xbf2ea81e	-0.68225276
48	0xbf5b82d1	-0.85746485
49	0xbdabd711	-0.0839063
50	0xbecd2be3	-0.40072545
51	0xbd008706	-0.03137877
52	0xbf42808a	-0.75977385
53	0xbcff24d4	-0.03114549
54	0xbeb6103e	-0.35559267
55	0x3be84306	0.007088068
56	0xbee52b09	-0.44759396
57	0x3d963ce8	0.07335836
58	0xbf89c834	-1.0764222
59	0xbf457c46	-0.7714275
60	0x3ebb5881	0.3659096
61	0xbe318a85	-0.17337997
62	0x3d3781e8	0.044801623
63	0xbe92eb58	-0.28695178
64	0xbf6280ba	-0.8847767
65	0xbf75abae	-0.9596509
66	0xbec7f240	-0.3905201
67	0xbec0cf01	-0.3765793
68	0xbea096de	-0.31365103
69	0x3f05b488	0.52228594
70	0xbf9f51eb	-1.2446874
71	0xbf8b9c0a	-1.0906994
72	0xbf9618bc	-1.1726298
73	0xbe7dcd36	-0.24785313
74	0xbe8033ba	-0.25039464
75	0xbf8d386f	-1.1032847
76	0xbeddd9c3	-0.43330202
77	0xbf4090a7	-0.7522072
78	0xbf4f6d6f	-0.8102636
79	0xbe5ab1de	-0.21356913
80	0xbfc2e95e	-1.5227468
81	0xbf4ad084	-0.7922442
82	0xbebafaad	-0.36519375
83	0xbf3d2ec1	-0.73899466
84	0xbfd60fbb	-1.672355
85	0xbee75afd	-0.45186606
86	0xbeb4cf67	-0.35314485
87	0xbf92df54	-1.1474404
88	0xbf67d8d2	-0.90565217
89	0xbf6a53e2	-0.91534245
90	0xc01b940f	-2.4309118
91	0x3dc53d73	0.09630861
92	0xbf7cf669	-0.9881349
93	0xbf8bf9df	-1.093563
94	0xbd3f4d7b	-0.04670475
95	0xbe6ad710	-0.22933602
96	0xbe461806	-0.19345102
97	0xbf0234de	-0.5086192
98	0xbeff528d	-0.4986767
99	0xc014f1f2	-2.3272672
100	0xbf4f91e8	-0.8108201
101	0xbeb901d7	-0.36134216
102	0xbe439cf1	-0.19102837
103	0xbf6aeb52	-0.9176532
104	0xbe2f739f	-0.1713395
105	0xbf7a419a	-0.9775635
106	0xbe284832	-0.1643379
107	0xbe15169d	-0.14559408
108	0xbf435a9e	-0.76310146
109	0xbf598b9c	-0.8497865
110	0xbf2e417e	-0.68068683
111	0xbfb62044	-1.4228597
112	0xbfa78861	-1.3088495
113	0xbed2e11f	-0.4118738
114	0xbf34c689	-0.7061544
115	0xbf263928	-0.64930964
116	0xbe87096d	-0.2637438
117	0xbdcfb588	-0.10142046
118	0xbf7c2fc8	-0.9851041
119	0xbf0a95c6	-0.54134786
120	0xbf36a92a	-0.71351874
121	0xbebae039	-0.36499193
122	0x3ebe95bc	0.37223613
123	0xbee37dc4	-0.4443189
124	0xbf1be58c	-0.60897136
125	0xbfcab67f	-1.5836943
126	0xbf3d3c58	-0.739202
127	0xbf5aaf30	-0.85423565
128	0xbf959911	-1.1687337
129	0x3e512634	0.2042473
130	0xbf0e7187	-0.5564198
131	0xbee79ac1	-0.45235255
132	0xbfa26719	-1.2687713
133	0xbf1ebde0	-0.62008476
134	0xbee315dd	-0.44352618
135	0xbf0a7f90	-0.54100895
136	0xbee92f68	-0.4554398
137	0x3fc67180	1.5503387
138	0xbf380a8c	-0.71891093
139	0xbf04726d	-0.517371
140	0xbf77f9ad	-0.9686535
141	0xbe5f011c	-0.21777767
142	0x3f018fdb	0.5061013
143	0xbe9bf19b	-0.30457768
144	0xbf42e7da	-0.7613503
145	0xbf0fae2b	-0.56125134
146	0x3f0ffd14	0.5624554
147	0xbf019e8c	-0.5063255
148	0xbf022087	-0.5083088
149	0x3e3193c7	0.17341529
150	0xbf151c05	-0.5824588
151	0x3f05499f	0.5206546
152	0xbf67ce81	-0.90549475
153	0xbc4bfb4b	-0.01245005
154	0xbf87d73c	-1.0612559
155	0xbef59662	-0.47966295
156	0xbe9c5beb	-0.30538878
157	0xbf169ae6	-0.58830106
158	0xbf6fab5e	-0.9362086
159	0x3c0f7a8b	0.008757244
160	0xbf4865e4	-0.7828047
161	0xbf35a486	-0.7095417
162	0xbf8e2474	-1.1104875
163	0xbf612f7b	-0.87963074
164	0xbf523b4b	-0.82121724
165	0x3f122d02	0.57099926
166	0xbe223923	-0.15842108
167	0xbf615513	-0.8802044
168	0xbeeb7c06	-0.4599306
169	0xbf0a0106	-0.5390781
170	0xbed1d1ea	-0.40980464
171	0xbefe92c5	-0.4972135
172	0x3ee4a528	0.44657254
173	0xbf867db8	-1.0507116
174	0xbe4d88dd	-0.2007174
175	0xbeaf5879	-0.34247187
176	0xbeab5197	-0.33460686
177	0xbf878eb3	-1.0590423
178	0xbd45b4c1	-0.048268083
179	0xbe934e11	-0.28770497
180	0xbf584b1b	-0.844896
181	0xbf93eb28	-1.1556139
182	0xbf5c6e21	-0.86105543
183	0x3e29aa54	0.16568881
184	0x3dc89094	0.09793201
185	0xbf85b80b	-1.044679
186	0xbed6caef	-0.419517
187	0xbf38880f	-0.7208261
188	0x3e5a19a1	0.21298839
189	0xbff574c1	-1.9176255
190	0xbf0ca14a	-0.5493361
191	0xbf126c5e	-0.57196605
192	0x3f9fc037	1.2480534
193	0xbe9950c5	-0.29944435
194	0xbf3c226a	-0.7349001
195	0x3de59bde	0.1121137
196	0xbf8362c6	-1.0264518
197	0xbf54977e	-0.8304366
198	0x3e8f0952	0.27936798
199	0xbf9a5240	-1.2056351
200	0xbf39ed94	-0.7262814
201	0xbfa3f3e5	-1.2808806
202	0xbf89b0dd	-1.0757099
203	0xbf4f7f12	-0.8105327
204	0xbf4ee644	-0.8082011
205	0x3e995db4	0.29954302
206	0xbf7e2898	-0.9928069
207	0xbf22626a	-0.6343142
208	0x3e817f26	0.2529232
209	0xbefd4e4f	-0.49473807
210	0xbe53b659	-0.20675029
211	0xbf643097	-0.8913664
212	0xbf6b9d72	-0.9203712
213	0xbf3e2617	-0.7427687
214	0xbd26ceb3	-0.040724467
215	0xbf8b553c	-1.0885386
216	0xbeea3a45	-0.4574758
217	0xbe996191	-0.2995725
218	0xbf8e4d88	-1.1117411
219	0xbcce7f39	-0.025207149
220	0x3e4c63a4	0.19959885
221	0xbf21c32e	-0.63188446
222	0xbf189895	-0.5960782
223	0xbf34462b	-0.7041957
224	0xbf6cd7e4	-0.9251692
225	0xbf52f090	-0.8239832
226	0xbef9f23e	-0.4881763
227	0xbe8561f2	-0.2605129
228	0xbf2b7244	-0.6697123
229	0xbc129731	-0.00894718
230	0x3e7e5666	0.24837646
231	0xbee3d661	-0.44499496
232	0xbe48a044	-0.19592386
233	0xbf7221a5	-0.9458259
234	0xbf75edfc	-0.9606626
235	0xbe5e88d8	-0.21731889
236	0xbd9ac05d	-0.07556222
237	0xbf49a1df	-0.7876262
238	0xbf0dabf4	-0.55340505
239	0xbfe87f9b	-1.8163942
240	0x3e564dae	0.2092807
241	0xbe8b865e	-0.27250952
242	0xbf3e9824	-0.744509
243	0xbf579bd8	-0.84222174
244	0xbef2855e	-0.47367376
245	0xbf9873b4	-1.191031
246	0xbf18bafa	-0.59660304
247	0xbf2be614	-0.67147946
248	0xbe6f5d19	-0.23375358
249	0xbf8b0d32	-1.0863402
250	0xbff20602	-1.8908083
251	0xbefc5700	-0.49285126
252	0xbddfcb00	-0.10927391
253	0xbdf11fff	-0.11773681
254	0xbf873204	-1.0562139
255	0xbf5cf4f3	-0.8631126

fc2.weight f4 [128, 256]
0	0xbd5c9661	-0.05385435
1	0x3c34483f	0.011003553
2	0xbd8e5eda	-0.06951685
3	0xbd7f3988	-0.062310725
4	0xbd854cbb	-0.06508776
5	0x3d3cd35a	0.046099998
6	0xbcdb91c1	-0.0268029
7	0x3d19c3ed	0.037540365
8	0xbdafe0d2	-0.08587803
9	0xbd9ba3bc	-0.07599589
10	0x3c297de9	0.010344961
11	0xbe111a76	-0.1417025
12	0xbd00736f	-0.031360086
13	0x3cc1c3bc	0.023652904
14	0xbcdfdd16	-0.027327102
15	0x3d4d925a	0.0501884
16	0xbe0ba1bf	-0.1363592
17	0x3be48e41	0.006974966
18	0xbd01133d	-0.031512488
19	0xbd065ac0	-0.03280139
20	0xbd955b16	-0.07292764
21	0xbdda442b	-0.10657533
22	0x3b877b49	0.00413457
23	0x3cd0a7ed	0.025470698
24	0x3d32b110	0.04362589
25	0xbdda8d0b	-0.10671433
26	0xbb96b98a	-0.0045997547
27	0xbe021f02	-0.12707141
28	0x3c918854	0.017765202
29	0xbc88c0d9	-0.01669352
30	0xbd86b135	-0.06576768
31	0x3bff3903	0.0077887787
32	0xbd5da2f1	-0.05411047
33	0xbdd82512	-0.105539456
34	0xbdb4161c	-0.087932795
35	0xbdb40333	-0.08789673
36	0x3cc5439d	0.024080092
37	0xbd0d19f1	-0.034448568
38	0x3bd071b8	0.0063612126
39	0x3c393250	0.011303499
40	0xbbf2b365	-0.0074066394
41	0xbda48fc0	-0.08035231
42	0xbc06cc96	-0.008227488
43	0xbd275f07	-0.04086211
44	0xbda56fe0	-0.08077979
45	0x3d1f839e	0.03894388
46	0x3c48d791	0.012258426
47	0x3c9a1a2d	0.01881131
48	0xbbb5b646	-0.0055454103
49	0xbc8304ac	-0.015993439
50	0xbda49771	-0.08036698
51	0xbc60b763	-0.013715598
52	0x3cd5ada7	0.02608378
53	0xbd9f928c	-0.077916235
54	0xbdfce59c	-0.12348482
55	0xbd6c5d38	-0.057706088
56	0xbbcd574b	-0.0062665096
57	0x3d2d9972	0.042382665
58	0xbdf005e3	-0.11719873
59	0x3c808b6c	0.015691482
60	0xbda5586d	-0.080735065
61	0x3c3a1647	0.01135785
62	0xbdf1aa22	-0.118000284
63	0xbde6a7d6	-0.11262481
64	0xbd131f16	-0.035918318
65	0xbcd434c3	-0.025904065
66	0xbdf37576	-0.11887638
67	0xbd4bf060	-0.049789786
68	0xbc793f6b	-0.015212874
69	0xbd6876d0	-0.056753933
70	0xbd9a7c1e	-0.07543205
71	0xbbc67bd7	-0.0060572433
72	0xbd06a504	-0.032872215
73	0x3d0663d1	0.032810036
74	0xbdaf6ca1	-0.08565641
75	0xbdc74216	-0.09729402
76	0xbdb63ad3	-0.088979386
77	0xbd8905d0	-0.06690562
78	0x3a9f65da	0.0012161091
79	0x3d7e32ad	0.062060047
80	0xbd9677a5	-0.07347039
81	0xbdc4f36f	-0.09616744
82	0xbdad694d	-0.0846735
83	0xbdeaf94d	-0.114733316
84	0xbe1c8d93	-0.15288381
85	0xbdd5a638	-0.10432094
86	0xbdf6b406	-0.120460555
87	0x3d3221fa	0.043489434
88	0x3ccadc1a	0.024763156
89	0xbd484b37	-0.048899855
90	0xbd5c911f	-0.053849336
91	0x3d0da440	0.03458047
92	0xbcee2781	-0.029071571
93	0x3c194ce7	0.009356714
94	0x3c9dee35	0.019278625
95	0xbe0da1d4	-0.13831264
96	0xbd95b1b5	-0.073092856
97	0xba0c63fe	-0.0005355476
98	0xbda156fa	-0.078779176
99	0xbdc95852	-0.09831299
100	0x3d85c6ff	0.06532096
101	0xbdbe10a1	-0.092805155
102	0x3d6db1fc	0.058031067
103	0xbd043053	-0.032272648
104	0xbd3c77ea	-0.046012796
105	0xbd434921	-0.047677163
106	0x3d7d34c1	0.06181789
107	0x3d1f5d1b	0.03890715
108	0xbc9534d8	-0.018213674
109	0xbc564bb1	-0.01307957
110	0xbc55e42f	-0.0130548915
111	0x3d5c1134	0.053727344
112	0xbdcee81c	-0.10102865
113	0xbd980bc5	-0.0742412
114	0xbda2bd85	-0.07946304
115	0xbdc17fd9	-0.09448213
116	0xbd4cc14d	-0.049989033
117	0x3ceb1340	0.028695703
118	0xbd0b4dba	-0.034009673
119	0xbd137f1a	-0.036009885
120	0xbd5dc507	-0.054142978
121	0x3d072fc4	0.033004537
122	0xbd6cf5b5	-0.057851512
123	0xbdb44284	-0.08801749
124	0xbd6532d5	-0.05595668
125	0xbccb12d2	-0.024789248
126	0xbdbe4f21	-0.092924364
127	0xbb269a68	-0.0025421623
128	0xbe009850	-0.12558103
129	0x3c6c3205	0.014416222
130	0xbd217def	-0.03942674
131	0xbd46d6eb	-0.048544805
132	0xbdb3a4d4	-0.08771673
133	0xbba9f8fa	-0.005187151
134	0xbca728a8	-0.020405129
135	0xbdc85ff2	-0.09783925
136	0xbe0b8757	-0.13625847
137	0xbd9159b4	-0.07097188
138	0xbccf907e	-0.025337454
139	0xbd488e09	-0.04896358
140	0x3b554114	0.003254001
141	0xbc1cf3f3	-0.009579646
142	0xbe3c74a3	-0.18403868
143	0x3c190b7d	0.009341118
144	0x3b457cd9	0.003013423
145	0xbd313e8a	-0.043272533
146	0xbd38dc30	-0.045131862
147	0xbd041e24	-0.032255307
148	0xbcf57dc7	-0.029967202
149	0xbcf0fc7d	-0.02941727
150	0x3c1c74d3	0.009549337
151	0xbd779ffb	-0.060455304
152	0xbdbe3cc6	-0.09288935
153	0xbe0e9d7c	-0.13927263
154	0xbca19ce0	-0.019728124
155	0x3b03bed5	0.0020102758
156	0xbda39ab7	-0.07988494
157	0x3ca51f7b	0.020156613
158	0xbd5167da	-0.05112443
159	0xbd675cd8	-0.056485027
160	0xbe8216eb	-0.2540811
161	0x3cd53657	0.026026888
162	0x3d1a1d7d	0.03762578
163	0x3d13d5f6	0.03609272
164	0x3d36bf69	0.044616137
165	0xbe238b41	-0.1597109
166	0xbc71599f	-0.01473084
167	0x3d3b7b70	0.045772016
168	0xbdac5101	-0.08413888
169	0xbc2b92fa	-0.010472054
170	0x3d8c39c2	0.06846954
171	0xbd2a6122	-0.04159654
172	0xbe00c07c	-0.12573427
173	0xbde40e57	-0.111355476
174	0xbd58938f	-0.052875098
175	0xbcceefc5	-0.025260815
176	0xbd1ce6af	-0.038305935
177	0xbdaa9c55	-0.08330599
178	0xbd4ae1af	-0.049531635
179	0xbdc28873	-0.09498682
180	0xbd91b948	-0.07115418
181	0xbd8680b3	-0.06567516
182	0xbdc436ce	-0.09580766
183	0x3c0419c8	0.008062787
184	0x3b91d692	0.0044506276
185	0x3cf0ed35	0.029409984
186	0xbe0d8d45	-0.13823421
187	0xbc16827c	-0.009186383
188	0xbde23a2a	-0.1104625
189	0x3c5efca8	0.013610043
190	0x3d192985	0.03739311
191	0xbdb169c8	-0.08662754
192	0xbd525f5c	-0.051360473
193	0xbd4ed117	-0.050492372
194	0xbd72bdae	-0.059262924
195	0x3d009d8c	0.03140025
196	0xbd7740aa	-0.060364403
197	0xbd20a9e0	-0.039224505
198	0xbd93b31f	-0.07211899
199	0xbd9bee07	-0.076137595
200	0xbd8e4237	-0.06946223
201	0x3d0f5452	0.034992523
202	0xbcc85c6d	-0.024458135
203	0xbe060933	-0.13089447
204	0x3cde1a76	0.027112227
205	0xbd93363e	-0.0718808
206	0xbd984db7	-0.07436698
207	0xbadd2ec1	-0.0016874896
208	0x3d55a577	0.052159753
209	0xbd8e0098	-0.06933707
210	0x3cad03e4	0.02112002
211	0xbd01bda6	-0.031675003
212	0x3cc844fd	0.024446959
213	0xbd0e678f	-0.03476673
214	0xbd3614a2	-0.04445327
215	0x3dbaa5e3	0.09113672
216	0xbdcf7f9f	-0.10131764
217	0x3cc02bc1	0.023458363
218	0xbd60847d	-0.05481385
219	0xbca366f0	-0.019946545
220	0xbd7a8f07	-0.061171558
221	0xbd41a52f	-0.047276672
222	0xbdd182f4	-0.102300555
223	0x3cc8afec	0.024497949
224	0xbd511598	-0.051045984
225	0xbddca968	-0.10774499
226	0xbd1e6892	-0.038673945
227	0x3cfdfb21	0.031003537
228	0xbdae3b4b	-0.08507403
229	0x3db22b4f	0.08699667
230	0xbdb364ce	-0.08759461
231	0x3d436d79	0.047711823
232	0x3d143f97	0.036193457
233	0xbd81cd02	-0.0633793
234	0xbd65886f	-0.056038316
235	0xbe0fac24	-0.1403051
236	0x3c9c204e	0.019058373
237	0xbdb180b3	-0.086671256
238	0x3d21d618	0.039510816
239	0x3cb663d9	0.022264408
240	0xbddcd575	-0.10782901
241	0xbd1ce842	-0.038307436
242	0x3d216950	0.039407074
243	0xbe102fc0	-0.14080715
244	0x3d450a80	0.048105717
245	0x3cdc107d	0.026863331
246	0xbd5c5dd8	-0.053800434
247	0xbd68dcc7	-0.056851175
248	0xbdca87bb	-0.0988917
249	0xbd0d3365	-0.03447284
250	0xbd9e74aa	-0.07737096
251	0xbcbd23a5	-0.023088286
252	0xbd9dc22c	-0.07703051
253	0xbd40843f	-0.04700112
254	0xbdafb6c4	-0.08579782
255	0x3ca85625	0.02054889

fc2.bias f4 [128]
0	0xbdca35d4	-0.09873548
1	0xbdb81bcb	-0.08989676
2	0xbe1da709	-0.1539575
3	0xbe3466eb	-0.17617385
4	0xbe17415f	-0.14771031
5	0x3f2925e5	0.6607345
6	0xbe8aba2d	-0.27095166
7	0xbe157132	-0.14593962
8	0xbe1df567	-0.15425645
9	0xbe337a49	-0.17527117
10	0xbe289ae6	-0.16465339
11	0xbe11e949	-0.14249147
12	0xbdbd2d43	-0.092371486
13	0xbe7ab2b9	-0.2448224
14	0xbdc23bf4	-0.094840914
15	0xbeb930d5	-0.36170068
16	0xbddbeac2	-0.10738136
17	0xbe7a6f12	-0.24456432
18	0xbea0afd4	-0.31384146
19	0xbe37e4f7	-0.17958437
20	0x3e6d53b2	0.23176458
21	0xbe54b7a3	-0.20773177
22	0x3cbb58f7	0.02286957
23	0xbe27a372	-0.16370943
24	0xbe1311a6	-0.14362201
25	0xbe1fa64c	-0.15590781
26	0xbe6e6bd4	-0.2328332
27	0xbe779c96	-0.24180827
28	0xbdee203b	-0.11627241
29	0xbdf58ddb	-0.119899474
30	0xbe605fd4	-0.21911556
31	0xbe48dd0c	-0.19615573
32	0xbe06dd84	-0.13170439
33	0xbe2fa0b6	-0.1715115
34	0xbdd7d2b7	-0.105382375
35	0x3d5471b7	0.05186626
36	0xbe2b478a	-0.16726509
37	0xbe26f30e	-0.16303656
38	0xbe3584af	-0.17726396
39	0xbdabcda0	-0.08388829
40	0xbdcbb8c8	-0.099473536
41	0xbdbcf738	-0.09226841
42	0xbe242f12	-0.16033581
43	0xbe3d6ab3	-0.18497734
44	0xbe74de24	-0.23912865
45	0x3d4b939d	0.049701322
46	0xbda3b7a2	-0.079940096
47	0xbe28c41e	-0.16481063
48	0xbdf30524	-0.11866215
49	0xbe2d5ef2	-0.1693075
50	0xbd80b6d0	-0.06284869
51	0xbe75255e	-0.23940036
52	0xbe1f3458	-0.15547311
53	0xbe265d14	-0.16246444
54	0xbe06756b	-0.13130729
55	0xbe2380ea	-0.15967146
56	0x3fe69990	1.8015614
57	0xbde2eac4	-0.11079934
58	0xbe099fec	-0.13439912
59	0xbe5cf5f2	-0.21578196
60	0xbe4d6780	-0.20059013
61	0xbe35fc0a	-0.17771927
62	0xbe126feb	-0.14300506
63	0xbdeb0e48	-0.11477333
64	0xbe540f2f	-0.20708917
65	0xbe0a53c0	-0.1350851
66	0xbe17dc2f	-0.14830087
67	0xbe1562b7	-0.14588438
68	0x3f569a44	0.8382914
69	0xbdbd7bad	-0.09252105
70	0xbe6e7fec	-0.23290986
71	0xbdddb0c5	-0.10824732
72	0xbe318584	-0.17336088
73	0xbdd1fe1b	-0.10253545
74	0xbe583cdc	-0.21116966
75	0xbe3338d7	-0.17502151
76	0xbecf9bff	-0.40548703
77	0xbe082f84	-0.13299376
78	0xbe2aead6	-0.16691145
79	0xbdb5dd17	-0.0888006
80	0xbe3332b4	-0.1749981
81	0xbe1fb033	-0.15594558
82	0xbe4d0efe	-0.2002525
83	0xbe06bb79	-0.13157453
84	0x3f4b58e6	0.79432523
85	0xbe36bce4	-0.17845494
86	0xbe2aca1a	-0.16678658
87	0xbdc591c0	-0.0964694
88	0xbd846786	-0.06465058
89	0x3e4cb82a	0.19992128
90	0xbe672f24	-0.22576576
91	0xbef4274a	-0.47686225
92	0xbe1fa00c	-0.15588397
93	0xbe3d59ac	-0.18491238
94	0x3dfb3240	0.12265444
95	0xbe4258c1	-0.1897917
96	0x3e8ba688	0.2727549
97	0xbe5ecd09	-0.21757902
98	0xbe208312	-0.15675
99	0xbddb316a	-0.10702784
100	0xbe49e0d0	-0.19714665
101	0xbe26832c	-0.16260976
102	0xbe14b595	-0.14522393
103	0xbe62b70c	-0.2214014
104	0x3f7267d3	0.94689673
105	0xbe1ddb2d	-0.1541564
106	0xbe361039	-0.17779626
107	0xbe1101b6	-0.14160809
108	0xbe282d23	-0.16423468
109	0xbe2ccf1a	-0.16875878
110	0xbe33a512	-0.17543438
111	0xbd986dfe	-0.07442854
112	0xbe99b603	-0.30021676
113	0xbe22e6a9	-0.15908302
114	0xbdf6a188	-0.120425284
115	0xbe381073	-0.17975025
116	0xbdc347d7	-0.09535187
117	0xbe79d302	-0.243969
118	0xbe2965d0	-0.16542745
119	0x3f030401	0.51177984
120	0xbe185323	-0.14875464
121	0x3ec28ac0	0.37996483
122	0xbe83f54c	-0.25773084
123	0xbe4d568a	-0.20052543
124	0xbe2394df	-0.15974759
125	0xbe14ef92	-0.14544514
126	0xbdfa37fc	-0.122177094
127	0xbe380d3d	-0.179738

fc3.weight f4 [1, 128]
0	0x3c8f6e57	0.017508669
1	0xbc431a77	-0.011908165
2	0xbac2c64b	-0.0014860121
3	0x3b99f929	0.0046988917
4	0xbcb6f3f8	-0.02233313
5	0xbc3ac11d	-0.011398581
6	0xbd0f4a1e	-0.034982793
7	0xbbee57e2	-0.00727366
8	0xbc93e27e	-0.018052336
9	0xbcdf1d65	-0.027235696
10	0x3ccf60f7	0.025314791
11	0xbc6a8f85	-0.014316444
12	0xbc601e4b	-0.013679097
13	0xbce39471	-0.027780743
14	0x3c46b814	0.012128849
15	0x3d349520	0.04408753
16	0xba8003c0	-0.0009766743
17	0xbbd32170	-0.006443195
18	0x3c5181e6	0.012787318
19	0x3ceef0e4	0.0291676
20	0xbc0f72ca	-0.008755395
21	0xbae07aaf	-0.0017126406
22	0x3ccbaeb4	0.024863578
23	0x3b0a729a	0.0021125437
24	0x3b8e3690	0.0043400005
25	0x3cd18c99	0.025579737
26	0xbbb1069f	-0.0054024006
27	0xbb93e0df	-0.0045128907
28	0x3d044ea0	0.032301545
29	0x3c96138a	0.018319864
30	0xbc6902b2	-0.014221834
31	0x3c138e8c	0.009006154
32	0x3b0462e7	0.0020200552
33	0xbc764ebc	-0.01503342
34	0x3bb8f808	0.005644802
35	0xbc48d95f	-0.012258857
36	0x3c89a6ed	0.01680323
37	0xbb58a6cd	-0.0033058405
38	0x3bfa5910	0.0076400116
39	0x3cc73df7	0.02432154
40	0xbc667545	-0.014066045
41	0x3bb26a42	0.005444796
42	0x3a14214d	0.0005650714
43	0x3c8934cf	0.016748814
44	0x3c325e67	0.010886765
45	0xbc600871	-0.013673888
46	0xbb97f4c6	-0.0046373336
47	0xb8f1e85f	-0.00011535058
48	0xbd44248c	-0.047886416
49	0xbc7af81b	-0.015317942
50	0x3cdbff2c	0.026855074
51	0xbc8d1c7d	-0.017225498
52	0xbc12439c	-0.008927252
53	0x3b3b641b	0.0028593603
54	0x3c6aeced	0.014338714
55	0xba594754	-0.0008288522
56	0x3c0048b7	0.007829837
57	0xbccf8de9	-0.025336223
58	0xbb700077	-0.003662137
59	0x3c8eca5e	0.01743048
60	0xbcda3ae0	-0.026639402
61	0x3c389643	0.011266294
62	0xbc021685	-0.007939939
63	0x3cd87eed	0.02642771
64	0xbb6ba3b7	-0.0035955736
65	0xbbe29fa1	-0.006916002
66	0x3ccfea79	0.02538036
67	0xbcc305e9	-0.02380653
68	0x3c0a173d	0.008428392
69	0x3d07541e	0.033039205
70	0xbcaad94a	-0.020855565
71	0x3cf05402	0.029336933
72	0xbcde40f1	-0.027130576
73	0x3d4d59ea	0.050134577
74	0xbbe9dd54	-0.00713698
75	0xbc8abc5a	-0.016935516
76	0xbc66d509	-0.0140888775
77	0xbc1f3ce7	-0.00971911
78	0x3b78f65d	0.003798864
79	0x3c1fd039	0.009754234
80	0x3c411aee	0.011786206
81	0x3bbbb36a	0.005728175
82	0xba8f3f8a	-0.001092897
83	0x3c77a9ff	0.015116214
84	0xbc10bf9e	-0.008834748
85	0x3c484329	0.0122230435
86	0xbbc63908	-0.006049279
87	0xbbfb95b8	-0.00767776
88	0x3b5d2c76	0.0033748425
89	0xbc76613c	-0.015037831
90	0x3c16958f	0.009190931
91	0xbbb3c65c	-0.0054862928
92	0x3ccb8a57	0.024846239
93	0xbc19a9a5	-0.009378825
94	0xbcaa44ab	-0.020784697
95	0x3b3b0df0	0.0028542243
96	0x3c01a0d7	0.007911882
97	0xbb2cf42f	-0.0026390662
98	0xbcbe31c0	-0.023217082
99	0xbcff2cbe	-0.031149264
100	0x3c101ed1	0.00879641
101	0xba981c81	-0.0011605175
102	0xbb68cf9b	-0.0035524133
103	0x3cb06614	0.02153305
104	0x3c397019	0.01131823
105	0xbca654da	-0.020304132
106	0x38610ca1	5.3655942e-05
107	0x3c6c61f7	0.0144276535
108	0xbba69fd1	-0.0050849696
109	0xbc05d9a4	-0.008169565
110	0x3cab54dc	0.020914488
111	0xbc3b06ec	-0.0114152245
112	0x3ae536d7	0.0017487657
113	0xbb635d7c	-0.0034693172
114	0xbca10c29	-0.019659119
115	0xbc4ff421	-0.012692482
116	0xbc105af8	-0.008810751
117	0x3bb764d2	0.0055967355
118	0xbc402cf7	-0.01172947
119	0x3c9b4df5	0.018958071
120	0x3ca37f3c	0.019958131
121	0x3becbe94	0.007224867
122	0x39fc7c57	0.00048157826
123	0x3c7b0126	0.015320098
124	0x3b9a6db2	0.0047127837
125	0xbc98e7c2	-0.018665198
126	0x3ca9749f	0.020685492
127	0x3c142ab6	0.009043386
