critic0.pth (torch_old, 187378 bytes, 5 tensors)

fcs1.weight f4 [256, 52]
000000 f1 21 43 3f d7 5a 4c 3f b5 77 9a bd ee 9b 91 be
       0.76223665 0.7982611 -0.075423636 -0.28439277
000010 d9 9f 46 3c c1 04 95 bf a9 01 c1 bd 6b 69 4b be
       0.012123072 -1.1642076 -0.09424145 -0.19864433
000020 ab 24 51 3f 7a f7 18 3f ef ea 38 be 0f 34 a9 be
       0.81696576 0.5975262 -0.1805837 -0.3304753
000030 b0 d4 29 be f8 55 1a bf 82 29 db bd cd 65 98 be
       -0.1658504 -0.6028743 -0.10701276 -0.29765168
000040 2f ff 83 3f 78 6f 94 3e bc 22 90 3d d1 38 19 bf
       1.0312251 0.28991294 0.07037875 -0.5985232
000050 26 0a 08 bf 13 a7 e6 be 55 0b 21 3d 4f 53 05 bf
       -0.53140485 -0.45049343 0.039317448 -0.52080244
000060 59 e9 14 3f ad 71 27 bf 6c 7d f7 bd 9b ef 47 3c
       0.5816856 -0.6540783 -0.12084469 0.0122031225
000070 77 60 8b 3d 1f 41 91 bf f4 eb 18 be a3 66 5d bd
       0.068055086 -1.1347998 -0.14933759 -0.05405296
000080 d8 03 1a 3f 13 b9 2e bf b9 e5 f4 bd 9f 15 86 3e
       0.60162115 -0.6825115 -0.119578786 0.2618837
000090 16 20 92 3e 3c 6d 1d bf 78 2f 30 be d1 f5 99 3e
       0.28540105 -0.61494803 -0.17205608 0.30070356
0000a0 9d bf f9 3e cc 9e 58 bf db ec d8 bd 08 d6 b0 3e
       0.48779002 -0.84617305 -0.105920516 0.34538293
0000b0 a4 25 09 3f ca 58 d3 be 90 e3 c0 bd 14 96 6c 3e
       0.5357306 -0.41278678 -0.09418404 0.23104125
0000c0 a4 73 74 3f 05 ad 27 3f 6e ce 57 bf 88 33 88 bf
       0.95488954 0.6549838 -0.8429936 -1.0640726
0000d0 2d b2 a9 3f 20 fd 04 3f 2a 56 e5 3c 74 50 fe 3d
       1.32575 0.5194874 0.027995188 0.12417689
0000e0 06 b6 be 3e 11 6e fb be cd 8f 57 bc 2c 55 a6 3d
       0.37248248 -0.49107412 -0.013156843 0.08121714
0000f0 63 a4 75 3f 3b c9 c3 3e fc ac de bd 9a 5e cc be
       0.9595396 0.38239464 -0.10872838 -0.39915925
000100 e3 b6 4a 3e ef 22 d0 be 1e 9a 63 bc 30 d7 e6 be
       0.19796328 -0.40651652 -0.013891725 -0.4508605
000110 0a 0d 8d 3f b4 6d 87 3e fa 05 02 be 93 c8 f0 be
       1.1019604 0.26450884 -0.12697592 -0.47028026
000120 ce ad 05 3e f8 aa 17 bf 90 3f 20 bd 21 b8 be be
       0.13054582 -0.5924525 -0.039123118 -0.37249854
000130 36 e0 9e be 3e 24 9d be b6 25 15 bd 00 90 e1 3e
       -0.31030434 -0.30691713 -0.036412917 0.44055176
000140 70 d9 8f be f4 c8 dd be ee 16 b1 3d 59 04 f6 3e
       -0.2809558 -0.43317378 0.086469516 0.48050192
000150 47 3f 84 3e 69 a5 ac be 71 f1 fe 3c 8e d4 48 be
       0.25829527 -0.33719948 0.031120988 -0.19612333
000160 da 50 83 be b9 40 e4 be f5 03 c5 3c 8c de 05 be
       -0.25647622 -0.4458063 0.024049738 -0.13073176
000170 3e ed 1d 3f 47 97 3e be a6 29 e5 3d 66 e7 2e be
       0.6169013 -0.18612395 0.111895844 -0.17080459
000180 b5 ac 03 be 1d cb 33 bf 9f 49 1b 3e bc 12 21 be
       -0.12858851 -0.702318 0.15164803 -0.15729803
000190 66 fa c7 3f 6d d4 5f bf e0 f0 ed bf a4 d2 08 bd
       1.562329 -0.8743351 -1.8589134 -0.033404008
0001a0 64 eb 4f 3f 1e ad d6 3e d2 c3 9c bd 67 61 ef be
       0.8121855 0.41928953 -0.07654537 -0.46754
0001b0 f8 f9 2a be ee 54 03 be 04 46 1f be a6 47 eb be
       -0.16696918 -0.12825367 -0.15554053 -0.459531
0001c0 97 fb 80 3f 6a 08 1e 3f b3 4c ca bd 3c fa df 3d
       1.0076779 0.6173159 -0.098779105 0.109364
0001d0 01 05 e0 bd ce b2 fc bc 5e 2c ad bd 37 20 08 3e
       -0.109384544 -0.03084698 -0.08455728 0.13293539
0001e0 b6 50 a6 3f 9c 63 05 3f 83 f4 ec bd 79 74 35 be
       1.2993381 0.52105117 -0.115700744 -0.17720212
0001f0 20 ce 2c bb f3 a1 38 bf e9 60 7f bd 85 ca df bd
       -0.0026367977 -0.72122115 -0.06234828 -0.109272994
000200 29 17 ef be 51 8a f0 3e 31 c9 c8 bd 1f 2f 0b be
       -0.46697357 0.46980527 -0.09803999 -0.13592194
000210 ef 24 6e 3e d3 49 d6 bc 3f 50 b6 bd ab 72 d0 bd
       0.23256277 -0.026158249 -0.089020245 -0.10178121
000220 b2 de 30 3d 78 92 58 3f 0d 28 09 be a8 5a 02 3f
       0.04318113 0.84598494 -0.13394184 0.5091958
000230 27 67 81 3d ce c5 83 bc 2d b2 84 bd 0b fa db 3e
       0.06318503 -0.016085532 -0.06479297 0.42964205
000240 73 09 3c bc 09 f4 6d 3f 6d 8a ec 3d 47 54 1f 3e
       -0.011476862 0.92950493 0.1154984 0.15559493
000250 85 96 1e bc 9b d5 35 bf d8 36 f8 3d 36 b1 f9 3d
       -0.009679441 -0.7102906 0.121198356 0.121920034
000260 70 ba 28 3f d3 bf 49 3d e6 84 29 40 f5 8a 88 3d
       0.6590948 0.049255203 2.6487365 0.06667129
000270 d6 3d 9e 3d 3d 32 7f 3f c5 86 47 3c 3f 9e 4a be
       0.07726638 0.9968603 0.012178128 -0.19786929
000280 f2 64 a2 3c 4c 13 fb 3e 40 62 e3 bc ce 77 13 be
       0.019823525 0.4903816 -0.02775681 -0.1440117
000290 63 ec c7 3e d3 2e 5c 3f 2b 18 67 bd 36 1d 8f bd
       0.39047536 0.8600895 -0.056419533 -0.069879934
0002a0 20 15 06 be ec 41 34 be 5e 8a 98 bd 18 bf 2e bd
       -0.13093996 -0.17603272 -0.074482664 -0.04266271
0002b0 76 a1 17 3f cd e4 65 3f af a2 18 be 40 df 87 bd
       0.59230745 0.8980225 -0.14905809 -0.066343784
0002c0 0a 26 db bd bb e6 c2 bf 57 87 c7 bd 51 00 91 bc
       -0.10700615 -1.5226663 -0.09742611 -0.017700346
0002d0 13 0f af be 4a 12 75 bf f8 5e b5 3d ff a6 83 be
       -0.34191188 -0.9573103 0.088560045 -0.25713345
0002e0 92 5c 96 bc 41 27 06 3f ee 01 05 3c 95 48 58 be
       -0.018354688 0.52403647 0.008118136 -0.21121438
0002f0 90 30 96 3d 74 cf 8c bf 81 3f 2e bd 58 0f b1 bd
       0.07333481 -1.100081 -0.04254103 -0.08645505
000300 ce d2 4b 3e 1f 3f 70 be 57 4d 17 bd 2c 32 28 bd
       0.19904634 -0.23461579 -0.03693899 -0.041063473
000310 53 e5 44 3f 05 e5 71 bf 69 0b 6d bd d2 cd 34 3d
       0.7691242 -0.9449008 -0.05787221 0.044141598
000320 6d 16 07 3e f8 78 bd bf 79 df 76 bc b5 ec 6b bb
       0.13192149 -1.4802542 -0.0150679285 -0.0035999243
000330 ea 69 2f bf 1a 52 d2 3f 3f 46 74 bf 23 26 26 3f
       -0.6852099 1.6431305 -0.9541969 0.6490194
000340 52 1d fb bd 15 5c 01 3e e9 6b 12 3d 6d a8 b5 3d
       -0.12261452 0.12632783 0.035747442 0.08870015
000350 45 79 dc 3d bb f6 85 3c 7d 47 00 bb 4e e0 28 3d
       0.10765318 0.016353002 -0.001957386 0.04122954
000360 e7 2a 99 3d 69 00 cc 3d 60 55 a8 bd 0c 06 10 be
       0.07478886 0.09961016 -0.08219409 -0.14064807
000370 94 3e b5 3e e6 9f ca bf a4 17 e3 3b 13 7e 6e be
       0.35399306 -1.5830047 0.0069303084 -0.23290281
000380 bc 1f 0e 3f 62 93 aa 3e cf b1 87 3b 4f 7b bb 3e
       0.5551717 0.3331557 0.0041410695 0.36617514
000390 39 82 61 3e 09 f3 db bf 78 d5 98 bd 38 0b b8 3e
       0.22022332 -1.7183543 -0.07462591 0.3594606
0003a0 b3 52 d9 3c c2 f7 c1 3e 3d f3 09 be 16 65 23 3e
       0.026528692 0.37884337 -0.13471694 0.1595653
0003b0 bc a8 9f bc f7 02 09 bd f8 7c 17 be 9d 69 1f 3e
       -0.019489639 -0.033450093 -0.14793766 0.15567632
0003c0 24 cc 69 3e cc 64 94 3e b6 d0 3e 3c 9d 02 c3 be
       0.2283178 0.28983152 0.01164644 -0.3808793
0003d0 b8 e7 d2 be 12 55 ca bf 71 69 35 bd 7a c8 be be
       -0.41192412 -1.5807211 -0.04429001 -0.37262326
0003e0 0b 26 1a 3f 07 4a 6c 3e 54 26 0d 3d 73 38 9a 3d
       0.602143 0.23075114 0.03446038 0.07530298
0003f0 05 08 7c be 30 e0 d1 bf 2f 26 e0 3d 14 f1 bf 3d
       -0.24612434 -1.6396542 0.10944783 0.09372154

fcs1.bias f4 [256]
000000 82 46 51 bf ab ea 50 bf ae 99 52 be af 4f ac 3c
       -0.8174821 -0.81608075 -0.20566437 0.02103409
000010 f3 21 14 bf 93 b4 64 bf a8 7f f6 be 96 bb ea be
       -0.578643 -0.89338034 -0.4814427 -0.45846242
000020 ba 08 0e bf 51 88 4b bf b3 d7 2f bf f7 ff 07 bf
       -0.55482066 -0.7950488 -0.68688506 -0.53124946
000030 5c 06 3c bf 90 90 cc bf 8a 72 a4 bd 53 f9 8d bf
       -0.73447204 -1.5981617 -0.08029659 -1.1091713
000040 b4 84 da 3e dc 38 09 bf a7 b6 8c bf 57 43 e6 bd
       0.4267937 -0.53602386 -1.0993241 -0.11243313
000050 b4 80 b7 be f9 51 e2 3e 61 7d 9d bf dd 13 14 bf
       -0.3584038 0.44203165 -1.2303888 -0.5784281
000060 d5 a0 a1 be a1 d1 4f bf 2d e8 ca 3f 38 15 0d bf
       -0.31568018 -0.81179243 1.5852104 -0.551105
000070 6b 87 80 bf c4 d8 3b bf db d0 45 bf 76 ab 25 bf
       -1.0041326 -0.73377633 -0.77271813 -0.64714754
000080 3d de 86 bf 63 84 8f bd e9 6c bd bf 1b 20 50 be
       -1.0536572 -0.07007673 -1.4798862 -0.20324747
000090 df 06 16 bf 0e b0 54 bf 62 89 8a bf a8 c8 fc be
       -0.58604234 -0.8308114 -1.0823176 -0.4937184
0000a0 44 49 25 be 72 1e 18 bf 5d 8f 42 be 93 98 51 bf
       -0.1614123 -0.59421456 -0.19000001 -0.81873435
0000b0 86 93 16 3f f6 fc f8 be 8b 23 aa be ea 9c a5 be
       0.5881885 -0.48630494 -0.33230242 -0.32346278
0000c0 5a cd 9c bf ec cd 5a bf b4 a3 21 be d5 9d b6 3f
       -1.2250168 -0.8547046 -0.15785104 1.4266917
0000d0 a2 9b 6a bb dd 76 26 bf 1e 7c fd be 28 33 c3 be
       -0.003579833 -0.6502512 -0.49508756 -0.38124967
0000e0 c4 4f 01 bf 7c 24 1c bf 7e 52 10 bf da 34 44 bf
       -0.5051234 -0.6099317 -0.56375873 -0.76643145
0000f0 17 4c 1f bf 82 64 9a bf e8 84 f7 bd 6b 77 08 be
       -0.6222548 -1.2061923 -0.12085897 -0.13326804
000100 e3 8b 22 bf d8 45 36 3e 85 21 6e bf 26 93 af 3e
       -0.634947 0.17800081 -0.93019897 0.34291953
000110 55 fe a0 be f3 18 83 3f 7a 82 24 bf 15 d2 f5 3c
       -0.3144404 1.0241989 -0.6426159 0.030007401
000120 13 43 d2 bf 89 b2 d6 be 5f 57 ec be bf b5 a8 be
       -1.642672 -0.41933087 -0.4616041 -0.3295116
000130 4e e2 20 bf 39 3d cb 3e d9 11 b5 bf a8 b0 14 bf
       -0.62845314 0.39695147 -1.4146072 -0.58082056
000140 ac 1b f7 be de de 64 bf 76 f5 31 bf e3 a5 8b 3e
       -0.482633 -0.8940257 -0.6951517 0.27275
000150 c9 1b ff be e4 1b 93 be 3c b0 19 bf ad 94 95 3f
       -0.49825886 -0.28732216 -0.6003454 1.1685997
000160 94 21 82 bd 71 53 5c bf ef b3 5e bf 3c 4f 20 bf
       -0.06354061 -0.8606482 -0.86993307 -0.626209
000170 e7 7a 76 bf 5c a4 af bd 54 c1 ad bf 90 da 6e bf
       -0.96281284 -0.08576271 -1.3574624 -0.9330225
000180 7b 40 a2 bd 64 67 6e 3f 2e c6 78 bf 51 0e 87 3e
       -0.07922455 0.9312651 -0.971774 0.2637811
000190 e4 00 39 be 2f 3b 99 3e 12 af a9 3f 81 03 93 be
       -0.18066746 0.29927966 1.3256552 -0.2871361
0001a0 34 34 33 3f 41 22 f7 be f7 eb dd 3d c6 8f 91 3d
       0.7000153 -0.4826832 0.10836022 0.07107501
0001b0 03 45 40 bf be 3e cf 3e 71 46 1a bf 58 68 13 bf
       -0.75105304 0.40477556 -0.60263735 -0.5758109
0001c0 58 66 3e bf 7e f1 30 bf 83 df 34 bd 9b b0 39 bf
       -0.74374914 -0.6911849 -0.04415847 -0.72535104
0001d0 1d 35 01 3e 55 cd 77 bf a2 06 8f bd 2a ba d7 be
       0.12617917 -0.96797687 -0.06983687 -0.4213422
0001e0 60 27 51 bf 05 3d e7 3e 73 a5 5d bf ae 1c 87 bf
       -0.81700706 0.45163742 -0.8658058 -1.0555627
0001f0 04 14 af bd ec d7 9c bf 20 02 ef be 7f af 5f bf
       -0.085487396 -1.2253394 -0.4668131 -0.8737716
000200 ef 38 ce be 45 64 84 be f4 15 30 bf 84 c2 83 bf
       -0.40277812 -0.2585775 -0.687835 -1.0293736
000210 b1 1d 34 3d 0c 0f 4d be af 6c c1 bd f5 d1 de be
       0.04397363 -0.20025271 -0.09444558 -0.4351956
000220 04 eb 4f 3e 37 fe bb be fb 31 4f be d1 ce 19 bf
       0.20304495 -0.36717388 -0.2023391 -0.600812
000230 bb 73 15 bf 9f 8c 95 bf ea 35 b2 be f2 8c cb 3e
       -0.58379716 -1.1683539 -0.34806758 0.3975597
000240 39 e4 c3 bf 5f 7d 89 bf ac bf 0a 3f 5a 9a 70 bc
       -1.5304023 -1.0741385 0.5419872 -0.014685238
000250 84 79 05 bf 0c 40 73 bf 5a 40 69 be e1 8c 85 bf
       -0.52138543 -0.950196 -0.22778454 -1.0433618
000260 17 9a 63 bf 26 16 86 bf 00 05 f9 3e db ad f3 be
       -0.88907 -1.0475509 0.48636627 -0.4759358
000270 f1 b3 89 be eb c0 2e bf 42 8e 70 bf 95 16 9d bf
       -0.26895097 -0.6826312 -0.9396707 -1.2272516
000280 78 69 25 bf fe 8d 2e bf 21 a7 bc bd f2 92 25 3f
       -0.6461406 -0.6818541 -0.09211565 0.64677346
000290 ae 9c 08 bf b7 13 4a bf 2b 5e 92 bf b6 f2 6a bf
       -0.53364074 -0.7893633 -1.1434988 -0.917766
0002a0 2f 43 61 bf 22 d9 7b bf 0d 7b b5 be d1 98 66 bf
       -0.8799314 -0.98378193 -0.35445443 -0.9007693
0002b0 c6 1a 3e 3f 98 12 3b be 08 36 00 3f 83 bd 7c bf
       0.74259603 -0.18268812 0.50082445 -0.9872667
0002c0 51 d2 04 bf 6d 40 35 bf 05 03 84 bf eb 84 61 bf
       -0.5188342 -0.7080143 -1.0313421 -0.8809344
0002d0 dc c1 7b bf a0 c5 a0 bf d9 60 15 be f8 00 c0 be
       -0.9834268 -1.256031 -0.14587726 -0.3750074
0002e0 37 98 e4 be d5 bc 36 bf eb f1 4b bf 6e 51 0e bf
       -0.4464738 -0.71381885 -0.7966601 -0.55593
0002f0 71 c0 e7 be 6f 23 a1 bf d9 4e 17 be be f2 e1 3e
       -0.4526401 -1.2588938 -0.14776172 0.4413051
000300 f6 de 08 bf 7c 65 e6 3e ca f5 3d be 64 e7 23 bf
       -0.5346521 0.449993 -0.18550792 -0.6402495
000310 9c 43 a1 bf f4 85 bd be 7d 94 b5 3e 3f ac 80 bf
       -1.2598758 -0.3701626 0.3546485 -1.0052565
000320 f8 eb b6 bf 8b c8 8f bf 2d cf e2 be cd 0f a0 bf
       -1.4290762 -1.1233076 -0.44298688 -1.2504822
000330 6a 35 34 bf 17 e8 44 3e e2 8d 4e bf 59 71 ea be
       -0.70394003 0.1922916 -0.80685246 -0.45789602
000340 04 c3 5a bf df 65 65 3e 0f fc a8 bf ae d5 c0 bf
       -0.8545382 0.22402142 -1.3201922 -1.506521
000350 b7 71 3d bf 0c 0f 9b bf 87 44 42 bf 95 99 d6 be
       -0.7400164 -1.2113967 -0.75885814 -0.4191405
000360 de a1 8f bf b5 77 12 bf 5a 54 80 bf af f3 2b 3f
       -1.1221273 -0.5721391 -1.0025742 0.67168707
000370 de 9b 8e bf a5 19 76 bf 2d d5 e6 3e 67 9b b2 bf
       -1.1141317 -0.9613288 0.45084515 -1.3953675
000380 bf 47 11 bf 83 8a 60 be 0f e1 e6 be 28 da 37 bf
       -0.567501 -0.21927838 -0.4509358 -0.71817255
000390 98 2c 16 bf 0e 57 bf be 21 8b 23 be 73 e3 58 bf
       -0.58661795 -0.37371105 -0.15971042 -0.8472206
0003a0 25 76 4d 3e b5 38 20 bf a3 a9 1f 3c 7a 70 80 3d
       0.200646 -0.6258653 0.009745034 0.06271453
0003b0 a4 79 a4 bd c1 f6 5a bf 02 a8 21 bf ce cf 07 bf
       -0.080310136 -0.85532767 -0.63146985 -0.5305146
0003c0 3e 45 0b bf 74 22 0a 3e b5 27 4b bf 4e 9e 2c bf
       -0.5440253 0.13489705 -0.79357463 -0.67429054
0003d0 db 7d 6d bf 52 85 66 bf 9a 88 a8 bf cf f2 e4 be
       -0.92770165 -0.9004718 -1.3166687 -0.44716498
0003e0 5d b3 3a bf 5e b8 3b bf c8 e3 c8 be 3b b9 e2 3f
       -0.72929937 -0.73328197 -0.39236283 1.7712778
0003f0 76 2e 86 bf f5 53 ce be ba e0 61 bf 28 25 51 bf
       -1.0482929 -0.4029843 -0.8823353 -0.8169732

fc2.weight f4 [128, 256]
000000 25 54 11 bd 4c f3 5d bc 7d 49 3a bd a0 05 1d bd
       -0.035480637 -0.013546776 -0.04548024 -0.038335443
000010 73 cf 86 bd b3 64 eb bb ee 75 96 bc 95 fc 1e bd
       -0.065825365 -0.007183635 -0.01836678 -0.0388151
000020 97 43 54 bd 74 8f c9 bb 8d 92 3b 3d 21 18 a5 bd
       -0.05182227 -0.006151134 0.04579406 -0.08061243
000030 b6 86 bc bc 45 8a 17 3d 44 da 3e bd d8 ab 04 3d
       -0.023013454 0.0369971 -0.046594873 0.032390445
000040 f5 b3 74 bd 08 1c 0d 3d 63 b8 86 bd 23 dc 2d bd
       -0.059741933 0.03445056 -0.06578138 -0.042446267
000050 d8 b0 92 bd 3d 15 f3 bd 62 42 57 3c 81 33 e4 bc
       -0.071626365 -0.11869285 0.0131383855 -0.02785659
000060 37 40 35 3d 16 e0 ed bd 51 ae 8e 3d a9 01 12 be
       0.044250693 -0.116150066 0.06966842 -0.14258446
000070 78 f9 3e 3d 2b 6b a4 bd 5c 09 8a bd 48 5f e9 3c
       0.04662463 -0.08028253 -0.067400664 0.028487816
000080 be 4a 18 bc 18 50 7e bd 2e 78 3a bd 2d c4 8b bd
       -0.009295164 -0.062088102 -0.04552477 -0.06824527
000090 1a 4c 4f 3d bc ad 83 3c 4b 88 2c bc 0f ae 3d 3d
       0.050609685 0.016074054 -0.010530542 0.046308573
0000a0 40 89 47 bd 47 b6 f6 bd 1b c8 70 bd 92 c6 ba bd
       -0.048714876 -0.120464854 -0.058784585 -0.091199055
0000b0 38 d2 c9 bd 92 9d 95 3d b0 3f 85 bc 27 d8 89 bd
       -0.09854549 0.07305445 -0.01626572 -0.06730681
0000c0 b6 f3 30 bc 95 73 bf bc ef 5e 89 bd 98 a5 ea bd
       -0.010800293 -0.023370543 -0.0670756 -0.11457366
0000d0 b4 1a a1 bd fb b6 c8 bd 52 9b 93 bd 06 de f3 bc
       -0.07866421 -0.09800526 -0.072073594 -0.029768955
0000e0 ef 32 80 3d 08 e0 b2 3c 6f b2 9d bd 75 8f 75 3d
       0.06259715 0.021835342 -0.07700049 0.059951264
0000f0 b6 ab 77 bd 48 ce c7 3c f6 4b fc bd 8e 42 24 be
       -0.06046649 0.024390355 -0.12319176 -0.16041014
000100 6a 0a d2 bc 15 07 3e bd a4 0e 20 bd 31 aa 03 be
       -0.025639731 -0.046393473 -0.039076462 -0.12857892
000110 91 45 08 3d e3 a5 a7 bd d3 5f ac bd 18 91 7e 3b
       0.03326947 -0.08185937 -0.084167145 0.0038843807
000120 ae f3 b5 bd a3 b1 89 3d 31 a6 b2 bd a6 f5 21 be
       -0.08884369 0.06723335 -0.08723105 -0.15816364
000130 4a 6f 4e bd 5c b1 5e bd c5 4d 85 3d b2 1d 75 3c
       -0.050399102 -0.05436836 0.06508974 0.014960693
000140 a3 fe 3c bd 26 5d 01 be fe 24 e1 bd f6 b7 5a bd
       -0.046141278 -0.1263319 -0.10993384 -0.053398095
000150 87 b0 01 be c4 86 a8 bc ab cd e7 bd 74 ca 6d 3d
       -0.12664996 -0.020572074 -0.11318525 0.058054402
000160 8c c2 5a 3a 56 b8 12 bd f9 6e 57 bd c4 87 34 3d
       0.000834503 -0.035820328 -0.052596066 0.04407479
000170 a5 52 25 bc b5 81 d9 bb 9d 9b e3 3c bb 80 bc bd
       -0.010090505 -0.0066377767 0.027784163 -0.09204241
000180 f8 0f df bd 60 10 55 bd d7 4c 86 bd 2f 0f 86 bd
       -0.10891718 -0.05201757 -0.06557625 -0.06545865
000190 9b 85 5f 3d 53 cc 3a bd 63 12 19 3d 50 51 41 bd
       0.054570775 -0.045605015 0.03737105 -0.047196686
0001a0 df 58 96 3c 91 74 2e bd 81 60 4f 3d d2 b1 3b 3b
       0.018352924 -0.042591635 0.050629143 0.0028639925
0001b0 ca 4a 1a 3d 44 c1 85 bc 5f 1e ac bd b1 88 d8 3c
       0.03766898 -0.016327508 -0.0840423 0.026432367
0001c0 54 d6 b7 bd 91 c2 98 bc 16 a9 ad bd 53 aa fe bd
       -0.08976427 -0.018647464 -0.08479516 -0.124348305
0001d0 c1 2a c3 bd 82 e1 8a 3b b5 6e 90 bd 44 a7 a9 bd
       -0.09529639 0.0042383084 -0.07052366 -0.082838565
0001e0 6c fa e7 3a 68 6e 2b 3d e8 a8 85 3d ee 13 8b bd
       0.0017698533 0.04185334 0.06526357 -0.06790911
0001f0 e4 36 55 bd 64 74 0c bc 3c 74 6b bd 6e a1 a9 bc
       -0.0520543 -0.008572672 -0.057483897 -0.020706858
000200 4e 49 cb bd 0f db 63 3d 5b 1a 65 bd 9a b6 5f bd
       -0.09926091 0.055628832 -0.055933338 -0.0546175
000210 18 89 95 bd 4f f8 93 3d 64 f1 72 bc ee fd b6 bd
       -0.07301539 0.072250955 -0.01482806 -0.08935152
000220 61 51 2f bd b7 09 d1 bd ac 0d 05 bd ef 1c 90 3c
       -0.04280222 -0.10206931 -0.03248374 0.017591922
000230 66 78 5c bd 55 2f e3 3b 3c 22 24 be e5 2c ae b9
       -0.05382576 0.0069331327 -0.16028684 -0.00033221315
000240 b8 38 4b 3c ba 03 ce bc 56 d6 87 3c bd b6 04 3c
       0.0124036595 -0.025148261 0.016581696 0.008100209
000250 9e 77 98 bd d7 2a 80 bd 32 8e c2 3c d7 32 83 bd
       -0.0744469 -0.06258171 0.023749445 -0.06406181
000260 44 0f 12 bd b1 8d ea bd df 9f c1 bc 19 87 11 bd
       -0.03565909 -0.11452807 -0.023635803 -0.03552923
000270 22 7b 23 bc 85 c9 8b 3d df 38 33 bd 50 d8 6e bd
       -0.009978088 0.06825546 -0.04375541 -0.05831176
000280 81 7f 33 bd c9 fb b5 ba 46 d1 a8 3c 06 36 1c bd
       -0.04382277 -0.0013884242 0.020607602 -0.03813746
000290 5e 0e 8b 3c 4e 2c 0f be c3 02 25 bd 58 19 97 3d
       0.016974624 -0.13981745 -0.040285837 0.07377881
0002a0 d9 62 41 3d 18 66 69 bd 43 31 05 3d a2 0b 1f bc
       0.04721341 -0.05698213 0.032517683 -0.009707363
0002b0 88 ec cf bd 49 5e 79 bd ec 49 1a be 1f c9 19 3d
       -0.10152537 -0.060880933 -0.15067261 0.03754532
0002c0 66 24 0e bc 9d f2 b3 bd 6b da 76 bd 05 a1 38 bd
       -0.00867567 -0.08786509 -0.060266893 -0.045075435
0002d0 e2 56 4c bd e9 a6 c1 bd aa 66 ba bd c9 1e 6d 3c
       -0.049887545 -0.09455664 -0.09101613 0.014472672
0002e0 77 77 db 3c 61 a6 22 3d c1 68 a8 bd 37 cc 4b bd
       0.026790364 0.039709453 -0.08223105 -0.0497553
0002f0 49 70 d6 bd fd 89 ae 3b 5f 9d 20 3c 02 e7 ae bd
       -0.104706354 0.005326508 0.009803145 -0.08540155
000300 de 4e 9a bd ff ac 32 bd e0 3a 97 bc 86 b6 7b 3d
       -0.07534574 -0.043622013 -0.018460691 0.061453365
000310 7c 85 20 bd bc ba 49 3c 8d b6 e2 bd 51 85 03 bd
       -0.0391898 0.012312587 -0.11069975 -0.032109562
000320 15 30 64 bd ed 30 3f 3d d0 7c bb bd 68 33 f9 bd
       -0.055709917 0.04667752 -0.091546655 -0.12168008
000330 a5 f8 b0 3c ac 49 83 bc 96 fb a4 bd b6 67 bf 3c
       0.021602938 -0.01602634 -0.08055799 0.023364883
000340 11 6d 70 3d 7f b6 de bd bd 40 4b 3d 9e ba b2 bd
       0.058697764 -0.10874652 0.049622286 -0.08727001
000350 c4 b9 c8 3b a0 bb 71 bd ca 7d d7 bc 39 76 b8 bb
       0.0061256606 -0.059016824 -0.026305098 -0.0056293276
000360 2c 82 de bd 00 70 a4 3c 5f fb 89 bd 28 f0 9b bc
       -0.10864672 0.020072937 -0.06737398 -0.019035414
000370 dd 8d 1a be 2a df 51 bd 41 de c5 bd da dd 03 3d
       -0.15093179 -0.051238216 -0.09661532 0.032193996
000380 da b9 82 bd 04 16 e2 bd 37 10 ea bc f7 80 85 3d
       -0.063831046 -0.110393554 -0.028572185 0.06518739
000390 9a 01 56 bd c3 62 04 3d 78 aa b7 bd ec 9e 4c 3d
       -0.05224762 0.03232075 -0.08968061 0.049956247
0003a0 3c ee 2a 3d 2c 46 04 be 11 c5 31 bd 30 f7 39 3c
       0.041731104 -0.12917393 -0.043400828 0.011350438
0003b0 d1 79 05 3d 4f 05 a7 bd bb 07 f0 3c 7d 43 32 bd
       0.032586876 -0.081553094 0.029300561 -0.043521393
0003c0 7f 3f 69 bd 9f 6b 62 bc 4f ad 56 bb 69 0a b1 bd
       -0.05694532 -0.013819604 -0.0032757109 -0.08644564
0003d0 de 66 c4 bc 29 73 3e 3d 2a ab 3d bd 93 13 bd bd
       -0.023974832 0.046496544 -0.046305813 -0.09232249
0003e0 e5 3c a1 bd 56 d9 7b bd 22 27 8e bd e4 20 dc bd
       -0.07872943 -0.061486565 -0.06941058 -0.10748461
0003f0 af 7c 8d bd 18 05 45 bd 73 f0 40 bd 06 fd 8b 3d
       -0.06908547 -0.04810056 -0.04710431 0.0683537

fc2.bias f4 [128]
000000 27 8a 93 bd 81 0a 99 bd a0 27 1f be 1f c9 4c be
       -0.07204085 -0.074727066 -0.1554246 -0.19998597
000010 5f 94 84 bd 5f b2 0d be 41 59 0e be ed 72 ef bd
       -0.06473612 -0.13837574 -0.13901235 -0.11691842
000020 ac 5d b9 bd 0d 19 1c be 8e 5a 3f be b1 78 27 be
       -0.090510696 -0.15243931 -0.18686888 -0.16354634
000030 a8 25 e1 bd 9d a2 81 be be 98 b5 bd 10 50 3a be
       -0.109935105 -0.25319377 -0.08867024 -0.18194604
000040 8b 12 0a be 01 a7 f3 bd 5d a8 4c be ae b9 51 be
       -0.13483636 -0.11897088 -0.199861 -0.20480987
000050 ed 2e bc bb 42 aa 82 bd 33 3b d2 bd 3d a2 1a be
       -0.0057428987 -0.0638013 -0.102651976 -0.15100951
000060 08 e2 c1 bd 03 9e c9 bd 63 a9 23 be 83 82 0a be
       -0.0946694 -0.098445915 -0.15982585 -0.13526349
000070 28 96 8c bd 53 15 9a 3f 4c 03 bf bd f6 09 1e be
       -0.068645775 1.2037758 -0.09326801 -0.15433487
000080 7a e7 0d be f4 09 1a be 0b f4 0f bd 4f 55 e3 bd
       -0.13857833 -0.1504286 -0.035144847 -0.11100256
000090 3d 2f 15 be e8 2f 17 be 9f 3d 1a be f9 27 c9 bd
       -0.14568801 -0.14764369 -0.15062569 -0.09822077
0000a0 12 bf 2c bd 3e c1 62 be 70 a2 09 be 54 d3 22 be
       -0.042174406 -0.22144029 -0.13440871 -0.15900928
0000b0 ce 60 d6 bd 62 9c 97 3e fb 9e ae bd 2b 1c f7 bd
       -0.10467683 0.29611498 -0.08526417 -0.120659195
0000c0 e9 5b 23 bf c2 05 ea bd 69 8f a9 bd c8 0f 2b be
       -0.6381212 -0.114268795 -0.082793064 -0.16705239
0000d0 31 0c 24 be fb 3b 01 be 07 92 0c be b2 1b d2 bd
       -0.16020276 -0.12620537 -0.1372758 -0.10259189
0000e0 a8 e9 0e be 12 36 b2 bd 39 d3 35 be 7a 3f 94 bd
       -0.1395632 -0.08701719 -0.17756356 -0.0723867
0000f0 42 04 99 3f e4 5b 0f be 2c 3e e9 bd 04 0a a0 bd
       1.1954424 -0.13999897 -0.113888115 -0.0781441
000100 14 7e db bd 26 2c 85 bd ca a6 3a be ca 64 b3 bd
       -0.10717407 -0.06502561 -0.18227687 -0.08759458
000110 66 48 94 3f 81 1e ed bd 72 7b ec bd f6 d6 f8 bd
       1.1584594 -0.11578084 -0.11546983 -0.121503755
000120 20 ae e8 bd 89 9e 10 be 10 0c 17 be 17 33 21 be
       -0.11361337 -0.14122976 -0.14750695 -0.15742145
000130 4f e9 95 be f2 40 e8 bd 1f a2 3d be 5a f9 b3 bd
       -0.29279563 -0.11340512 -0.18518876 -0.087877944
000140 87 72 2b be eb 6f c6 bd c9 48 42 be 86 d0 c0 bd
       -0.16742907 -0.096893154 -0.18973078 -0.09414773
000150 bb 7b 22 3f f1 b6 ab bd b8 ee 2f be c4 7a 26 be
       0.6347005 -0.08384503 -0.17180908 -0.16257769
000160 92 a3 a2 bd e7 9a 77 3e 79 c2 2b be 53 7c 07 3f
       -0.07941355 0.24180184 -0.16773404 0.5292408
000170 1a 8b c2 bd 25 fc 28 be 73 6d 14 be 50 e7 d8 bd
       -0.09499188 -0.16502436 -0.14494877 -0.10590994
000180 11 7d 03 be 92 ef f6 bd 5f 50 86 be 33 34 d3 bd
       -0.12840678 -0.12057413 -0.26233193 -0.103126906
000190 86 1e 38 be 39 0d 16 be 26 15 80 bd b9 84 31 be
       -0.17980394 -0.14653482 -0.06254034 -0.17335786
0001a0 0e ff a4 be 86 29 b5 bd f1 cd 01 be 90 ed 05 bf
       -0.3222584 -0.088458106 -0.12676217 -0.52315617
0001b0 39 db 23 be 15 82 14 be e5 47 b0 bd 8b e3 ac bd
       -0.16001596 -0.14502747 -0.08607463 -0.08441838
0001c0 cd 20 3c 3d 6b 2e 25 be 18 d8 cd bd 7c c5 28 be
       0.04592972 -0.16130988 -0.10050982 -0.16481584
0001d0 bf 38 b1 bd 45 1a 50 be 7a 9a 23 be 9e 38 b9 bd
       -0.086534016 -0.20322521 -0.15976897 -0.09044002
0001e0 f4 4b db bd 1b 71 80 3f 5d e4 1d be 0a 7f 1d be
       -0.10707846 1.0034517 -0.15419145 -0.15380493
0001f0 1c 02 c4 bd 98 64 de bd f1 39 2a be 8e 90 03 be
       -0.09570715 -0.108590305 -0.16623665 -0.12848112

fc3.weight f4 [1, 128]
000000 a1 14 45 3b 0e 71 f1 bc 5c 30 65 bb 79 32 dc bb
       0.003007211 -0.029472854 -0.0034971451 -0.006719884
000010 82 28 31 bb 9b 9e 2a bb 70 de f0 bc d9 c6 a2 39
       -0.0027032201 -0.0026034478 -0.029402941 0.000310472
000020 ca 8c bd bc 91 6d 30 bc aa b7 db bc d7 1a 86 3c
       -0.023138423 -0.01076831 -0.026820976 0.01637022
000030 51 60 23 3c 60 b1 88 bc fe af f3 3c 40 01 08 bb
       0.009971694 -0.016686141 0.029747006 -0.0020752698
000040 2c b6 9e bc 34 86 42 bb b7 04 d8 bb 7e d9 1d bc
       -0.019373976 -0.0029682042 -0.006592359 -0.009634374
000050 55 97 2b bb ff 34 b6 bc c6 fd cf bc bd 9c e5 3c
       -0.002618273 -0.022242067 -0.025389563 0.02802884
000060 68 ba 8e 3c 59 f9 ec bb 48 78 95 3b ad b9 55 3b
       0.01742287 -0.007231873 0.004561458 0.0032611892
000070 29 74 db bb 52 cb f5 3b 0c ae ab bc f4 e6 c4 3a
       -0.006697197 0.0075010443 -0.020957015 0.0015022443
000080 77 3f 80 3c 3b de 71 bc ae ef af 3c d0 8c 44 3d
       0.015655262 -0.0147624565 0.021476593 0.04798585
000090 dc e5 82 39 93 6b c7 b8 97 85 a8 3c 94 85 8e bc
       0.0002496679 -9.509097e-05 0.020571513 -0.01739768
0000a0 29 e8 bb 3c 39 c5 46 3c 71 42 08 3b cc 02 b6 3c
       0.022937851 0.0121319825 0.0020791555 0.02221813
0000b0 ef 88 6e 3c 28 01 79 bc 29 19 bd bb b1 fc 8b 3c
       0.014559015 -0.01519803 -0.0057708216 0.017088266
0000c0 b9 3b 36 bc 1a ca c1 bb b8 36 c4 3b 6b 64 3d 3c
       -0.011122637 -0.005913985 0.0059879683 0.011559586
0000d0 f6 d8 aa 3c fd f4 b6 ba d0 b9 2e 3b 69 eb aa 3c
       0.020855408 -0.001395851 0.0026661046 0.020864205
0000e0 ca b7 8d b9 60 79 90 bc 32 40 b9 3c f3 a7 5b bc
       -0.0002703055 -0.017636001 0.022613619 -0.013406741
0000f0 e4 c6 6c 3c 9c 84 2f bb 9a 33 9f 3c 0c 47 61 3c
       0.014451716 -0.0026781922 0.019433785 0.013749849
000100 2a ff 08 3b 37 9b 61 bc 92 0b a0 bc a0 71 40 bb
       0.0020904043 -0.013769916 -0.019536767 -0.00293646
000110 04 70 dd 3b 9b 2c 8c bc 7a 9f d2 3c 79 1c 89 3b
       0.006757738 -0.017111113 0.02571081 0.0041843024
000120 15 69 37 bc 2d 54 aa bb a6 06 88 3c 36 50 17 3b
       -0.011194487 -0.005198023 0.016604733 0.002308858
000130 94 90 44 bc 9b 26 51 bc c6 36 e0 bb 58 8d 06 bc
       -0.011997361 -0.012765552 -0.006842467 -0.00821241
000140 cd be ec bb fa d7 11 ba dc ae a5 bc 71 a3 9d 3c
       -0.0072248937 -0.0005563494 -0.020224981 0.019242974
000150 cf 84 4e bc bc 0c 88 bc 6a f0 25 bc 03 bc 7d 3c
       -0.012604906 -0.016607635 -0.01012812 0.01548672
000160 06 c6 3c 3c ff 42 4d bc 62 f9 d1 3b fa 80 4c bc
       0.011521822 -0.01252818 0.0064079026 -0.012481922
000170 b5 05 04 ba d4 28 59 3c d6 82 c4 3c ba 09 3d 3c
       -0.0005036251 0.013254363 0.023988169 0.0115379635
000180 3d 8c 9e bc 7e eb 1d bc 73 eb 8f bb fe 08 cb ba
       -0.01935398 -0.009638665 -0.0043920814 -0.0015490351
000190 13 64 bb bc 27 58 23 bc 33 7d e5 3c fc 15 7a bb
       -0.022874868 -0.009969748 0.028013801 -0.0038160076
0001a0 3b 81 78 bc c1 02 e4 bb ca cc 41 bb 7b 97 b1 bb
       -0.01516753 -0.006958336 -0.0029571527 -0.005419669
0001b0 09 c1 9b ba 48 7c c0 bc 78 e1 39 bc 05 f1 58 bc
       -0.001188309 -0.023496762 -0.01134526 -0.013241057
0001c0 21 8c 3e bc 2e 35 0e bb 6a 70 9a bc bc 54 03 3c
       -0.011630089 -0.0021699178 -0.018852431 0.008015808
0001d0 cc bf 01 3c cf 14 cd bb 71 78 1e 3c 6b 81 c7 bc
       0.007919263 -0.006258584 0.00967227 -0.024353703
0001e0 53 67 f1 3c 6d 7c 7c 3c be 7b aa 3c 2d 2d 60 bb
       0.029468214 0.015410525 0.020810958 -0.0034206614
0001f0 74 33 bc bc 76 c3 9d bc 54 33 f9 bb 28 8c ed bb
       -0.022973754 -0.019258242 -0.0076049957 -0.007249374
