critic_target0.pth (torch_old, 187380 bytes, 5 tensors)

fcs1.weight f4 [256, 52]
0	0x3f40e58e	0.7535027
1	0x3f4e23e3	0.8052351
2	0xbd9e5a16	-0.07732026
3	0xbe9310c4	-0.2872373
4	0x3c6b92e5	0.014378284
5	0xbf9568f7	-1.1672658
6	0xbdc4e42e	-0.09613834
7	0xbe4e52ac	-0.20148724
8	0x3f4fa14a	0.8110548
9	0x3f1a12d2	0.6018497
10	0xbe3120d6	-0.17297682
11	0xbeaaa72a	-0.3333066
12	0xbe24539c	-0.1604752
13	0xbf18136d	-0.5940464
14	0xbdcb94dd	-0.09940503
15	0xbe99d8e9	-0.30048302
16	0x3f82ec0a	1.0228283
17	0x3e9505e6	0.29106063
18	0x3d947156	0.072481796
19	0xbf1b767e	-0.6072768
20	0xbf0603b8	-0.52349424
21	0xbede7c66	-0.43454283
22	0x3d29a7fb	0.041419964
23	0xbf0790eb	-0.529555
24	0x3f14c83f	0.5811805
25	0xbf29a6ea	-0.66270316
26	0xbde9af97	-0.11410444
27	0x3b61a802	0.0034432416
28	0x3d86c29d	0.06580088
29	0xbf91a54a	-1.1378567
30	0xbe120517	-0.14259754
31	0xbd80a46d	-0.06281362
32	0x3f183b97	0.59465927
33	0xbf30eedf	-0.6911449
34	0xbe0197a5	-0.12655504
35	0x3e864784	0.26226437
36	0x3e8f5fba	0.2800272
37	0xbf1b2a9b	-0.60611886
38	0xbe37547a	-0.17903319
39	0x3e9a27a9	0.30108383
40	0x3ef44f31	0.47716668
41	0xbf5b4044	-0.85644937
42	0xbdf22e84	-0.118252784
43	0x3eaf0f03	0.3419114
44	0x3f071f44	0.5278208
45	0xbecb2dfd	-0.39683524
46	0xbdda2518	-0.10651606
47	0x3e690797	0.22756802
48	0x3f72d953	0.9486286
49	0x3f26bb59	0.6512962
50	0xbf5a085d	-0.8516901
51	0xbf89f449	-1.0777675
52	0x3faa2022	1.3291056
53	0x3f091cad	0.5355938
54	0x3d261072	0.040543027
55	0x3e06facc	0.13181609
56	0x3ec212b5	0.37904897
57	0xbefb4c65	-0.49081722
58	0xba1fc806	-0.00060951745
59	0x3db5fa07	0.088855796
60	0x3f72d4b2	0.948558
61	0x3eca685b	0.39532742
62	0xbdf2ea62	-0.11861111
63	0xbecd2315	-0.40065828
64	0x3e534214	0.20630676
65	0xbed03b0f	-0.40670058
66	0xbcc2c010	-0.023773223
67	0xbee79bb3	-0.45235977
68	0x3f8e4879	1.1115867
69	0x3e8d78e8	0.27631307
70	0xbdf14638	-0.11780971
71	0xbeef8d6d	-0.46787587
72	0x3e0d3f9a	0.13793793
73	0xbf193b89	-0.5985647
74	0xbcf565c6	-0.029955756
75	0xbebd7ccf	-0.37009284
76	0xbea17ed9	-0.3154209
77	0xbe91bc49	-0.28463963
78	0xbd2d6e2d	-0.0423414
79	0x3edc419f	0.43018815
80	0xbe9335f9	-0.28752115
81	0xbedda728	-0.43291593
82	0x3da4f392	0.0805427
83	0x3ef0b60b	0.47013888
84	0x3e7e9bc7	0.24864112
85	0xbea04936	-0.31305856
86	0x3cbdd75b	0.023173979
87	0xbe3c99b4	-0.18418008
88	0xbe8796a2	-0.2648211
89	0xbee458de	-0.4459905
90	0x3c83e9ac	0.016102634
91	0xbdf34718	-0.118787944
92	0x3f1b27f9	0.6060787
93	0xbe25448f	-0.16139434
94	0x3de086b1	0.1096319
95	0xbe2f67ee	-0.1712949
96	0xbe0b3e74	-0.13598043
97	0xbf355bc8	-0.7084317
98	0x3e18f83a	0.14938441
99	0xbe219339	-0.15778817
100	0x3fcc751f	1.5973243
101	0xbf628e1c	-0.8849809
102	0xbfe74893	-1.8069023
103	0xbb17e454	-0.0023176866
104	0x3f4f1b90	0.8090143
105	0x3ed564b9	0.41678408
106	0xbd977b4b	-0.07396563
107	0xbeeb134f	-0.4591317
108	0xbe23bfcc	-0.15991133
109	0xbe11f2a4	-0.14252716
110	0xbe1ca1fc	-0.15296167
111	0xbee6f985	-0.45112243
112	0x3f80cf03	1.0063175
113	0x3f1cdf2d	0.6127804
114	0xbdc72249	-0.09723336
115	0x3de1803f	0.11010789
116	0xbdd6956f	-0.10477721
117	0xbd3f583f	-0.046715017
118	0xbdaa01c6	-0.083011195
119	0x3e08e34d	0.13367958
120	0x3fa649c4	1.2991261
121	0x3f041363	0.5159208
122	0xbdf2c65b	-0.118542396
123	0xbe3587e2	-0.17727616
124	0x39686043	0.00022161104
125	0xbf3d3e6a	-0.7392336
126	0xbd8581f0	-0.06518924
127	0xbddff0de	-0.10934614
128	0xbeea0211	-0.45704702
129	0x3f01555c	0.50520873
130	0xbdd467ce	-0.10371362
131	0xbe23ed42	-0.16008475
132	0x3e66eb0c	0.22550601
133	0xbd259ad7	-0.04043087
134	0xbdc1eec4	-0.09469369
135	0xbe00f764	-0.12594372
136	0x3d4e4aa0	0.050364137
137	0x3f5e22be	0.8677176
138	0xbdeaab1d	-0.114584185
139	0x3ef134cf	0.47110602
140	0x3d6fee8b	0.0585771
141	0xbd02e17a	-0.031953312
142	0xbd3a195d	-0.045434345
143	0x3ec87973	0.39155158
144	0x3a30fc8d	0.00067515
145	0x3f6f475c	0.9346826
146	0x3df5dd18	0.12005061
147	0x3df2a9ae	0.1184877
148	0xbc4d6c4b	-0.012538026
149	0xbf3a7216	-0.7283033
150	0x3e00c4cc	0.12575072
151	0x3dadb226	0.08481245
152	0x3f295b7b	0.66155213
153	0x3d44666c	0.04794924
154	0x40281080	2.626007
155	0x3d9e5ddc	0.07732746
156	0x3d8a847a	0.06763549
157	0x3f7ef926	0.9959892
158	0xbc5e3fc5	-0.0135650085
159	0xbe330cb1	-0.1748531
160	0x3cd84737	0.026401145
161	0x3ef0e87f	0.4705238
162	0xbd5b2357	-0.0535005
163	0xbdf7cc18	-0.12099475
164	0x3ec2cdac	0.3804754
165	0x3f5bfc45	0.8593181
166	0xbd6844ee	-0.05670636
167	0xbd8f98bc	-0.07011554
168	0xbdf99437	-0.12186473
169	0xbe4d115c	-0.20026153
170	0xbd9920db	-0.0747697
171	0xbd2fb5c7	-0.042897966
172	0x3f15f360	0.58574486
173	0x3f6517b5	0.894893
174	0xbe0ce653	-0.13759737
175	0xbd8736b8	-0.06602234
176	0xbdc10907	-0.0942555
177	0xbfc67006	-1.5502937
178	0xbdb00e26	-0.085964486
179	0xbc8e5ce6	-0.017378282
180	0xbea735ce	-0.32658237
181	0xbf7076ac	-0.9393108
182	0x3dbd59bd	0.09245632
183	0xbe8885a0	-0.26664448
184	0xbccc3ed1	-0.024932297
185	0x3f0111cf	0.504178
186	0x3c44d2be	0.0120131355
187	0xbe6205ed	-0.22072573
188	0x3d99eac6	0.075154826
189	0xbf8a74ec	-1.0816932
190	0xbd196163	-0.03744639
191	0xbda9f29a	-0.08298226
192	0x3e428808	0.18997204
193	0xbe84876b	-0.25884566
194	0xbd026f26	-0.03184428
195	0xbd19f7fe	-0.03759002
196	0x3f410276	0.7539438
197	0xbf6d24e5	-0.9263442
198	0xbd4dcc0d	-0.050243426
199	0x3d2d53cf	0.042316254
200	0x3df4101b	0.119171344
201	0xbfc1025c	-1.5078845
202	0xbbf3bfb7	-0.0074386257
203	0xbbb1cb31	-0.0054258336
204	0xbf23268e	-0.63730705
205	0x3fd15a19	1.6355621
206	0xbf742f4f	-0.9538469
207	0x3f22adb9	0.6354633
208	0xbe12ca2c	-0.14334935
209	0x3de92fa2	0.11386038
210	0x3d17f758	0.03710112
211	0x3d9f2e34	0.077724844
212	0x3dd9a365	0.10626868
213	0x3d27e552	0.04099018
214	0xba1e5f99	-0.0006041467
215	0x3cf7d6a3	0.030253714
216	0x3d7eee39	0.062238906
217	0x3dabaa7a	0.08382125
218	0xbd91a483	-0.07111456
219	0xbe1ecee5	-0.15508612
220	0x3eb2532a	0.34829074
221	0xbfc79372	-1.5591872
222	0x3c938beb	0.018011054
223	0xbe7d4751	-0.24734236
224	0x3f0dd1a0	0.5539799
225	0x3ea2e827	0.31817743
226	0x3c9929d7	0.018696709
227	0x3ebd090c	0.36920965
228	0x3e5c1e41	0.21495916
229	0xbfddc461	-1.7325555
230	0xbd760d59	-0.060071323
231	0x3eb99903	0.3624955
232	0x3cd6d8d9	0.026226448
233	0x3ecbfeae	0.39842743
234	0xbdff6130	-0.12469709
235	0x3e0c284f	0.13687252
236	0xbc944ec3	-0.018103963
237	0xbc106697	-0.008813522
238	0xbe0d3a62	-0.13791803
239	0x3e082ccc	0.13298339
240	0x3e6bea25	0.23038538
241	0x3e9c081e	0.30474943
242	0x3cc503cf	0.024049668
243	0xbecdf5c8	-0.4022658
244	0xbecffc69	-0.4062226
245	0xbfc748a0	-1.5569038
246	0xbd029c75	-0.03188749
247	0xbec9bba0	-0.3940096
248	0x3f1aca5e	0.6046504
249	0x3e7a87b3	0.24465828
250	0x3d0c1160	0.034196258
251	0x3da0e8a8	0.07856876
252	0xbe76a441	-0.24086095
253	0xbfd3b180	-1.6538544
254	0x3ddf9c47	0.109184794
255	0x3dc6a165	0.09698752

fcs1.bias f4 [256]
0	0xbf4f662c	-0.81015277
1	0xbf528069	-0.8222719
2	0xbe525ab3	-0.20542412
3	0x3c9dc1a9	0.019257383
4	0xbf1440ce	-0.57911384
5	0xbf626c69	-0.8844667
6	0xbef2501b	-0.4732674
7	0xbeebb2b7	-0.46034786
8	0xbf06a910	-0.5260172
9	0xbf4bb176	-0.7956766
10	0xbf30bc97	-0.69037765
11	0xbf074eda	-0.5285469
12	0xbf3c59c0	-0.7357445
13	0xbfc97daa	-1.5741475
14	0xbdb34197	-0.08752745
15	0xbf8db323	-1.1070293
16	0x3edd2716	0.43193883
17	0xbf05875f	-0.52159685
18	0xbf8cffc3	-1.1015552
19	0xbdc580f3	-0.09643736
20	0xbebe5da2	-0.3718081
21	0x3ee465db	0.4460896
22	0xbf9abb5a	-1.2088425
23	0xbf1641cc	-0.5869415
24	0xbea51219	-0.3224037
25	0xbf503679	-0.8133312
26	0x3fcc1b29	1.5945789
27	0xbf0b0759	-0.54308087
28	0xbf7faf90	-0.9987726
29	0xbf39959a	-0.724939
30	0xbf47b7b1	-0.78014666
31	0xbf2722b4	-0.6528733
32	0xbf868062	-1.0507929
33	0xbd804422	-0.06262995
34	0xbfbb96c3	-1.4655384
35	0xbe513bc6	-0.20432958
36	0xbf1567dd	-0.5836161
37	0xbf563131	-0.8366881
38	0xbf8a130e	-1.0787065
39	0xbefe07c1	-0.4961529
40	0xbe252339	-0.16126718
41	0xbf191f32	-0.59813225
42	0xbe4257fd	-0.18978877
43	0xbf51aabc	-0.81901145
44	0x3f175a12	0.5912181
45	0xbef63155	-0.48084512
46	0xbea7140d	-0.32632485
47	0xbea629b3	-0.3245369
48	0xbf9b04ae	-1.2110803
49	0xbf58ce65	-0.84689933
50	0xbe215b23	-0.15757422
51	0x3fb3fa56	1.4060771
52	0xbb9e521a	-0.0048315646
53	0xbf22f359	-0.6365257
54	0xbf0107f3	-0.50402755
55	0xbebb6f17	-0.36608192
56	0xbeffe033	-0.49975738
57	0xbf1b1865	-0.605841
58	0xbf0e63e8	-0.55621195
59	0xbf414502	-0.7549592
60	0xbf1f4153	-0.6220905
61	0xbf98f716	-1.1950405
62	0xbdede69a	-0.116162494
63	0xbe010b47	-0.12601958
64	0xbf226c79	-0.63446766
65	0x3e33f9af	0.17575715
66	0xbf70a45a	-0.9400078
67	0x3eac0c0b	0.33602938
68	0xbea563de	-0.32302755
69	0x3f80b48b	1.0055097
70	0xbf2308cd	-0.63685304
71	0x3d05815c	0.03259407
72	0xbfd07f87	-1.6288918
73	0xbed49a5c	-0.41524017
74	0xbeeaf64b	-0.45891032
75	0xbe9dfcd5	-0.30856958
76	0xbf1e81e4	-0.6191695
77	0x3ecd0363	0.40041646
78	0xbfb3692a	-1.4016469
79	0xbf13c542	-0.57722867
80	0xbef625a7	-0.480756
81	0xbf61c5f9	-0.8819271
82	0xbf35273b	-0.70762986
83	0x3e976366	0.29568022
84	0xbef9b7f3	-0.48773155
85	0xbe8a0a68	-0.26961064
86	0xbf1a994e	-0.60390174
87	0x3f94f514	1.1637292
88	0xbd87e1ca	-0.06634863
89	0xbf5bd740	-0.8587532
90	0xbf5d425b	-0.86429375
91	0xbf1e7e93	-0.61911887
92	0xbf73b830	-0.9520292
93	0xbd9eff38	-0.07763523
94	0xbfaca310	-1.3487263
95	0xbf6caccd	-0.92451173
96	0xbdb91863	-0.090378545
97	0x3f6cbeee	0.92478836
98	0xbf77397c	-0.9657209
99	0x3e875e23	0.26439008
100	0xbe2e63c2	-0.17030242
101	0x3ea02292	0.31276375
102	0x3fa985dd	1.3243977
103	0xbe98d711	-0.29851583
104	0x3f2fd1ee	0.686797
105	0xbef9414e	-0.48682636
106	0x3dd26bf3	0.10274496
107	0x3d98ff60	0.07470584
108	0xbf43e576	-0.76522005
109	0x3ecc594f	0.39911887
110	0xbf1aee3e	-0.6051978
111	0xbf112858	-0.56702185
112	0xbf3bc49b	-0.7334687
113	0xbf337a32	-0.7010833
114	0xbd16af1d	-0.036788095
115	0xbf38a92e	-0.7213315
116	0x3e00ab58	0.12565362
117	0xbf74dc18	-0.95648336
118	0xbd824d77	-0.063624315
119	0xbedab71d	-0.4271783
120	0xbf4f8070	-0.81055355
121	0x3eeb800d	0.45996132
122	0xbf5c2596	-0.8599485
123	0xbf854ec7	-1.0414666
124	0xbdd04e36	-0.101711676
125	0xbf9b3099	-1.2124206
126	0xbef25384	-0.47329342
127	0xbf600347	-0.87505
128	0xbecd2dce	-0.4007401
129	0xbe80cfd6	-0.25158566
130	0xbf2e5479	-0.68097645
131	0xbf839d83	-1.0282444
132	0x3d3db1bd	0.046312083
133	0xbe4bccb3	-0.19902305
134	0xbdc036cd	-0.093854524
135	0xbedfb064	-0.43689263
136	0x3e51d21b	0.20490305
137	0xbec43a7a	-0.38325864
138	0xbe43f626	-0.19136867
139	0xbf129381	-0.57256323
140	0xbf16aa06	-0.58853185
141	0xbf955115	-1.1665369
142	0xbea7f147	-0.32801268
143	0x3ecd3e58	0.40086627
144	0xbfc3082f	-1.5236872
145	0xbf87cac9	-1.060876
146	0x3f0a9c33	0.5414459
147	0xbbd1f5d2	-0.006407478
148	0xbf068fb9	-0.52563053
149	0xbf7266f4	-0.94688344
150	0xbe6b2a9d	-0.22965474
151	0xbf854ac9	-1.0413448
152	0xbf64f594	-0.8943722
153	0xbf83915a	-1.0278733
154	0x3efa69f5	0.48908964
155	0xbef38263	-0.47560415
156	0xbe86c22e	-0.26320022
157	0xbf2b9404	-0.6702273
158	0xbf70a781	-0.9400559
159	0xbf9bd58e	-1.2174547
160	0xbf2753f7	-0.65362495
161	0xbf2ef97b	-0.68349427
162	0xbdb1e504	-0.086862594
163	0x3f23c345	0.6396983
164	0xbf09569e	-0.5364779
165	0xbf488fa3	-0.7834417
166	0xbf9311c0	-1.1489792
167	0xbf699ccf	-0.91254896
168	0xbf6032e2	-0.8757764
169	0xbf7a0352	-0.97661316
170	0xbeaf4f0c	-0.34239995
171	0xbf654cc4	-0.8957026
172	0x3f3fbd01	0.7489777
173	0xbe4371d3	-0.19086389
174	0x3efa4853	0.48883304
175	0xbf7b167d	-0.9808119
176	0xbf058cf5	-0.5216821
177	0xbf348f49	-0.70531136
178	0xbf84998c	-1.0359359
179	0xbf5edc6f	-0.87055105
180	0xbf7a0702	-0.97666943
181	0xbf9ee1a0	-1.2412605
182	0xbe120d8c	-0.1426298
183	0xbebd11a0	-0.3692751
184	0xbeda3eb6	-0.4262597
185	0xbf380d17	-0.71894974
186	0xbf4d21de	-0.801298
187	0xbf0f0b64	-0.55876756
188	0xbee59b13	-0.44844875
189	0xbfa0f74c	-1.2575469
190	0xbe05f126	-0.13080272
191	0x3ee10922	0.4395228
192	0xbf08fb17	-0.5350813
193	0x3ee7e6b7	0.4529321
194	0xbe360a67	-0.17777406
195	0xbf22995e	-0.6351527
196	0xbfa058e5	-1.2527128
197	0xbebc82e2	-0.36818606
198	0x3ebd76a0	0.37004566
199	0xbf7e8700	-0.99424744
200	0xbfb70794	-1.4299188
201	0xbf8f47b1	-1.1193753
202	0xbee32e0b	-0.44371065
203	0xbf9fafcc	-1.2475524
204	0xbf36507e	-0.7121657
205	0x3e48abd6	0.195968
206	0xbf4e2b9a	-0.8053528
207	0xbee5ef0a	-0.44908935
208	0xbf5dd47c	-0.8665235
209	0x3e5fb68a	0.21846977
210	0xbfa8d9ff	-1.3191527
211	0xbfc0386d	-1.501722
212	0xbf3c75af	-0.7361707
213	0xbf995fb5	-1.1982332
214	0xbf413367	-0.7546906
215	0xbecf561a	-0.40495378
216	0xbf909e19	-1.1298248
217	0xbf0debd5	-0.55437976
218	0xbf805079	-1.0024558
219	0x3f2c843a	0.6738926
220	0xbf8e4557	-1.1114911
221	0xbf77c7dd	-0.9678934
222	0x3ee3b960	0.44477367
223	0xbfb085d6	-1.3790843
224	0xbf0d025f	-0.55081743
225	0xbe6533a5	-0.22382982
226	0xbee66496	-0.44998616
227	0xbf369248	-0.7131696
228	0xbf15f9d3	-0.58584327
229	0xbeba9667	-0.36442873
230	0xbe32aa36	-0.17447743
231	0xbf59067e	-0.8477553
232	0x3e43cff6	0.191223
233	0xbf1cc36d	-0.61235696
234	0x3c932449	0.017961638
235	0x3d86a815	0.06575028
236	0xbdafb555	-0.08579508
237	0xbf57f0e9	-0.84351975
238	0xbf21f6dc	-0.632673
239	0xbf085705	-0.5325778
240	0xbf0a255d	-0.5396326
241	0x3e0aee02	0.13567355
242	0xbf46e150	-0.7768755
243	0xbf28ae3a	-0.6589085
244	0xbf6d4e68	-0.92697763
245	0xbf636847	-0.8883099
246	0xbfa69f19	-1.3017303
247	0xbee41d20	-0.4455347
248	0xbf38c0ba	-0.7216908
249	0xbf3cdd26	-0.73774946
250	0xbec433d1	-0.38320783
251	0x3fe027a1	1.7512094
252	0xbf87e19e	-1.0615728
253	0xbecfbbcd	-0.40572968
254	0xbf62174c	-0.883168
255	0xbf504db6	-0.8136858

fc2.weight f4 [128, 256]
0	0xbd11558e	-0.035481982
1	0xbc5df318	-0.013546728
2	0xbd3a4df9	-0.045484517
3	0xbd1d05c9	-0.038335595
4	0xbd86ce36	-0.065823
5	0xbbeb648b	-0.0071836165
6	0xbc9679fa	-0.01836871
7	0xbd1ef9cb	-0.03881244
8	0xbd54467f	-0.051825043
9	0xbbc98c5f	-0.0061507667
10	0x3d3b961a	0.045797445
11	0xbda51838	-0.0806126
12	0xbcbc8464	-0.023012348
13	0x3d178b6b	0.036998194
14	0xbd3eda0e	-0.046594672
15	0x3d04af3b	0.032393675
16	0xbd74b363	-0.05974139
17	0x3d0d1f6b	0.03445379
18	0xbd86b6c6	-0.0657783
19	0xbd2dda6f	-0.042444643
20	0xbd92b138	-0.07162708
21	0xbdf31939	-0.11870045
22	0x3c574421	0.013138802
23	0xbce430c5	-0.027855286
24	0x3d3540fc	0.044251427
25	0xbdeddd5d	-0.11614487
26	0x3d8eb1c4	0.069675
27	0xbe120557	-0.1425985
28	0x3d3efd35	0.046628196
29	0xbda4686f	-0.080277316
30	0xbd8a0671	-0.0673951
31	0x3ce960e8	0.028488591
32	0xbc184ebc	-0.0092961155
33	0xbd7e505b	-0.06208835
34	0xbd3a750a	-0.045521773
35	0xbd8bc3c2	-0.06824447
36	0x3d4f4d0a	0.05061058
37	0x3c83b153	0.016075766
38	0xbc2c8696	-0.010530135
39	0x3d3db12c	0.046311542
40	0xbd4788bd	-0.04871439
41	0xbdf6b705	-0.12046627
42	0xbd70cb5f	-0.0587877
43	0xbdbac712	-0.09120001
44	0xbdc9d2af	-0.09854638
45	0x3d959f3a	0.07305761
46	0xbc853fc5	-0.01626576
47	0xbd89d791	-0.06730569
48	0xbc30f36a	-0.010800222
49	0xbcbf7266	-0.02336998
50	0xbd895e78	-0.067074716
51	0xbdeaa522	-0.11457278
52	0xbda118c4	-0.07866052
53	0xbdc8b586	-0.09800248
54	0xbd939b99	-0.07207412
55	0xbcf3dc8a	-0.029768247
56	0x3d8036b0	0.06260431
57	0x3cb2e382	0.021837
58	0xbd9db1aa	-0.07699902
59	0x3d75920b	0.05995373
60	0xbd77a935	-0.060464103
61	0x3cc7cf0c	0.02439072
62	0xbdfc4cb9	-0.12319321
63	0xbe24415f	-0.16040562
64	0xbcd20846	-0.02563871
65	0xbd3e0b04	-0.046397224
66	0xbd20130b	-0.03908066
67	0xbe03a984	-0.12857634
68	0x3d08491e	0.033272855
69	0xbda7a492	-0.08185686
70	0xbdac5f86	-0.08416657
71	0x3b7e8edb	0.0038842473
72	0xbdb5f0c6	-0.088838145
73	0x3d89b468	0.06723863
74	0xbdb2a503	-0.0872288
75	0xbe21f385	-0.15815552
76	0xbd4e6e63	-0.05039824
77	0xbd5eae98	-0.054365724
78	0x3d854f64	0.06509283
79	0x3c7520c2	0.014961423
80	0xbd3d0163	-0.0461439
81	0xbe015baa	-0.12632623
82	0xbde12382	-0.10993101
83	0xbd5ab6f5	-0.053397138
84	0xbe01adb2	-0.12663916
85	0xbca88723	-0.02057225
86	0xbde7caa8	-0.113179505
87	0x3d6dcdbc	0.05805753
88	0x3a5ac694	0.00083456305
89	0xbd12b520	-0.035817266
90	0xbd576f1a	-0.05259619
91	0x3d348964	0.04407634
92	0xbc2556b7	-0.010091475
93	0xbbd98643	-0.0066383197
94	0x3ce3a03c	0.027786367
95	0xbdbc8463	-0.09204938
96	0xbddf1041	-0.10891772
97	0xbd550db8	-0.052015036
98	0xbd864966	-0.065569684
99	0xbd860ece	-0.065457925
100	0x3d5f8571	0.05457062
101	0xbd3acafa	-0.04560373
102	0x3d1915f5	0.037374455
103	0xbd414ef8	-0.04719445
104	0x3c9656d3	0.018351948
105	0xbd2e76af	-0.042593654
106	0x3d4f647a	0.05063293
107	0x3b3bb55a	0.002864203
108	0x3d1a4e76	0.037672482
109	0xbc85c0ad	-0.016327227
110	0xbdac1d1e	-0.08403991
111	0x3cd88c42	0.026434068
112	0xbdb7d528	-0.08976203
113	0xbc98c3ec	-0.01864811
114	0xbdada7a7	-0.08479243
115	0xbdfeaa33	-0.12434807
116	0xbdc327a1	-0.09529043
117	0x3b8ae519	0.0042387364
118	0xbd906f16	-0.07052438
119	0xbda9a833	-0.082840346
120	0x3ae7fd6f	0.001769943
121	0x3d2b713c	0.041856036
122	0x3d85ad24	0.065271646
123	0xbd8b13fa	-0.067909196
124	0xbd5534c8	-0.05205229
125	0xbc0c738b	-0.008572469
126	0xbd6b742b	-0.057483833
127	0xbca9a064	-0.020706363
128	0xbdcb49b0	-0.09926164
129	0x3d63debc	0.055632338
130	0xbd65173e	-0.05593037
131	0xbd5fb451	-0.054615323
132	0xbd958bb2	-0.073020354
133	0x3d93f571	0.072245486
134	0xbc72f229	-0.014828243
135	0xbdb6fe4f	-0.08935224
136	0xbd2f5170	-0.042802274
137	0xbdd10a5d	-0.10207055
138	0xbd050cfd	-0.03248309
139	0x3c9020f5	0.01759384
140	0xbd5c782f	-0.053825554
141	0x3be332db	0.0069335527
142	0xbe24221f	-0.16028641
143	0xb9ae2c77	-0.00033220995
144	0x3c4b3628	0.012403049
145	0xbcce0102	-0.025146965
146	0x3c87d3ef	0.01658055
147	0x3c04baf3	0.008101213
148	0xbd9875cd	-0.07444344
149	0xbd802af9	-0.062581964
150	0x3cc28f48	0.023749962
151	0xbd83306b	-0.06405719
152	0xbd12110f	-0.0356608
153	0xbdea8db2	-0.114528075
154	0xbcc1a0ff	-0.02363634
155	0xbd11846f	-0.03552669
156	0xbc237a26	-0.009977853
157	0x3d8bc7aa	0.06825192
158	0xbd333974	-0.043755963
159	0xbd6ed75e	-0.05831086
160	0xbd337fc4	-0.04382302
161	0xbab5f896	-0.0013883288
162	0x3ca8d542	0.020609502
163	0xbd1c32d8	-0.038134426
164	0x3c8b1011	0.016975434
165	0xbe0f2add	-0.13981195
166	0xbd2500c8	-0.04028395
167	0x3d97163c	0.07377288
168	0x3d416280	0.047213078
169	0xbd6964d1	-0.05698091
170	0x3d05340c	0.03252034
171	0xbc1f096b	-0.009706835
172	0xbdcfed34	-0.10152665
173	0xbd795eb7	-0.060881343
174	0xbe1a46a7	-0.15066014
175	0x3d19c5be	0.037542097
176	0xbc0e213c	-0.008674916
177	0xbdb3f10c	-0.087862104
178	0xbd76da2d	-0.060266662
179	0xbd38a048	-0.04507473
180	0xbd4c5b20	-0.04989159
181	0xbdc1a4e8	-0.094552815
182	0xbdba656a	-0.091013744
183	0x3c6d21dc	0.014473405
184	0x3cdb7a45	0.026791701
185	0x3d22a34e	0.03970652
186	0xbda86bca	-0.08223684
187	0xbd4bca98	-0.049753755
188	0xbdd66d49	-0.10470063
189	0x3bae8e1f	0.0053270007
190	0x3c209bc4	0.009802762
191	0xbdaee410	-0.08539593
192	0xbd9a4e77	-0.07534497
193	0xbd32acd3	-0.04362185
194	0xbc973964	-0.018459983
195	0x3d7bb848	0.06145504
196	0xbd208454	-0.039188698
197	0x3c49bf26	0.01231364
198	0xbde2b5dc	-0.11069843
199	0xbd038273	-0.032106828
200	0xbd6434ac	-0.055714294
201	0x3d3f33e5	0.04668035
202	0xbdbb7ac3	-0.09154274
203	0xbdf937a6	-0.12168817
204	0x3cb0fb39	0.021604167
205	0xbc834bc2	-0.016027335
206	0xbda4f8f8	-0.080552995
207	0x3cbf66ae	0.023364391
208	0x3d707186	0.058702014
209	0xbddeb668	-0.10874635
210	0x3d4b41df	0.049623366
211	0xbdb2b88b	-0.08726605
212	0x3bc8bd55	0.0061260858
213	0xbd71b9a8	-0.059014946
214	0xbcd77ad2	-0.026303682
215	0xbbb87550	-0.005629219
216	0xbdde7fb8	-0.10864204
217	0x3ca47426	0.020074915
218	0xbd89fab9	-0.06737275
219	0xbc9bf070	-0.019035548
220	0xbe1a8cf7	-0.15092836
221	0xbd51dd4e	-0.051236443
222	0xbdc5db0b	-0.0966092
223	0x3d03dc4c	0.032192513
224	0xbd82b753	-0.063826226
225	0xbde215b3	-0.11039295
226	0xbcea10b2	-0.028572414
227	0x3d85822c	0.06518969
228	0xbd5603d0	-0.05224973
229	0x3d046503	0.032322895
230	0xbdb7aa2f	-0.08968007
231	0x3d4ca170	0.049958646
232	0x3d2aec6d	0.04172938
233	0xbe0445c4	-0.12917238
234	0xbd31c272	-0.043398328
235	0x3c39f808	0.011350639
236	0x3d057a5c	0.032587394
237	0xbda70850	-0.08155882
238	0x3cf00bf6	0.029302578
239	0xbd32435b	-0.043521266
240	0xbd693dc1	-0.05694366
241	0xbc626ba4	-0.013819609
242	0xbb56abca	-0.0032756203
243	0xbdb10ada	-0.08644648
244	0xbcc4640a	-0.023973484
245	0x3d3e747c	0.046497807
246	0xbd3da95d	-0.046304096
247	0xbdbd1104	-0.09231761
248	0xbda13bed	-0.07872758
249	0xbd7bd789	-0.061484847
250	0xbd8e2524	-0.06940678
251	0xbddc1e56	-0.107479736
252	0xbd8d7944	-0.06907895
253	0xbd450433	-0.048099708
254	0xbd40ed4f	-0.047101315
255	0x3d8bfe5a	0.06835623

fc2.bias f4 [128]
0	0xbd938811	-0.07203687
1	0xbd990a3e	-0.07472657
2	0xbe1f24c3	-0.15541367
3	0xbe4cc881	-0.19998361
4	0xbd8493e4	-0.064735204
5	0xbe0daff4	-0.13836652
6	0xbe1309d1	-0.14359213
7	0xbdef739f	-0.11691975
8	0xbdb95bc9	-0.0905071
9	0xbe1c1780	-0.1524334
10	0xbe3f5af6	-0.18687043
11	0xbe2775b2	-0.16353491
12	0xbde12382	-0.10993101
13	0xbe81a1fa	-0.2531889
14	0xbdb596ee	-0.08866678
15	0xbe3a4dfa	-0.18193808
16	0xbe0a1229	-0.1348349
17	0xbdf3a5da	-0.11896868
18	0xbe4ca559	-0.1998495
19	0xbe51ba25	-0.20481165
20	0xbbbc2e73	-0.005742842
21	0xbd82a7b3	-0.06379642
22	0xbdd23b0e	-0.1026517
23	0xbe1aa07f	-0.15100287
24	0xbdc1df80	-0.09466457
25	0xbdc99bff	-0.09844207
26	0xbe23a907	-0.15982448
27	0xbe0a7f89	-0.13525213
28	0xbd8c92cb	-0.06863936
29	0x3f997a68	1.199048
30	0xbdbf0505	-0.09327129
31	0xbe1e079a	-0.15432587
32	0xbe0de6a4	-0.13857514
33	0xbe1a0826	-0.15042171
34	0xbd05dfbb	-0.03268407
35	0xbdea73aa	-0.114478424
36	0xbe152df2	-0.14568308
37	0xbe172dac	-0.14763516
38	0xbe1a3aef	-0.15061544
39	0xbdbd0e42	-0.09231235
40	0xbd2cbd46	-0.042172693
41	0xbe62c194	-0.22144157
42	0xbe09a0e1	-0.13440277
43	0xbe22d22e	-0.1590049
44	0xbdd65da9	-0.10467083
45	0x3e9c8162	0.3056746
46	0xbdae9dc0	-0.08526182
47	0xbdf71c95	-0.120659985
48	0xbf21dc41	-0.63226706
49	0xbdea04fa	-0.114267305
50	0xbda98cdc	-0.0827882
51	0xbe2b0f95	-0.16705163
52	0xbe240aaf	-0.160197
53	0xbe013882	-0.12619212
54	0xbe0c8ee3	-0.13726382
55	0xbdd21bce	-0.102592096
56	0xbe0ee875	-0.13955863
57	0xbdb233bb	-0.08701273
58	0xbe35d186	-0.17755708
59	0xbd943faa	-0.072387055
60	0x3f985f73	1.1904129
61	0xbe0f59bd	-0.13999076
62	0xbde93dc1	-0.11388732
63	0xbda00754	-0.07813898
64	0xbddb7e2e	-0.10717426
65	0xbd850964	-0.06495932
66	0xbe3aa3d4	-0.18226558
67	0xbdb35fb6	-0.0875849
68	0x3f940a2a	1.1565602
69	0xbe06c5cf	-0.13161395
70	0xbdec79e4	-0.11546686
71	0xbdf8d5fe	-0.12150191
72	0xbde8ad39	-0.113611646
73	0xbe04e428	-0.1297766
74	0xbe170a84	-0.14750105
75	0xbe213035	-0.15741046
76	0xbe95e973	-0.2927967
77	0xbde83fd8	-0.11340302
78	0xbe3da18d	-0.18518658
79	0xbdb3f8dc	-0.087877005
80	0xbe2b713d	-0.16742416
81	0xbdc66f7c	-0.09689233
82	0xbe407c2c	-0.18797368
83	0xbdc0ce0f	-0.094143026
84	0x3f21d0af	0.6320905
85	0xbdabb3a5	-0.08383874
86	0xbe2fedb1	-0.17180516
87	0xbe2677c9	-0.16256632
88	0xbda2a34e	-0.07941304
89	0x3e71674d	0.23574562
90	0xbe2bbf5d	-0.16772218
91	0x3f06fac0	0.52726364
92	0xbdc28b61	-0.09499241
93	0xbe28fc53	-0.16502504
94	0xbe146aa2	-0.14493802
95	0xbdd8e61c	-0.10590765
96	0xbe037aa3	-0.12839751
97	0xbdf6edb5	-0.12057058
98	0xbe864d4e	-0.26230854
99	0xbdd33127	-0.103121094
100	0xbe381b78	-0.17979228
101	0xbe160c9b	-0.14653246
102	0xbd801483	-0.06253912
103	0xbe3183f2	-0.1733549
104	0xbe9c0075	-0.304691
105	0xbdb5298d	-0.08845816
106	0xbe01ccf2	-0.12675837
107	0xbf03dda1	-0.51510054
108	0xbe23d7e7	-0.16000329
109	0xbe148212	-0.14502743
110	0xbdb04789	-0.08607394
111	0xbdacd956	-0.08439891
112	0x3d3c22ba	0.045931555
113	0xbe252bc0	-0.1612997
114	0xbdcdd60a	-0.1005059
115	0xbe28c5a3	-0.16481642
116	0xbdb135d2	-0.086528435
117	0xbe50182c	-0.20321721
118	0xbe239967	-0.15976487
119	0xbdb938a1	-0.09044004
120	0xbddb4b66	-0.107077405
121	0x3f81a8ae	1.0129602
122	0xbe1de472	-0.15419176
123	0xbe1d7ee1	-0.15380432
124	0xbdc40262	-0.09570767
125	0xbdde6460	-0.10858989
126	0xbe29f2e0	-0.16596556
127	0xbe038e2b	-0.12847202

fc3.weight f4 [1, 128]
0	0x3b4513d3	0.003007163
1	0xbcf16f70	-0.029472083
2	0xbb652eae	-0.003497045
3	0xbbdc31de	-0.006719812
4	0xbb312a19	-0.0027033149
5	0xbb2a9be4	-0.002603286
6	0xbcc17f03	-0.023620134
7	0x39a2c671	0.00031046898
8	0xbcbd8a1c	-0.023137145
9	0xbc306e98	-0.010768555
10	0xbcdbb4de	-0.026819643
11	0x3c861a86	0.01637007
12	0x3c2362b5	0.009972264
13	0xbc88aeb0	-0.01668486
14	0x3cf3adaa	0.029745895
15	0xbb07fee7	-0.00207513
16	0xbc9eb37a	-0.01937269
17	0xbb428778	-0.0029682796
18	0xbbd8038b	-0.006592219
19	0xbc1ddca1	-0.009635122
20	0xbb2b984c	-0.0026183305
21	0xbcb6332e	-0.022241201
22	0xbccffcd4	-0.025389113
23	0x3ce59c0e	0.028028514
24	0x3c8eb995	0.017422477
25	0xbbecf6e4	-0.00723158
26	0x3b95782b	0.0045614443
27	0x3b55b999	0.0032611846
28	0xbbdb7276	-0.0066969944
29	0x3bf75923	0.0075484677
30	0xbcabb26d	-0.020959103
31	0x3ac4e4f3	0.0015021845
32	0x3c803e81	0.015654804
33	0xbc71dcd1	-0.014762119
34	0x3cbfaf40	0.023398995
35	0x3d32cd8a	0.04365305
36	0x3982e633	0.00024967044
37	0xb8c7697d	-9.508708e-05
38	0x3ca88722	0.020572249
39	0xbc8db00e	-0.017295863
40	0x3cbbec0a	0.0229397
41	0x3c46c56c	0.01213203
42	0x3b08414f	0.002079088
43	0x3cb60066	0.022216987
44	0x3c6e893e	0.014559088
45	0xbc7df1c1	-0.015499533
46	0xbbbd18d4	-0.005770782
47	0x3c8bfa73	0.017087197
48	0xbc3b5091	-0.011432783
49	0xbbc1cbf7	-0.005914207
50	0x3bc43911	0.005988248
51	0x3c3d630c	0.011559259
52	0x3caad8e5	0.020855376
53	0xbab6f67e	-0.0013958958
54	0x3b2ebcff	0.0026662943
55	0x3caae885	0.020862827
56	0xb98db7c4	-0.00027030532
57	0xbc9076e6	-0.01763482
58	0x3cb94071	0.022613736
59	0xbc5ba53e	-0.013406096
60	0x3c5b12ea	0.013371209
61	0xbb2f8439	-0.0026781692
62	0x3c9f307b	0.019432297
63	0x3c6146ab	0.013749759
64	0x3b08fcd0	0.002090264
65	0xbc6040af	-0.013687297
66	0xbc9ff937	-0.019528015
67	0xbb406860	-0.0029359087
68	0x3bd9c330	0.0066455826
69	0xbc8cd381	-0.017190697
70	0x3cd2a09d	0.025711352
71	0x3b891c10	0.0041842535
72	0xbc3767c7	-0.011194176
73	0xbc6a539f	-0.014302163
74	0x3c880a9e	0.016606625
75	0x3b1750d3	0.0023088946
76	0xbc448f02	-0.011996986
77	0xbc5125b5	-0.012765338
78	0xbbe0353a	-0.0068422826
79	0xbc068bce	-0.008212043
80	0xbbecbc4c	-0.007224595
81	0xba11da5f	-0.0005563851
82	0xbc9297a3	-0.017894572
83	0x3c9da5f1	0.019244166
84	0xbc433761	-0.011915059
85	0xbc880a9f	-0.016606627
86	0xbc25f2f8	-0.010128729
87	0x3c7dbbeb	0.015486698
88	0x3c3cc2e4	0.011521075
89	0xbc6fc258	-0.0146337375
90	0x3bd1fc8d	0.00640828
91	0xbc6570b8	-0.014003925
92	0xba04035c	-0.0005035901
93	0x3c592884	0.013254289
94	0x3cc4834a	0.023988385
95	0x3c3d0d1b	0.011538769
96	0xbc9e8c6a	-0.019354064
97	0xbc1de85a	-0.009637916
98	0xbb8fee2d	-0.0043924064
99	0xbacb0748	-0.0015489841
100	0xbcbb6353	-0.02287451
101	0xbc2356fe	-0.009969471
102	0x3ce57cce	0.028013613
103	0xbb7a1650	-0.0038160272
104	0xbc5bf596	-0.0134252515
105	0xbbe401e5	-0.0069582337
106	0xbb41cbf8	-0.0029571038
107	0xbc10b89a	-0.008833075
108	0xba9bbda8	-0.0011882083
109	0xbcc07c07	-0.02349664
110	0xbc39e099	-0.011345052
111	0xbc58b970	-0.0132278055
112	0xbc3e8bed	-0.011630041
113	0xbb0e38ab	-0.0021701257
114	0xbc9a6db7	-0.018851144
115	0x3c036b11	0.008021132
116	0x3c01bd52	0.007918673
117	0xbbcd12ba	-0.006258336
118	0x3c1e78e2	0.009672375
119	0xbcc784d4	-0.02435533
120	0x3cf167a0	0.029468358
121	0x3c74fe36	0.014953187
122	0x3caa7f0b	0.020812532
123	0xbb602d6a	-0.0034206756
124	0xbcbc3642	-0.02297509
125	0xbc9dc14a	-0.019257206
126	0xbbf1ea59	-0.0073826727
127	0xbbed8f3c	-0.007249741
